saved_models/type1_split100_batchsize32_rng0_epoch40/model.pth (torch, 705653 bytes, 16 tensors)

conv1.weight f4 [8, 1, 3, 3]
00000000: bcdb ebbc 43db 0e3e a972 89be 81a2 5bbe
00000010: 98cc 05be 5f75 183e ea47 35bd 5430 6d3e
00000020: b8b7 7ebc 51fd 283d 5bb8 f9bd fef7 a1bd
00000030: 93a0 a7be d549 6bbe dea1 0cbe 0b30 f4bb
00000040: 1924 e43d 7502 5c3e 63f3 48be c335 e6bd
00000050: 8232 3b3e b69e 853e 6f1e c7bd 44ec 8e3e
00000060: 269e 56bd fe96 5c3d a0c8 b43e 26c1 80be
00000070: 884f 2abe 74c6 4cbd 66b6 a0bd 26eb 973e
00000080: 112d 39be 468e debd 4675 3fbe b1cb 86be
00000090: 5d4e 9fbe e530 a63e 7f39 2e3e 47eb 043e
000000a0: 0b45 06bc 67f9 3abe 593f d73d c529 8bbe
000000b0: ddfd 24be 29e1 00be f77a 983e d76e 893e
000000c0: f86e b5bd 0467 dc3d 19bc 923e d319 c03e
000000d0: a331 723e 21ee 093e 9662 263e 6860 c1be
000000e0: 8805 32be 219e 7cbe 3fa3 81be 1de5 30be
000000f0: ecd2 e93d 884d b5bd 6caf 5cbe d6d4 263e
00000100: d94e 813e ea0b 4b3d 0ae2 a63d 7156 1c3e
00000110: 1d74 853e 0adc be3e c119 25be b6a7 c9bc
-0.028791301 0.13950829 -0.2684529 -0.21448709 -0.13066328 0.14888524 -0.044258036 0.23162967
-0.015546732 0.041257206 -0.12193366 -0.07908629 -0.32739696 -0.22977383 -0.13733622 -0.007452016
0.111396976 0.21485312 -0.19624095 -0.11240723 0.18280986 0.2609765 -0.097226016 0.2791463
-0.052396916 0.053854935 0.35309315 -0.2514736 -0.16631901 -0.049993947 -0.0784729 0.29671592
-0.18083598 -0.1086698 -0.1869708 -0.2632728 -0.31114474 0.3245918 0.1701412 0.12980376
-0.008195172 -0.18259202 0.105101295 -0.27180305 -0.16112466 -0.12585892 0.29781315 0.26842377
-0.08859056 0.10761836 0.28659132 0.37519702 0.23651747 0.13469745 0.16248545 -0.37768865
-0.17384923 -0.24669696 -0.2531986 -0.172749 0.11417183 -0.088526785 -0.21551293 0.16292128
0.25255468 0.04957191 0.08148582 0.1526735 0.2606515 0.3727725 -0.16123106 -0.024616104

conv1.bias f4 [8]
00000000: e95d 343e 455b 8d3e 97f1 863e 2400 b13e
00000010: ec25 693d 0b02 80be 2d5d e1bc 4236 44be
0.17613949 0.27608696 0.26356193 0.3457042 0.05692093 -0.2500156 -0.02751025 -0.19161323

conv2.weight f4 [16, 8, 3, 3]
00000000: 25a5 89bb 2fe5 86bb e799 8cbb 39fd 8bbb
00000010: 15da 80bb 833f 84bb d52a 73bb d0e1 80bb
00000020: 5c07 85bb 4895 13bc 273d 10bc ddbf 0fbc
00000030: 2e50 14bc 223e 10bc 40cd 19bc f3d7 12bc
00000040: 9ce6 0fbc 26ff 09bc 9caf 2bbc 2f93 27bc
00000050: 5569 2abc cc6d 2bbc 16db 23bc 8df8 16bc
00000060: 71be 34bc 6e2a 1abc cdd9 2abc c3f9 f5bb
00000070: 1bf5 f3bb d74c eabb 6eef ecbb cbde f0bb
00000080: 8732 f2bb 6a29 f0bb ec1a f0bb 2d20 f4bb
00000090: 4f84 8db8 bbfa b6b8 f6cb 48b9 158f 7db8
000000a0: 8e2f d9b8 2b92 4cb9 51bc 89b8 52d2 f1b8
000000b0: 9ae2 79b9 e782 5fbb aa8e 6cbb 2853 69bb
000000c0: 03a5 62bb 07c6 89bb b328 64bb 27f4 64bb
000000d0: b9f8 88bb 718c 55bb 071e 2031 3d9e a82c
000000e0: 4e24 ea94 d450 8031 9ea3 822d 3c46 b416
000000f0: 2ff1 d331 e2ad 852d c28a 4b99 faf6 d4ba
00000100: 70fd 00bb 715d eeba 803c d1ba 9e9f e1ba
00000110: 5b80 01bb e9bb dfba e05d 0fbb f3ba 12bb
00000120: 56ae 52bd 5724 d1bb bc2d 823c 7348 07be
00000130: 54bd 463c c3fe babd 6e7e 0abd b697 aebd
00000140: dea4 0cbd ab05 00bd cfbe dfbd 3978 cebd
00000150: 9312 8dbc 45cc 90bc 652b 66bd a9ec b53c
00000160: 0d80 dcbd c61b 96bc 0118 ac3d 928a 26bd
00000170: 6017 9c3d 4964 b43c b520 cdbd a228 183d
00000180: f5d9 18bd e22c 8ebd a493 413d e4f4 80bd
00000190: 74ed 24bd 3205 2dbd ebed 4a3d b254 edbc
000001a0: 69b4 093c bf61 22bc 6373 6bbd 2b67 18bd
000001b0: 4c00 f3bd 8505 feba d58f 6ebc 26a3 a43c
000001c0: e9c3 bebd c895 3ebd 7c98 ffbd cb46 9cbd
000001d0: 1025 3dbd 8b2d b03d 0ee3 5cbc bd88 80bd
000001e0: 5c6d a43c 3783 783d 6598 1dbe 0c34 a3bd
000001f0: 8fd1 c3bd adbb 8dbd a0fe bfbd 19d5 04bd
00000200: f1b5 26bc 36fb 7dbd 2f80 61bd 6369 c33a
00000210: be92 6ebd 4e57 4ebd 93c9 a7bb ada0 1a3d
00000220: 0fea 573d f132 65bc c5c5 b03d 896f d93b
00000230: d5bf 08bb ae0b bb3d 201f 903d 1e05 1fbd
00000240: b9dc bbbc 7427 d93c c9fa 0cbd a57c c3ba
00000250: dcc7 6bbc 925b 7abc 8e06 cf3b c7da 3c3d
00000260: 078f d3bb 71bc 973d c23e 4f3d 5035 7dbd
00000270: 6225 233d 805a 4dbd 7b71 3fbd c1df da3c
00000280: c91d e93c e046 273d 504f b8bc 7636 b6ba
00000290: dadc 023d c0c7 a3bd 5f28 843d 1bbf c2bd
000002a0: 163d 1c3c c552 86bc 9304 8abd baff 223c
000002b0: 4fd7 813d 9988 bebc 8f96 9fbc 5245 c7bb
000002c0: eaeb 53bd 723f b63c bf63 fabb e52d 22bd
000002d0: 2dd5 45bc b375 e63c 63e6 393c 4b74 aa3b
000002e0: f8e6 cc3c 68d3 74bc 5cd4 27bc 1cd4 253b
000002f0: c2be 6d3c 804b 3cbc 9603 bbbc 2576 abbc
00000300: 9f9e c0bb 5a7d b73b e135 57bc 1281 b6bb
00000310: 4fb1 c03c fcf0 20bc 6617 1538 2fb9 a2b8
00000320: 00c4 613c 2f0b 5238 3475 acb8 71fa 9a3c
00000330: 7f4e b8b5 c1e0 26ba 7146 8b3b 41e8 74bb
00000340: 360e 7d3b 2a7c 00bc 80be d8bb 209d 63bb
00000350: aabb f43b 893e 82bb 5804 eabc ee4b 0bbd
00000360: 911f a63d 42d5 21bd 9e41 893d f962 c0bc
00000370: bcf1 61bc 9515 1e3d b240 3abd 6f5f 193d
00000380: 3561 eb3c e060 88bd a5ee db3b 4fb1 593c
00000390: 00a7 203d 7e15 b9bc c8b2 f0bd 3f67 38bc
000003a0: ec2b 1c3c ffd7 95bd 62f7 8b3d 2a11 c63d
000003b0: cb07 54bd 50b5 d33c a3bf 883d 10f9 433c
000003c0: 52ec 013d ac33 033d b3f5 adbd f97f c93b
000003d0: 0344 503d 3c2c 6b3d 8aca 343d 37f6 5bbc
000003e0: a81b 393b 59d0 45bd 4a19 cebd 3679 f9bd
000003f0: 3e28 213e 8fe5 143e a800 703d 2369 d23d
-0.004200595 -0.0041166763 -0.0042908075 -0.00427213 -0.0039322474 -0.0040358915 -0.0037104387 -0.003933169
-0.004059715 -0.009007759 -0.008803642 -0.008773771 -0.009052319 -0.008803876 -0.009387314 -0.008962619
-0.008783009 -0.0084226485 -0.01047888 -0.010227962 -0.01040109 -0.010463189 -0.010000965 -0.009214533
-0.011031733 -0.00940953 -0.010427904 -0.0075065806 -0.0074449903 -0.0071502733 -0.0072306907 -0.0073507777
-0.0073912772 -0.0073291557 -0.007327428 -0.0074501247 -6.748048e-05 -8.7251385e-05 -0.00019149468 -6.0453156e-05
-0.00010356224 -0.00019509408 -6.567746e-05 -0.00011530951 -0.00023830906 -0.0034105123 -0.0036095777 -0.0035602544
-0.0034583218 -0.004204515 -0.0034814298 -0.0034935565 -0.0041800407 -0.003258493 2.3300133e-09 4.792415e-12
-2.3642282e-26 3.7344794e-09 1.485195e-11 2.9124893e-25 6.1683276e-09 1.5197569e-11 -1.0522876e-23 -0.0016247921
-0.001968231 -0.0018185807 -0.0015963465 -0.0017213707 -0.0019760344 -0.0017069551 -0.0021876022 -0.0022389262
-0.05143579 -0.006382506 0.015890948 -0.13211231 0.0121301 -0.09130623 -0.03381198 -0.0852503
-0.034336917 -0.031255405 -0.10925066 -0.100815244 -0.017220771 -0.017675528 -0.056193728 0.022207575
-0.10766611 -0.01832379 0.08403016 -0.040659495 0.07621646 0.022020476 -0.10016004 0.037148125
-0.037317235 -0.069421545 0.04725994 -0.06296709 -0.040265515 -0.042241283 0.049543303 -0.02897105
0.00840483 -0.009911 -0.05748309 -0.037207764 -0.11865291 -0.0019380307 -0.014560659 0.020097326
-0.09314711 -0.04652956 -0.12480256 -0.0763069 -0.046177924 0.08602437 -0.013481868 -0.06276081
0.020071678 0.06067201 -0.15390165 -0.079689115 -0.095614545 -0.06920562 -0.09374738 -0.03242979
-0.010175214 -0.06200715 -0.055053886 0.0014908727 -0.058245413 -0.05037623 -0.005120465 0.03775089
0.05271345 -0.013989196 0.086314715 0.0066356105 -0.0020866294 0.09133087 0.070371866 -0.03882324
-0.022932397 0.02650807 -0.034418855 -0.0014914466 -0.014390912 -0.015280621 0.00631792 0.04610708
-0.006456259 0.07408989 0.05059696 -0.06181842 0.039830573 -0.050135136 -0.046739083 0.026718022
0.028456585 0.040839076 -0.022498757 -0.0013901729 0.0319489 -0.07997084 0.06453013 -0.09509107
0.009536048 -0.01639689 -0.06739154 0.009948665 0.06339895 -0.023258494 -0.019480972 -0.0060812617
-0.051738657 0.02224705 -0.007641285 -0.03959455 -0.012074751 0.028132295 0.011346432 0.0052018515
0.025012478 -0.014942981 -0.0102435015 0.002530343 0.014510812 -0.01149261 -0.022828858 -0.02093036
-0.005878284 0.00559966 -0.013135404 -0.0055695856 0.023522047 -0.00982308 3.554616e-05 -7.759255e-05
0.01377964 5.0078317e-05 -8.22343e-05 0.018918248 -1.3731914e-06 -0.00063658884 0.0042503406 -0.003736988
0.0038613207 -0.007842103 -0.0066145062 -0.0034731105 0.0074686604 -0.00397474 -0.028566524 -0.03400796
0.081114896 -0.03951002 0.067019686 -0.023484694 -0.013790544 0.0385948 -0.045471855 0.03744453
0.028732875 -0.066591024 0.0067117983 0.013286903 0.039221764 -0.022593256 -0.1175285 -0.011255085
0.009531956 -0.073165886 0.06834294 0.096712425 -0.051765244 0.025843292 0.06677177 0.011961237
0.031719513 0.0320317 -0.08494129 0.0061492887 0.05084611 0.057415232 0.04413847 -0.013425401
0.0028245244 -0.0482944 -0.10063417 -0.12181322 0.15738007 0.14540695 0.058594376 0.102739595

conv2.bias f4 [16]
00000000: 10cf 35bc f5d0 17bd 936a 603d e044 b9bd
00000010: 0000 6a3d 4f51 5cbd 332b 2fbd 1654 81bd
00000020: 976d acbd d8d6 433d 8dcb 373d 7081 5abe
00000030: 11c1 64bd 860b d1bd 52df e0bc 9b5d 86bd
-0.011096731 -0.03706451 0.054789137 -0.0904634 0.057128906 -0.05378848 -0.042765807 -0.06314866
-0.0841934 0.047812313 0.044871856 -0.21338439 -0.055848185 -0.10207276 -0.027450237 -0.065608226

conv3.weight f4 [8, 16, 3, 3]
00000000: 1713 583b b285 443b 6696 523b 2669 533b
00000010: 5779 4c3b a0c4 503b ee61 453b fc3e 413b
00000020: f2fb 463b 00eb 9dbc af7f a93c c3e3 a83c
00000030: 08b8 95bc f073 053c e8e9 b43c 9e4c 55bc
00000040: 05be 623c 353e 3d3c 8d1d 083b d9d3 1a3d
00000050: 1c03 153d 5107 a63b 2dfe e03c a2a9 0e3d
00000060: 9eb2 6abb 3275 d83c 40af f83c 4a91 18bc
00000070: 8d54 893d bd00 0a3d 0495 703d 2e5f 5f3d
00000080: dce9 3ebd a571 16ba 8e79 303c 4530 833c
00000090: 80c6 f93c 131d 36bd 3100 1bbd 9175 683d
000000a0: c96f 0bbd b029 90bd 70af 363d 8586 363d
000000b0: 60ca 1cbd 0237 cc37 2f78 15bb a6a1 10bb
000000c0: 51ce 563b cc56 91ba 0bb3 033b 48c6 62bb
000000d0: b801 53b9 604a 4e37 997d 792f 6fa1 4536
000000e0: 5b59 5c36 d695 8031 d0a0 fe30 c67d e62d
000000f0: 109c e8b0 7b6a 2231 faa4 c330 be6a 7abd
00000100: 259b 88bd b9d5 b2bd 7bf5 6bbd e2fc 50bd
00000110: f988 d4bd f812 b8bd f20a 53bd 29d6 94bd
00000120: e300 88bc 2509 df3b 438a a4bc f132 85bd
00000130: 6c11 a8bd bf86 363d 8873 a0bc cf86 14bd
00000140: b01e e5bc 3f3b efbc f9cb 4bbc a9e1 66bd
00000150: 3632 853d a4b0 1f3d 0df7 f9bc c2c4 55bc
00000160: 8c21 303d ad3d a2bc 2ac1 353c 4738 383c
00000170: e851 82bd 2df3 243c 413d cabb e77b 723d
00000180: 479b 18bd 99ed 00bd cc2b 713d 7a1a 05b9
00000190: 3ecc 2a37 5768 6c33 9863 2db8 3fe4 5138
000001a0: ee6b 2533 4f78 f338 3e62 86b6 507c a632
000001b0: 702e ebbc 6796 a2bc 5816 523c 9794 3f3c
000001c0: a5ca e83c 22be 413d 7635 3cbd 1b2a 243c
000001d0: 16e3 c0b9 ffc2 fd3c d150 8e3c fe4d a6bc
000001e0: b58f f2bc e453 3b3d e8a6 debc 71e5 1a3d
000001f0: 6d08 70bd 6672 6fbc 016e 703b 59b1 743b
00000200: c238 763b 80ac 763b d084 6c3b 2225 783b
00000210: c850 7d3b 8372 753b bfc9 683b 195c a1bc
00000220: 245f 67bb 5201 1d3b c8a2 3a3b b5e3 8e3c
00000230: 93a3 ad3c 40c8 4abb 8284 543c f30a 8c3c
00000240: 3850 0080 1382 0080 0e28 0080 3e7a 0080
00000250: 0032 0000 5a7d 0000 a221 0080 fd5f 0000
00000260: b980 0000 b2e1 e0ba 7eb1 b5ba 1333 7fba
00000270: 53ea c5ba 2691 96ba ef55 94ba 3456 a5ba
00000280: 63e1 83ba 731c bcba af10 4ab8 86b6 cab7
00000290: a283 e835 a196 d0b7 bfed 0eb7 d24b ea35
000002a0: 2e32 9cb7 ef1b 88b6 e3b3 5135 9d9c 07ba
000002b0: 3e8d cdb8 c93c 04ba f75d 4a39 dd97 a639
000002c0: 067c a2b9 329e e639 8052 7c37 d75c 93ba
000002d0: fdab d2ba 74a0 95bb a8c0 97bb adc1 0b39
000002e0: 8a61 733b b926 54bb e7e7 2dbb 7a3e 65bb
000002f0: 53c5 98ba 545f abba 0d3e 7bba 3c8c 5bba
00000300: c1bb a6ba 1812 86ba 7013 97ba 074f 8bba
00000310: a3c6 95ba bc60 cbba 4086 a8ba 2453 67ba
00000320: 9da1 69ba e711 9aba a8dd 51ba 560b 9cba
00000330: 1352 22ba 99f1 13ba c618 b1ba 07b2 26ba
00000340: b0c1 7cb9 0266 18ba 280e 3638 bd34 5539
00000350: 87af a2b9 5562 7539 7269 7ab8 fe85 84ba
00000360: e619 d6ba b833 d5ba a034 6cba 72a9 8eba
00000370: 010d e9b9 ef6d 9bba 6844 5bba 572b 1aba
00000380: c77e 67b9 0b6e 3238 862d 3437 92cd abb7
00000390: de23 fb37 2678 b936 30d0 92b7 21f2 3238
000003a0: 2fd1 dd37 aab1 9837 d82d efba 9a8c 7abb
000003b0: 7789 b63a cbb4 cc3a 06ab 5039 43e8 79bb
000003c0: 051d 113b bf26 64ba 5bb5 9b3a 15e5 a7ba
000003d0: 7f21 5cba e702 55ba 0873 97ba 07b3 40ba
000003e0: 5baf 8bba db30 5cba f289 51ba f1e8 aaba
000003f0: 3945 28ba 2b61 7ab9 27c1 e0b9 9078 07b7
0.0032970363 0.0029986915 0.0032133101 0.0032258718 0.0031200254 0.003185548 0.0030118185 0.0029487005
0.0030362573 -0.019277096 0.020690767 0.020616418 -0.01827623 0.008145317 0.022084191 -0.013018755
0.0138392495 0.011550476 0.0020769567 0.03779969 0.03637992 0.00506679 0.02746495 0.034829743
-0.003581203 0.02642307 0.030357003 -0.009311983 0.0670558 0.03369211 0.058735862 0.05453413
-0.046609744 -0.000573898 0.010771168 0.016014228 0.03049016 -0.04446132 -0.03784198 0.056752745
-0.034042154 -0.07039201 0.044600904 0.04456188 -0.038278937 2.434431e-05 -0.002280723 -0.0022069006
0.0032776783 -0.001108849 0.0020095732 -0.0034603048 -0.00020123168 1.2295874e-05 2.269104e-10 2.9449254e-06
3.2834566e-06 3.7423247e-09 1.8526638e-09 2.6203827e-11 -1.6924577e-09 2.363463e-09 1.4235007e-09 -0.061136954
-0.066702165 -0.087321706 -0.057607155 -0.051022418 -0.10377688 -0.08987993 -0.05152411 -0.0726741
-0.016601985 0.00680651 -0.02008546 -0.06503857 -0.08206448 0.044562098 -0.01958634 -0.036261376
-0.027968735 -0.029203055 -0.012438768 -0.05636755 0.065037176 0.038986817 -0.03051331 -0.013047399
0.043000743 -0.0198048 0.011093417 0.011243886 -0.063632786 0.010067743 -0.006171853 0.059200194
-0.03725746 -0.03147659 0.05887966 -0.00012693732 1.0180343e-05 5.504293e-08 -4.1339168e-05 5.0042054e-05
3.8515218e-08 0.00011609552 -4.004948e-06 1.9381474e-08 -0.028708667 -0.019847108 0.01282271 0.011693141
0.028416941 0.047300465 -0.04594942 0.010019804 -0.00036790286 0.03097677 0.01737252 -0.020300861
-0.02960954 0.0457343 -0.027179196 0.03781647 -0.058601785 -0.014614677 0.0036686661 0.0037337153
0.0037570451 0.003763944 0.0036089905 0.003786393 0.0038652886 0.0037452288 0.003552064 -0.019697236
-0.003530451 0.0023957086 0.0028478373 0.017442564 0.021196162 -0.0030942112 0.012971045 0.017095065
-2.8777e-41 -4.6662e-41 -1.4369e-41 -4.3852e-41 1.7937e-41 4.4968e-41 -1.2065e-41 3.4434e-41
4.6177e-41 -0.0017157106 -0.0013862101 -0.00097350887 -0.0015099741 -0.0011487349 -0.0011317114 -0.0012614192
-0.0010061677 -0.001435174 -4.817609e-05 -2.416527e-05 1.7323657e-06 -2.4865674e-05 -8.519214e-06 1.7456425e-06
-1.8620016e-05 -4.0563677e-06 7.8120337e-07 -0.00051731785 -9.80147e-05 -0.0005044458 0.00019299226 0.00031775134
-0.00030991453 0.00043986883 1.5039579e-05 -0.0011242878 -0.0016072985 -0.0045662466 -0.0046311207 0.00013328223
0.0037136995 -0.0032371713 -0.002653593 -0.0034979866 -0.0011655487 -0.0013074675 -0.00095841364 -0.00083750836
-0.001272075 -0.0010228781 -0.0011526179 -0.001062841 -0.0011426996 -0.00155165 -0.0012857392 -0.00088243396
-0.0008912327 -0.0011754603 -0.00080057466 -0.0011905234 -0.00061920396 -0.0005643606 -0.0013511411 -0.00063589256
-0.00024104747 -0.000581354 4.3405365e-05 0.0002033291 -0.00031029826 0.00023401652 -5.970285e-05 -0.0010110734
-0.0016334623 -0.0016266024 -0.0009010527 -0.0010884239 -0.00044450912 -0.0011858324 -0.00083643803 -0.0005881092
-0.00022077105 4.2540993e-05 1.0739435e-05 -2.0480515e-05 2.9938234e-05 5.5274168e-06 -1.7501501e-05 4.2664007e-05
2.6442662e-05 1.8202543e-05 -0.0018247915 -0.0038230778 0.0013926466 0.0015617845 0.00019900137 -0.0038132824
0.002214254 -0.00087032834 0.001187961 -0.0012809361 -0.00083973253 -0.00081257377 -0.0011554668 -0.0007350896
-0.0010657118 -0.0008399614 -0.0007993273 -0.0013039393 -0.00064190064 -0.00023878056 -0.0004286852 -8.074698e-06

conv3.bias f4 [8]
00000000: 3f54 893d d48e 88bb 73c5 2fbd acd1 743d
00000010: f2cd 9fb9 4ed7 db3c 1e1c 3bbd 3665 56bc
0.06705522 -0.004167417 -0.04291291 0.05977027 -0.00030480284 0.026836064 -0.04568111 -0.013085654

conv4.weight f4 [4, 8, 3, 3]
00000000: d7f1 4ebd f48d 15bc aa12 aebd df10 f73d
00000010: 9210 4fbc b292 7abd c4f9 583d 040d f2bd
00000020: 529b a2bd 8b55 1cb9 b611 0e3b 2603 353a
00000030: 1e23 1a39 20af 133b 1546 8c39 a1bf 52ba
00000040: bf88 3dba 513d 4bba e313 66be b1ae 48be
00000050: 5cf6 14be 89a5 09be 55b1 f1bd 2457 17be
00000060: fc8a 36be 0aab 61be 9044 8abe 5910 9fbb
00000070: 2c41 5a3c 839c 0abe 2315 10be a901 e3bd
00000080: 6098 9ebd 5946 adbd 5374 35be e78f 85be
00000090: d5fe 32be 8eb0 1e3d 766f d8bd fdeb ccbd
000000a0: 849f 19be 6a5c 12be b975 a0bd 421a a1bd
000000b0: 4809 38be 08fc 13be 5981 e43b 3154 12be
000000c0: dcea 3bbe 12d6 d4bd facd ab3c be3e bbbd
000000d0: 3d95 f9bd ec33 22be 69a2 053e c06e 2a3e
000000e0: d294 1c3e 304e 0e3e 993d 413e 36c1 173e
000000f0: 10d7 ff3d f378 3d3e 7bfd 023e 7ec7 ab3d
00000100: a709 fc3d 6f7f 0f3e 6b96 1b3e 23dc 353e
00000110: 6ae0 313e 784f 033e 4765 ec3d f464 f43d
00000120: 06a5 e8ad d403 fbad 67b6 daad facb b3ad
00000130: 05ec 77ae 8376 69ae 7e24 1bad 2cf8 3ead
00000140: ad6d 59ad 6926 0080 00c0 4902 ac90 0000
00000150: 7401 0000 ccc9 1903 ff48 0300 9d07 0000
00000160: 052d 0080 1f2e ff82 23af 3c0a 6cb2 0801
00000170: 9122 0000 a9bd c789 73f4 1687 bd9d fa84
00000180: edb9 af08 f0f4 9f06 68aa 0080 5a12 fdb8
00000190: c82f f3b8 5f73 e6b8 b54a fdb8 ffda f2b8
000001a0: c7a2 f0b8 c267 e8b8 245a ebb8 06fc d5b8
000001b0: cbe2 4eba 6dad 4fba 65a2 3cba 43c2 56ba
000001c0: 96cd 44ba 04a8 47ba 6b07 4fba 6756 49ba
000001d0: b247 42ba f280 c4b9 0d82 bcb9 64de b4b9
000001e0: b93a d6b9 e613 b6b9 afbc b3b9 4c10 bcb9
000001f0: b908 acb9 78ca aab9 0715 bcb9 5c7a c3b8
00000200: 36c6 26b0 2ad9 0dba 3977 0eb9 86ef abb1
00000210: 352f 2bba 8648 54b9 3efd e8b4 2eac 3bba
00000220: 615b 78b9 6c02 19b3 24b7 81ba 5322 a9b9
00000230: 91d3 0fb4 3e5d 96ba ef3b e8b9 6f1b 86b6
00000240: 5d30 85bd 3d90 a23c 5b31 fc3d f880 c93d
00000250: b3fe cdbd 385c 43bb 9e6e 863c 7576 c9bc
00000260: 7647 7fbd a870 ea3a 365e 2a3b 18c0 16bb
00000270: 834e 2b3b 9825 123b fcac 0ebb 63c2 203b
00000280: 3d41 85b9 a946 49bb 403c 18bd f22d 68bd
00000290: 9646 4b3c e129 f43b 3e3a 5cbd b2a5 95bd
000002a0: ee6d 4fbe 33ab d9bd fdd8 46be 30b0 89bd
000002b0: af36 10be f6f0 8a3d 798c 57bd 7155 85bb
000002c0: 89de 84bd 5c21 2a3d ce48 a83d f4b6 003d
000002d0: a33b 5bbd b432 833d 8f6f 0b3d 3bf7 b6bb
000002e0: 0dcf e2bd 427a 93bd 4865 0bbe b5f6 6d3d
000002f0: 0341 b13d 89ba 333d fea5 7c3c aec3 b53b
00000300: 2828 b73d c5e7 a5bd efa8 82bd b6d0 07be
00000310: cf2d 16bd 679a c8bc fe12 a93d ada3 323d
00000320: 531a 0f3d 955f 8e3d a6d9 a43d b5d6 2c3d
00000330: 9a06 9e3d 9dba 173e bcb2 79bc a683 6e3d
00000340: 6e62 b93d 658f 023c 82e5 1e3e c97e 2c3e
00000350: de16 1c3d b9b8 1e3e f9a7 273e 5f7d 1f3d
00000360: fdf7 a23c 7016 97bd fc61 f73d 1358 88bd
00000370: 5bfc 7e3c 990b 333d 3307 06bb c8d4 9cbb
00000380: 6e74 82bd 28f6 123b 51d4 61b8 8aa4 1b3b
00000390: 38b5 8eb9 51ba 8f3b 1bb6 14ba 8fc4 9bba
000003a0: de9d 1abb c14e 01bb 6ec1 293e b907 323e
000003b0: 3ae6 033e 9f88 723e 04d6 263e fd62 be3d
000003c0: e5e6 503d 7a3e c7bc 24e6 44bd 02bd ab3d
000003d0: bfb8 083e 3d37 bdbd fa6e 813d dec8 833c
000003e0: 4bf6 08bc e87f 14bd 240b a13d 5ae3 e73d
000003f0: 46c4 9ebd 44df a73d 7208 c23d adac 1f3d
-0.050523605 -0.009128083 -0.08499654 0.12063765 -0.012638228 -0.061175056 0.05297257 -0.11818889
-0.07939781 -0.00014909187 0.0021678037 0.0006905071 0.00014699667 0.0022534803 0.00026755096 -0.0008039419
-0.00072301546 -0.00077529723 -0.22468524 -0.1959789 -0.14547104 -0.13442053 -0.118014015 -0.14779335
-0.17826456 -0.22037902 -0.27005434 -0.0048542437 0.013321202 -0.13536267 -0.14070563 -0.11084301
-0.07743907 -0.084606834 -0.17720155 -0.2608635 -0.17480023 0.038742594 -0.105681345 -0.10005949
-0.15002257 -0.14293066 -0.07834954 -0.078663364 -0.1797229 -0.14451611 0.0069734273 -0.14289929
-0.1835131 -0.10392393 0.02097224 -0.091428265 -0.12186668 -0.15840119 0.13050236 0.1664381
0.15291145 0.13897014 0.18871154 0.14819798 0.12492192 0.1850317 0.12792008 0.083876595
0.123065285 0.14013456 0.15194099 0.17759757 0.17370763 0.12823284 0.115427546 0.11933318
-2.6448631e-11 -2.8537096e-11 -2.4864734e-11 -2.0440528e-11 -5.6370925e-11 -5.3083326e-11 -8.818833e-12 -1.0855355e-11
-1.2359375e-11 -1.3779e-41 1.4822249e-37 5.1898e-41 5.21e-43 4.519431e-37 3.01693e-40 2.731e-42
-1.615e-41 -3.7495355e-37 9.08481e-33 2.5107266e-38 1.24e-41 -4.8085863e-33 -1.1356583e-34 -5.8919577e-36
1.057614e-33 6.0169056e-35 -6.113e-41 -0.00012067398 -0.00011596043 -0.00010988744 -0.000120778954 -0.000115802504
-0.000114744114 -0.000110819485 -0.00011222463 -0.000102035745 -0.0007892071 -0.0007922266 -0.00071958295 -0.00081923994
-0.00075074413 -0.0007616284 -0.00078975287 -0.00076804165 -0.0007411196 -0.00037480105 -0.0003595505 -0.0003449797
-0.00040861013 -0.0003472857 -0.0003428212 -0.00035870296 -0.00032812895 -0.00032575778 -0.0003587382 -9.321116e-05
-6.0672123e-10 -0.0005411083 -0.00013586589 -5.0039857e-09 -0.0006530167 -0.00020244913 -4.3397625e-07 -0.00071591407
-0.00023685164 -3.562529e-08 -0.0009896499 -0.00032259765 -1.339488e-07 -0.001147188 -0.00044295142 -3.996705e-06
-0.06503365 0.019844169 0.12314101 0.09839052 -0.10058346 -0.0029809605 0.016410168 -0.024592618
-0.06232401 0.0017886357 0.0025996096 -0.002300268 0.0026139326 0.002230024 -0.0021770587 0.0024529926
-0.00025416343 -0.0030712283 -0.037166834 -0.056684442 0.012406966 0.0074512814 -0.05376648 -0.073069945
-0.20256779 -0.10628357 -0.19418712 -0.06723058 -0.1408336 0.06784241 -0.0526242 -0.0040690233
-0.06487758 0.04153572 0.082170114 0.031424478 -0.05352367 0.06406155 0.034041937 -0.0055836714
-0.11074648 -0.07201053 -0.13612854 0.058096606 0.08654978 0.043879066 0.015420435 0.0055470085
0.08943206 -0.08100847 -0.06379878 -0.1326321 -0.03666478 -0.024487687 0.082555756 0.043613125
0.034937214 0.069518246 0.08049326 0.042196948 0.07716103 0.14817281 -0.0152403675 0.05823102
0.09051977 0.007968758 0.15517238 0.1684524 0.038107745 0.15500154 0.1637267 0.038937923
0.01989364 -0.073773265 0.12079236 -0.06657424 0.015563096 0.043712232 -0.0020451068 -0.0047861077
-0.063698635 0.0022424553 -5.3841915e-05 0.0023749196 -0.0002721937 0.0043862243 -0.0005672888 -0.001188414
-0.0023592631 -0.001973078 0.16577694 0.17385758 0.12880793 0.2368493 0.16292578 0.09296224
0.05100145 -0.024321783 -0.04807104 0.0838566 0.13351725 -0.092390515 0.06319995 0.016086992
-0.008359502 -0.036254793 0.07863453 0.11322661 -0.0775228 0.081968814 0.09474267 0.038983036

conv4.bias f4 [4]
00000000: 359f a43d 0616 ccbb 38d3 1f3d b6c8 c03d
0.08038179 -0.0062282113 0.039019793 0.094132826

conv5.weight f4 [2, 4, 3, 3]
00000000: 1a8c a83d 9733 703d 7fdb ec3d bbd7 963d
00000010: 704b d93d 50e8 183e 6a8f 133e 0781 563e
00000020: 306c 223e f80d b235 5aee a836 02a0 9e37
00000030: 2980 3b37 a93b fa37 1467 8538 5a11 c336
00000040: 7ece b437 b9b8 6f38 7dc1 a939 2612 44bd
00000050: 453f 8a3c 0f4b f53d 57b8 833d 3668 a13d
00000060: bda7 6e3d 11a4 253d 8d55 fcbc f41a d2bc
00000070: 68a4 49bd 3b1a 3a3d 67cf af3a 9bf6 c1bd
00000080: 56d5 6f3d 9274 49bc ced7 a5bd 762a c9bd
00000090: bd81 e7bd 7692 d5bd 5b05 483e b354 493e
000000a0: 03a7 bc3c e382 5cbe 4c75 183d e2f1 11be
000000b0: 74ee efbb 77ad 7c3a 83b5 853a fbd2 6b3a
000000c0: c159 813a e353 883a 5eef 703a cd23 603a
000000d0: f9b3 643a 9e9d 523a 5d80 debd e2b4 3a3e
000000e0: a89b 81bd 586b 1e3e 5ff1 78bd 07e7 c8bc
000000f0: 5bda ef3d d7d3 04be f9f3 813d 6a3b dbbd
00000100: 3f59 293d 6e72 bbbc 19c1 f83d f4cc 473e
00000110: d876 613d 66e6 8b3c 157b 68bd 1b86 a33d
0.08229847 0.05864295 0.11565303 0.07365366 0.10610092 0.1493237 0.14410177 0.20947658
0.15861583 1.3266099e-06 5.034538e-06 1.8909577e-05 1.1175908e-05 2.9830104e-05 6.361134e-05 5.813473e-06
2.1553828e-05 5.7154077e-05 0.00032378352 -0.04786887 0.016875872 0.11977207 0.064316444 0.07881205
0.058265436 0.04043967 -0.030802513 -0.025647618 -0.049229056 0.04543517 0.0013413251 -0.094708644
0.058553062 -0.012295859 -0.08097802 -0.09822552 -0.113040425 -0.10428326 0.19533293 0.19661216
0.023028856 -0.21534304 0.037221238 -0.14252427 -0.007322127 0.00096388854 0.001020119 0.0008995977
0.0009868668 0.0010400977 0.0009190942 0.00085502566 0.0008724328 0.0008034351 -0.10864327 0.18233064
-0.06328517 0.15470636 -0.060777064 -0.024524225 0.1171157 -0.12971435 0.06345362 -0.10704692
0.041344877 -0.022881713 0.121462055 0.19511777 0.05504498 0.017077636 -0.056758005 0.07984563

conv5.bias f4 [2]
00000000: 4a37 cc3c 5155 d73d
0.024928708 0.1051432

fc1.weight f4 [256, 512]
00000000: 6f71 0080 5e7d 0000 682d 0080 7975 0000
00000010: 2012 0000 0498 0080 4e7f 0080 952e 0000
00000020: e02f 0000 8604 0000 9d9b 0080 c321 0000
00000030: 9b77 0000 124c 0080 cc21 0080 bd0f 0080
00000040: 555e 0000 c002 0000 1693 0000 3269 0080
00000050: a526 0000 7805 0000 d631 0000 cf09 0000
00000060: 0942 0000 5b8c 0080 da31 0000 4095 0080
00000070: 6064 0080 d6ac 0080 a44b 0000 7fa6 0080
00000080: f17d 0000 58ac 0000 5c88 0080 897f 0080
00000090: 166d 0000 4a85 0080 3b7e 0000 8017 0080
000000a0: 9055 0080 ae67 0080 aa53 0000 9c93 0000
000000b0: bfa7 0080 d142 0080 b68d 0000 c04e 0000
000000c0: 623a 0000 7597 0080 939b 0080 d241 0000
000000d0: 281f 0000 2938 0000 688c 0000 4b6e 0080
000000e0: c4ab 0000 ef64 0000 6738 0080 d403 0000
000000f0: 4153 0000 0f5b 0000 bd7b 0000 f35f 0080
00000100: df54 0080 3425 0080 6e75 0000 6096 0080
00000110: c69d 0080 793d 0080 3836 0080 103a 0000
00000120: 94ae 0080 bcad 0080 418b 0000 d964 0000
00000130: 8d65 0080 0fac 0000 b107 0000 a55e 0080
00000140: 85a2 0000 bc27 0080 6735 0080 3d79 0080
00000150: cba2 0080 74a5 0080 542a 0080 c628 0000
00000160: e31d 0000 9365 0080 9145 0080 d6ad 0000
00000170: f710 0000 ea73 0080 798f 0080 8f9d 0000
00000180: ed37 0080 5f02 0080 0a1d 0080 4e72 0000
00000190: 0e79 0000 958d 0000 1716 0000 0e68 0080
000001a0: 371d 0000 df49 0000 2991 0080 7e0c 0000
000001b0: fe93 0080 145c 0080 b11f 0080 5a5b 0000
000001c0: 4a6e 0000 0a5e 0080 850a 0080 f582 0080
000001d0: a86b 0080 107b 0080 619e 0000 7812 0000
000001e0: 0357 0000 7203 0000 61b1 0000 3035 0080
000001f0: b537 0080 6711 0080 2da6 0000 018c 0080
00000200: 7402 0000 2e15 0000 80a6 0080 663a 0000
00000210: 3747 0080 cc8a 0000 9d1e 0000 182d 0080
00000220: 2885 0000 f79f 0080 fe46 0080 dc24 0000
00000230: 366e 0000 5d43 0080 9d3c 0000 38a0 0000
00000240: e6a9 0000 1328 0080 1e96 0000 522d 0080
00000250: 6244 0080 022a 0000 d1ae 0000 7584 0080
00000260: 045d 0080 526b 0000 f07f 0080 604e 0000
00000270: 5034 0000 499f 0080 3ca0 0080 9b61 0080
00000280: ef19 0000 760d 0080 3d57 0080 bb14 0080
00000290: 6c64 0000 248c 0000 d196 0080 2748 0000
000002a0: 5baa 0000 a873 0080 231a 0080 445e 0080
000002b0: bf26 0080 735e 0080 9094 0000 8dac 0080
000002c0: 2b1a 0080 e74e 0080 721a 0080 200a 0080
000002d0: 379f 0000 af16 0000 b505 0080 eb63 0080
000002e0: 3284 0000 4f17 0080 092f 0000 0c84 0000
000002f0: ce26 0000 ea50 0000 c513 0000 3194 0000
00000300: 9004 0080 7517 0080 a443 0080 b01d 0080
00000310: 9076 0080 7635 0080 1942 0080 c59e 0000
00000320: f332 0000 828a 0000 4365 0080 a192 0080
00000330: c998 0080 9427 0080 8552 0000 1d8d 0000
00000340: bf62 0080 cc04 0080 2a79 0000 8160 0000
00000350: 6461 0080 ff18 0080 b883 0000 45b0 0000
00000360: 3ba6 0080 5806 0080 1286 0000 0983 0080
00000370: 1668 0000 5778 0000 3893 0000 567d 0080
00000380: 8522 0000 2a32 0000 91b0 0000 752d 0000
00000390: 46a7 0000 7e2c 0000 4a3c 0000 612f 0080
000003a0: dd83 0000 3538 0080 af44 0000 419c 0080
000003b0: f528 0080 6e4f 0000 d465 0080 6c8f 0080
000003c0: 3d0a 0080 b22d 0080 f58f 0000 497f 0080
000003d0: 9b33 0000 3b6d 0000 457a 0080 a932 0080
000003e0: f71b 0000 a543 0080 9979 0080 0169 0080
000003f0: 0d07 0000 66a9 0080 7049 0080 949e 0080
-4.0692e-41 4.4973e-41 -1.6289e-41 4.2141e-41 6.502e-42 -5.4533e-41 -4.5668e-41 1.671e-41
1.7174e-41 1.623e-42 -5.5824e-41 1.2111e-41 4.2906e-41 -2.7289e-41 -1.2124e-41 -5.646e-42
3.384e-41 9.87e-43 5.2764e-41 -3.7737e-41 1.3863e-41 1.962e-42 1.7878e-41 3.519e-42
2.3689e-41 -5.035e-41 1.7883e-41 -5.3541e-41 -3.6008e-41 -6.2002e-41 2.7135e-41 -5.9728e-41
4.5179e-41 6.1825e-41 -4.8917e-41 -4.5751e-41 3.9133e-41 -4.7815e-41 4.5283e-41 -8.43e-42
-3.0694e-41 -3.7193e-41 3.0013e-41 5.2952e-41 -6.0176e-41 -2.3969e-41 5.0836e-41 2.825e-41
2.0944e-41 -5.4333e-41 -5.581e-41 2.3612e-41 1.1177e-41 2.0146e-41 5.0368e-41 -3.9566e-41
6.1618e-41 3.6208e-41 -2.0233e-41 1.373e-42 2.9866e-41 3.2666e-41 4.4389e-41 -3.442e-41
-3.0446e-41 -1.3346e-41 4.2126e-41 -5.3944e-41 -5.6598e-41 -2.2052e-41 -1.945e-41 2.0829e-41
-6.2627e-41 -6.2324e-41 4.9955e-41 3.6177e-41 -3.643e-41 6.1723e-41 2.759e-42 -3.3952e-41
5.8301e-41 -1.4254e-41 -1.9157e-41 -4.3492e-41 -5.8399e-41 -5.9353e-41 -1.5184e-41 1.4627e-41
1.0721e-41 -3.6438e-41 -2.4956e-41 6.236e-41 6.086e-42 -4.1582e-41 -5.1468e-41 5.6521e-41
-2.0062e-41 -8.5e-43 -1.0417e-41 4.1005e-41 4.3426e-41 5.079e-41 7.924e-42 -3.7328e-41
1.048e-41 2.65e-41 -5.2074e-41 4.481e-42 -5.309e-41 -3.3031e-41 -1.1369e-41 3.2771e-41
3.9564e-41 -3.3735e-41 -3.774e-42 -4.6979e-41 -3.862e-41 -4.4147e-41 5.6816e-41 6.625e-42
3.1214e-41 1.236e-42 6.3632e-41 -1.908e-41 -1.9984e-41 -6.243e-42 5.9613e-41 -5.0224e-41
8.8e-43 7.598e-42 -5.9729e-41 2.095e-41 -2.5547e-41 4.9791e-41 1.0982e-41 -1.6177e-41
4.7767e-41 -5.7385e-41 -2.5467e-41 1.3223e-41 3.9536e-41 -2.4165e-41 2.1744e-41 5.7476e-41
6.0948e-41 -1.4376e-41 5.3852e-41 -1.6258e-41 -2.4531e-41 1.507e-41 6.2712e-41 -4.7517e-41
-3.3368e-41 3.8499e-41 -4.5895e-41 2.8116e-41 1.8766e-41 -5.7141e-41 -5.7481e-41 -3.5014e-41
9.303e-42 -4.829e-42 -3.1295e-41 -7.437e-42 3.6025e-41 5.0273e-41 -5.4103e-41 2.5883e-41
6.1112e-41 -4.149e-41 -9.376e-42 -3.3816e-41 -1.39e-41 -3.3882e-41 5.3294e-41 -6.19e-41
-9.387e-42 -2.8305e-41 -9.487e-42 -3.632e-42 5.7116e-41 8.137e-42 -2.047e-42 -3.5844e-41
4.7423e-41 -8.362e-42 1.6873e-41 4.737e-41 1.392e-41 2.9026e-41 7.092e-42 5.3161e-41
-1.637e-42 -8.415e-42 -2.4265e-41 -1.065e-41 -4.2532e-41 -1.9178e-41 -2.3711e-41 5.6956e-41
1.8277e-41 4.9687e-41 -3.6326e-41 -5.26e-41 -5.4809e-41 -1.4198e-41 2.9602e-41 5.0622e-41
-3.5423e-41 -1.721e-42 4.3465e-41 3.4619e-41 -3.4937e-41 -8.967e-42 4.7252e-41 6.3234e-41
-5.9632e-41 -2.276e-42 4.8095e-41 -4.7007e-41 3.7339e-41 4.317e-41 5.2812e-41 -4.4962e-41
1.2383e-41 1.7995e-41 6.334e-41 1.6307e-41 6.0006e-41 1.5961e-41 2.1628e-41 -1.6996e-41
4.7304e-41 -2.0163e-41 2.4639e-41 -5.6053e-41 -1.4693e-41 2.8494e-41 -3.6529e-41 -5.145e-41
-3.673e-42 -1.6392e-41 5.1642e-41 -4.5661e-41 1.8513e-41 3.9185e-41 -4.3862e-41 -1.8173e-41
1.0032e-41 -2.4266e-41 -4.3621e-41 -3.7668e-41 2.53e-42 -6.0769e-41 -2.6344e-41 -5.6887e-41

fc1.bias f4 [256]
00000000: 4b9e d1b7 cc8d eeba a194 983c 1632 9fb3
00000010: 845b b8bb f27c 1cbc 606f ddba 272f a33d
00000020: c581 d01e 9d04 16ad e8e4 2e3c 6bee b8b9
00000030: 3b07 04b8 4eb7 8d3d ad36 063d f2da ff3c
00000040: 5b22 85b6 9520 8f3d fceb 98bb b7ba c33d
00000050: 3791 873d 3eef d63a 2430 65bb 46d5 04ac
00000060: bf3e 2bb2 702f 5f3d 9e09 883d 4dbe c5ba
00000070: b0e8 feb9 cb18 40b5 8978 02ba af75 01bb
00000080: 5292 acbc 638a 8f3b 08de 2e3d 96c8 683c
00000090: 85e5 d0b0 3dc2 353d 205d 843d 051e 95b9
000000a0: 41f9 59bb 62ce 9bba 0004 deb8 bc74 51bb
000000b0: 33f3 f0bb cde8 0cbd 9a17 1ebb 30e9 f0ba
000000c0: 2799 203c 03d4 003d e4b4 f8b4 f7ef 39b9
000000d0: e87b 6ebc 261d cd3c 5806 563d e5cf 3faa
000000e0: eee4 9e3d 0673 31ba f58a c03d f44a de3c
000000f0: 58d8 97bb 5abc 88b4 a488 27a9 e222 dbba
00000100: 3417 1abc a739 0e3b 5178 8ab9 f4ea 943d
00000110: 4a39 94bd 1698 44bc 23cd b0b8 a948 913d
00000120: 8690 67b0 eea5 9f3d fedf d8bd 2e08 b3b4
00000130: afd4 c03d d54f 99bb a3d1 2f3d 22b5 dfbc
00000140: b1a4 2ebb 76f3 1da9 ef94 36b9 70d4 b938
00000150: 10b1 933d 7560 5f3d ca2b 9f3d 95a9 463d
00000160: 0e23 7f3d ffbd aa3c 3fd1 e792 7457 daba
00000170: 65da 503d 30d7 223d 2267 313d e091 321d
00000180: f8da 793d 12ac 723b 7fa7 1da8 d106 75bb
00000190: 59f4 a13c 4dbb 203c 80d0 473d 9db8 01bb
000001a0: 29df b2b6 cfa1 523b 0f4d 1abb d3b4 72bb
000001b0: 6500 913a 3738 d6b2 35d9 c4b8 3e62 b5ba
000001c0: c31b 079d f063 24b9 e89a a9bb 3913 45bb
000001d0: af2b dcba 482e d9b8 0af6 49bc ea96 7339
000001e0: 27b4 11af 87f4 863c 1e64 bcba 2447 1013
000001f0: e5a5 bc3c a768 5cbc 790d 3abb 5b53 bf3c
00000200: 1d66 31bb e3bc 4bba 2d9e 013d a6e3 583d
00000210: d27d 143a 3db2 71bb f62d fea9 9796 a23d
00000220: 6e6b 303b 4a69 98bb b868 67bc cb4d f1b8
00000230: 4c0b 2f3d 2891 2fbb 297e 6b3d 577e 43bb
00000240: b30a a039 ab09 873d 7f08 e4b7 7008 85b5
00000250: aa56 a03c d5ca d4bb 877d 1db9 3f48 df3c
00000260: 3e52 0080 2275 a7ba 9fd5 27b4 6e85 23b8
00000270: 29bf ad3d 2ac6 3ebb 989e 53bd 1448 8503
00000280: 1869 4d3c 834e 0c39 d0d6 d9ba 13df 2c3c
00000290: 8723 22b9 8fc7 89bb 69f1 fd3b 0774 17b7
000002a0: 5bc3 8f3d 2a06 27b7 bc50 333c ed98 9d3c
000002b0: 8455 ab3c 4ed9 93aa 9ddf 85af c222 733c
000002c0: 678c 253d df13 a33d 2ed9 5cbb 15c2 e0bc
000002d0: 6735 003c 2f74 55b0 dba9 c0ba ad1e 42bb
000002e0: 8d03 a6b6 fd51 8fbc 706e 1dbb 8594 0b3d
000002f0: bfd2 ccb7 da92 943c 4cbe 893d 2dc3 30b7
00000300: 7455 89b7 5f4b 1abb e95a 403b b683 3abb
00000310: 7475 16b6 b591 34bc 4021 253d 8367 373c
00000320: b5b6 753c 89fd aeb9 1c9c 1dbd 7e95 483d
00000330: e237 6fb4 978f 7c3d 5333 37bc cedf e2bb
00000340: 41b7 6b3d b875 7fbc 89e5 063c 6e70 a5b1
00000350: 0219 e3b8 ef0f 5d3d d4dc daa8 fac1 353c
00000360: 0e2e 6a3d c56f cb3c 62ee b43d ba42 b8bb
00000370: 43fc f8a9 38e7 0ab8 f2ab 933d 8e70 fb3c
00000380: 0854 013c 1b08 07bc 101e 8f3d 514b 023c
00000390: ff5e 123d 822b 79ba 417b e0bb 734f 603c
000003a0: 9db5 8cb4 4e29 1f3d 1750 8a3d 2709 0bbb
000003b0: 1704 ac3d 5404 a93d 779c a0ba c803 1ba8
000003c0: ddbb 8a3d a8ab 35b2 d68d 10b5 87ef 61b9
000003d0: 6ca1 823c b1ee 893c cb82 1a3d fb98 b3ba
000003e0: 5634 19bb b4b8 b1b9 d3d4 7dbc 8ae4 25b7
000003f0: d204 f8b9 d7d1 c33d 3b62 90b4 a536 3b3c
-2.4988452e-05 -0.0018200218 0.01862556 -7.413125e-08 -0.005626144 -0.009551274 -0.0016894154 0.07967978
2.2076528e-20 -8.527537e-12 0.010674693 -0.0003527285 -3.1477986e-05 0.06919728 0.032766987 0.031232331
-3.9677084e-06 0.069886364 -0.0046668034 0.095570974 0.066194944 0.0016398204 -0.003497132 -1.8876719e-12
-9.967777e-09 0.0544886 0.06642459 -0.0015086621 -0.0004862002 -7.156165e-07 -0.00049770676 -0.0019753983
-0.021065865 0.0043805107 0.042692214 0.01420798 -1.5199225e-09 0.044374693 0.06463075 -0.0002844186
-0.003326014 -0.0011887068 -0.0001058653 -0.0031960448 -0.0073532104 -0.034401704 -0.0024122954 -0.0018380042
0.009802139 0.03145219 -4.6325215e-07 -0.00017732369 -0.014555909 0.025038313 0.052252144 -1.7036336e-13
0.077585086 -0.0006769154 0.09401504 0.02713535 -0.0046339445 -2.5469018e-07 -3.7199966e-14 -0.001671877
-0.009404946 0.0021701844 -0.00026411054 0.07271376 -0.072374895 -0.011999151 -8.430544e-05 0.07093937
-8.424269e-10 0.077953205 -0.10589598 -3.33473e-07 0.09415566 -0.004678706 0.042924535 -0.02730805
-0.0026648457 -3.507217e-14 -0.00017412355 8.861057e-05 0.07211506 0.054535348 0.07772024 0.04850157
0.06228929 0.02084255 -1.4629733e-27 -0.0016658143 0.050989527 0.039756 0.043311246 2.363352e-21
0.06099984 0.0037028831 -8.751571e-15 -0.0037388096 0.019769834 0.009810281 0.048782825 -0.0019793876
-5.3307926e-06 0.0032139902 -0.0023544466 -0.003703405 0.001106274 -2.4938442e-08 -9.386466e-05 -0.0013838483
-1.7881454e-21 -0.00015677488 -0.005175937 -0.0030071272 -0.0016797687 -0.00010355987 -0.012326727 0.00023230506
-1.3251676e-10 0.016474022 -0.0014373099 1.821043e-27 0.023028323 -0.013452685 -0.0028389378 0.023355177
-0.002706892 -0.0007771982 0.03164499 0.052951477 0.00056645006 -0.003687992 -1.1287839e-13 0.07938879
0.0026919502 -0.0046512233 -0.014124088 -0.000115062656 0.042735383 -0.00267894 0.057493363 -0.0029829943
0.0003052555 0.06593641 -2.7183674e-05 -9.911728e-07 0.019572575 -0.006493906 -0.0001501945 0.02725613
-2.9503e-41 -0.0012775997 -1.5630802e-07 -3.8986494e-05 0.084837265 -0.0029109814 -0.05166492 7.833586e-37
0.012537263 0.00013380688 -0.0016619805 0.010551232 -0.00015462759 -0.0042046974 0.0077497256 -9.027316e-06
0.07019683 -9.955411e-06 0.010944542 0.01923796 0.0209148 -2.626323e-13 -2.4351446e-10 0.01483983
0.0404171 0.079627745 -0.0033698785 -0.027436296 0.007825232 -7.7654055e-10 -0.0014699058 -0.0029620335
-4.947599e-06 -0.01749515 -0.0024022125 0.034077186 -2.4416831e-05 0.01813643 0.067257494 -1.053586e-05
-1.6371465e-05 -0.002354346 0.0029351062 -0.0028459853 -2.2420109e-06 -0.011021067 0.040314913 0.011194113
0.014997174 -0.00033376765 -0.038478956 0.04897069 -2.227894e-07 0.061660375 -0.01118167 -0.0069236523
0.05754781 -0.015592031 0.008233436 -4.814914e-09 -0.000108288616 0.053970274 -2.4298631e-14 0.011093611
0.057172827 0.02483357 0.088345304 -0.005623189 -1.1057173e-13 -3.3117103e-05 0.0721053 0.030693319
0.00789357 -0.008241679 0.06988156 0.007952527 0.035735127 -0.00095050794 -0.0068506305 0.013690817
-2.6209173e-07 0.03885775 0.06753557 -0.0021215172 0.083992176 0.08252779 -0.0012253661 -8.605048e-15
0.06774113 -1.0574617e-08 -5.385058e-07 -0.00021546903 0.015946113 0.01683745 0.03772239 -0.0013702208
-0.0023377142 -0.00033897685 -0.015492636 -9.887977e-06 -0.00047305838 0.09561508 -2.6893562e-07 0.0114266025

fc2.weight f4 [128, 256]
00000000: 8698 0000 cc6d 4285 75d5 16ba c28e 0080
00000010: 8320 0000 b40a a9a4 748d 0080 3f37 573a
00000020: bc4c 0000 935a 0000 3d6b 09ba cf16 0080
00000030: 8115 0000 917c b8b8 0e99 9bb9 0d6c 17bb
00000040: a339 0000 f56d 2739 1cb4 1b33 77b8 99bb
00000050: 7adf d23a 0308 bcb3 c944 0000 45b0 0080
00000060: db1e 0000 b78b 1abb b72c 0338 118b 0000
00000070: 0cd6 658e 6f7c 0000 6a02 0000 8841 0080
00000080: 8836 0000 f2de 55b7 20c2 1a34 2186 0000
00000090: 1444 0080 a3c9 2038 4144 a339 dc22 94b3
000000a0: e830 0080 9a02 0000 4544 0000 3d94 0000
000000b0: 7f21 0000 ac86 0080 3e0b d6b8 18a3 a838
000000c0: 8844 0000 1eb8 c738 d516 0080 5d20 0000
000000d0: 421e 9637 a46e 8939 e16f 6f38 1c37 0080
000000e0: afec 67ba a799 0000 4b3a 52bb 0869 b9b9
000000f0: c096 0000 d7a3 0000 9563 0000 f631 0000
00000100: ec5d 0080 ed0d 50b3 c878 c734 8a53 b739
00000110: 08ad 760f 0064 be32 e922 0000 49db 473a
00000120: 1a1b 0000 e0da 90bb 6609 0000 6751 0080
00000130: 0aa0 b33a a11b 0080 8b0f f6b9 dc98 ffba
00000140: 1e9e 0080 c151 0080 339c 40b7 e78b 0996
00000150: 47e4 b9bb 1d71 6f39 9b36 70bb b5a0 0080
00000160: bcaf 12bb bc79 7139 c32a 0000 947f 0080
00000170: c285 a438 4787 4ab9 8af2 1803 c14a 0080
00000180: 1dda 273b bd7e 0000 3a56 0000 328b 0734
00000190: 21e4 3bba 9d0d 9fbb 0103 0080 e91b 22bb
000001a0: e175 0000 0698 100b 4596 0000 2839 0080
000001b0: c63b 0530 3039 0000 0d8e 0080 1a17 0080
000001c0: b833 0000 df89 0000 70e7 3fb3 3657 0000
000001d0: ee29 931a cc5f 2325 334f 0000 57ac 0000
000001e0: 9661 0000 0514 f83a 30a6 0000 295d 0080
000001f0: 7b35 0080 1824 6238 06a6 0000 24ba b7b7
00000200: 396f 0080 8303 0000 b113 0000 d0c6 0300
00000210: d4fa 0c00 2901 e0b6 b05a 0000 7b23 ab3b
00000220: 22b1 aeb7 8bfe 0b2a fc4d 0000 0695 0080
00000230: 2f29 80bb ceaa 0080 c462 dd2a aa3d 0000
00000240: a13c 0438 12cb f8b8 0d5b 0000 d175 0000
00000250: 04a1 e2ba 96c9 a1b8 698a 0000 5df1 f7b8
00000260: 948c 0000 d511 20ba d189 0080 3792 0000
00000270: c78e 94ba 9649 0080 e436 0000 9b79 0080
00000280: 5d96 5db7 bbb9 820f b304 0080 9c6c 0000
00000290: 2816 c32b 3586 0000 d027 cab7 bc4c 0080
000002a0: 9183 c6b9 b407 0080 8a72 3d8a 8fce 20b9
000002b0: b625 1bbb faa7 0080 e553 0080 9516 b239
000002c0: 645a abb8 628f 963a ce0b 0080 8b4f 0000
000002d0: 2e69 be39 c39f 0000 a351 0000 3d53 0000
000002e0: a693 0080 f483 3d2f ea5a 0000 bff4 00b7
000002f0: 2807 0000 5aa4 0080 0808 b23a 2fd1 47a3
00000300: 7b55 0000 c11a 0000 c5e1 cc29 507e 0080
00000310: 0daa 0000 b1af e6bb 238c 82bb e68c 743a
00000320: 3f12 ebb4 6954 0000 0d84 0000 6340 2eba
00000330: 8793 0000 c13a a83b ad9f b4bb a2da 9634
00000340: e9a6 503b d082 0000 a435 7db8 5800 0080
00000350: f433 0000 e42b 92ba 1333 0000 82bc 17bc
00000360: 1087 86ba f7d0 81b8 ead1 cbba 0e0c 0080
00000370: 2584 0000 a215 0080 4341 10bb feaa 84ba
00000380: a486 39bb a19b 76ba d013 19b8 860e 2eb2
00000390: 5b4e be32 fb1d 0000 f4f1 03b2 bd7b 0000
000003a0: 816d 0080 8cb3 e4ba 9537 60b2 779b 0000
000003b0: 0389 2339 d7af 32b9 a03f 0080 9764 0000
000003c0: 605d cebb 7a9f 0080 141e 0080 c44c 859b
000003d0: a047 d537 6632 0000 1f38 47b9 465b d5b7
000003e0: 2b9f 0080 fa7d 2bad 3fa8 d5b9 0400 7b8c
000003f0: 0563 0080 61f1 24ba 9803 0080 6a0e 4ebb
5.4715e-41 -9.142003e-36 -0.00057538535 -5.1212e-41 1.1663e-41 -7.33102e-17 -5.0744e-41 0.00082098314
2.7527e-41 3.2492e-41 -0.0005242115 -8.182e-42 7.714e-42 -8.797006e-05 -0.00029677938 -0.0023105175
2.0676e-41 0.00015967323 3.625256e-08 -0.0046911794 0.001608833 -8.7558895e-08 2.4675e-41 -6.3234e-41
1.1069e-41 -0.0023581812 3.1274478e-05 4.9888e-41 -2.832949e-30 4.4638e-41 8.66e-43 -2.3508e-41
1.9562e-41 -1.2747698e-05 1.441299e-07 4.8116e-41 -2.4422e-41 3.833476e-05 0.00031140636 -6.898128e-08
-1.7544e-41 9.33e-43 2.449e-41 5.3178e-41 1.2016e-41 -4.8311e-41 -0.00010206409 8.041243e-05
2.4584e-41 9.523354e-05 -8.19e-42 1.161e-41 1.7895483e-05 0.0002621311 5.7086236e-05 -1.977e-41
-0.0008847219 5.512e-41 -0.0032078202 -0.00035364204 5.4079e-41 5.8775e-41 3.5723e-41 1.7923e-41
-3.3693e-41 -4.844144e-08 3.7154518e-07 0.0003496672 1.2162061e-29 2.2164386e-08 1.2523e-41 0.00076239236
9.722e-42 -0.004420623 3.372e-42 -2.9202e-41 0.0013704312 -9.911e-42 -0.00046932357 -0.0019500512
-5.6722e-41 -2.9328e-41 -1.148046e-05 -1.1110917e-25 -0.0056729647 0.00022834954 -0.003665364 -5.7651e-41
-0.0022382578 0.000230289 1.534e-41 -4.5766e-41 7.845044e-05 -0.00019314616 4.4947207e-37 -2.6817e-41
0.0025612183 4.5465e-41 3.0932e-41 1.2623494e-07 -0.0007167478 -0.0048539178 -1.078e-42 -0.0024735874
4.2287e-41 2.784776e-32 5.3907e-41 -2.0504e-41 4.847006e-10 2.0515e-41 -5.0958e-41 -8.287e-42
1.8553e-41 4.9459e-41 -4.4681144e-08 3.1285e-41 6.0865516e-23 1.4170454e-16 2.8411e-41 6.1824e-41
3.5007e-41 0.0018926865 5.9617e-41 -3.342e-41 -1.9185e-41 5.3916214e-05 5.9558e-41 -2.1901978e-05
-3.9899e-41 1.26e-42 7.064e-42 3.46827e-40 1.192006e-39 -6.6758553e-06 3.2533e-41 0.0052227355
-2.08249e-05 1.2433992e-13 2.7976e-41 -5.346e-41 -0.0039111595 -6.1273e-41 3.9326019e-13 2.2121e-41
3.1527718e-05 -0.00011863386 3.2663e-41 4.2265e-41 -0.0017290418 -7.7146266e-05 4.9652e-41 -0.00011822835
5.043e-41 -0.0006106173 -4.9439e-41 5.2452e-41 -0.0011334055 -2.6398e-41 1.9691e-41 -4.3624e-41
-1.3207636e-05 1.289053e-29 -1.686e-42 3.8962e-41 1.3861733e-12 4.8144e-41 -2.4098816e-05 -2.7527e-41
-0.00037863528 -2.763e-42 -9.1215614e-33 -0.00015335738 -0.00236736 -6.0259e-41 -3.0096e-41 0.0003396763
-8.170752e-05 0.0011486823 -4.235e-42 2.8535e-41 0.0003631799 5.7312e-41 2.9286e-41 2.986e-41
-5.2966e-41 1.7236329e-10 3.2614e-41 -7.686379e-06 2.567e-42 -5.8958e-41 0.0013582716 -1.0832108e-17
3.0665e-41 9.597e-42 9.0985847e-14 -4.5312e-41 6.1003e-41 -0.007039987 -0.0039839908 0.0009328857
-4.3785437e-07 3.028e-41 4.7371e-41 -0.00066471676 5.2923e-41 0.005133957 -0.005512199 2.8098754e-07
0.0031837767 4.6927e-41 -6.0369857e-05 -1.23e-43 1.8637e-41 -0.0011151996 1.8322e-41 -0.009261252
-0.001026364 -6.190122e-05 -0.001555023 -4.324e-42 4.7405e-41 -7.76e-42 -0.0022011555 -0.001012176
-0.0028309012 -0.0009407346 -3.6496494e-05 -1.0131435e-08 2.2154543e-08 1.0755e-41 -7.680217e-09 4.4389e-41
-3.9283e-41 -0.0017448529 -1.3051154e-08 5.577e-41 0.00015595932 -0.00017040908 -2.2824e-41 3.6085e-41
-0.0062977523 -5.721e-41 -1.079e-41 -2.2052613e-22 2.5424932e-05 1.808e-41 -0.00018999026 -2.5434081e-05
-5.7099e-41 -9.748197e-12 -0.0004075188 -1.9336341e-31 -3.5522e-41 -0.0006292072 -1.289e-42 -0.0031441697

fc2.bias f4 [128]
00000000: 6693 e83c a867 523c e441 fa3d cc9c d9b4
00000010: 82fa f53d bcf6 6e3d 46ec 343d dca2 a93d
00000020: 17b1 0f3c 8263 05bb 7e7f 1abb d324 c9bc
00000030: 8acf dd3c e91f 523c dfe0 5c3d fd1b 63b2
00000040: 1a23 68ba d506 81bc 28c7 ba3c b47f 213c
00000050: b61e dd3c e1f4 d7bc 215d dabc c1fb 66bc
00000060: cb41 9cb2 8838 ab3d aed0 103d cb0f 4fa7
00000070: a7f8 593d b394 323c 2e92 d73c 290e cebc
00000080: 35bb 4cb7 eeda 32bd 1ff1 86b7 8aaa 8e3c
00000090: 859a 733d 5576 97ac d0d2 13bc ffb8 3f3d
000000a0: 8c54 0d3d 7101 a2bb 6322 133d 3b9c c6bb
000000b0: e4cb 59bc c16b 923d 6616 a13d 3230 5a3d
000000c0: c568 3a3d 04ae 22bd a13f c13c e5a4 813c
000000d0: 16f0 bfbb dff0 763d af3c 853d 353c c13a
000000e0: be45 0000 6318 ce3c cdd5 4dbb e342 423d
000000f0: baae f73d 46a1 673d 74ad 623d f848 653d
00000100: 1979 e8bb ccd2 3b3c 7197 62b5 4678 42bd
00000110: 6247 193d b68a dc3a df37 913d 1d26 aebc
00000120: f6db 03b9 24fb 65ba 85f7 743d 3f43 853d
00000130: c077 653c 7a27 96bb a9a8 283c 9b12 0fbb
00000140: 9b8b 5a3d b0be 383d bee9 463d 1f5a 07bc
00000150: f5aa 373d 268d df3d ba4d 183c e5fe 46bc
00000160: 93b0 cdbc 503b 17ba bfe0 b23d e726 4aba
00000170: 48a4 f33c d7d5 8ea2 7fb4 dd3c e69f 18b9
00000180: 948a 963d 9b7d 723d b1c7 00bc 72b9 40bc
00000190: c471 88bd 0a1a 4c3c 54fb 493c ab23 803d
000001a0: 113f 0fbd 3f96 9ebc 0f39 c13c a857 c5b9
000001b0: d027 a4bb d82c 52bd 7f7f 68bd 3036 30bb
000001c0: 4780 063c e4a4 223d 2b25 933c bacb 333d
000001d0: 0bee df3d aa8c 8ebc 55e5 013c fcfe 393d
000001e0: 8a8a 8ebb fa81 d13d 39b9 293d e674 543d
000001f0: e8aa 403c b47f 9b39 63a9 a03d 8cf0 493d
0.028390598 0.012842096 0.12219599 -4.0533484e-07 0.12010671 0.058340773 0.04417064 0.08283016
0.008770249 -0.00203535 -0.0023574526 -0.024553692 0.027076501 0.012824991 0.05392539 -1.3219503e-08
-0.0008855328 -0.015750328 0.022800043 0.009857107 0.026992183 -0.026361885 -0.026655735 -0.014098109
-1.819071e-08 0.08360392 0.035355262 -2.8735582e-15 0.05321565 0.0108997105 0.026314821 -0.025153236
-1.2202935e-05 -0.04366582 -1.6086326e-05 0.017415304 0.059473533 -4.3048156e-12 -0.00902243 0.046807285
0.03450446 -0.0049440195 0.035921466 -0.0060611046 -0.01329324 0.07149459 0.078656 0.05326862
0.045510072 -0.039716735 0.023589911 0.015825698 -0.005857478 0.060288306 0.06505715 0.0014742675
2.5019e-41 0.025158113 -0.0031407953 0.04742707 0.12093873 0.056550287 0.0553412 0.05597779
-0.007094514 0.011463832 -8.4411937e-07 -0.047477983 0.03742159 0.0016826007 0.07090735 -0.021258408
-0.00012575075 -0.00087730796 0.059806366 0.06506967 0.014005601 -0.0045823427 0.010294118 -0.0021831158
0.053355794 0.04510373 0.048562758 -0.008261233 0.04484077 0.10915594 0.009295875 -0.0121457325
-0.025108611 -0.0005769031 0.08734273 -0.00077114854 0.029741421 -3.871559e-18 0.027063606 -0.00014555416
0.073506504 0.059201818 -0.00786011 -0.011762964 -0.06662324 0.01245738 0.012327988 0.06256803
-0.034972254 -0.019358752 0.023586778 -0.00037640077 -0.005009629 -0.051312298 -0.056762215 -0.0026887767
0.008209295 0.039708033 0.017962059 0.04389546 0.10934075 -0.017401058 0.007928212 0.045409188
-0.0043500112 0.10229869 0.041436408 0.051869296 0.011759497 0.0002965905 0.07844808 0.04930167
