saved_models/type1_split100_batchsize32_rng0_epoch40/modelbest.pth (torch, 705653 bytes, 16 tensors)

conv1.weight f4 [8, 1, 3, 3]
-0.028691355 0.13926692 -0.26843825 -0.21459687 -0.13096939 0.14835851 -0.043855764 0.2314876
-0.015336215 0.04195118 -0.121446624 -0.07853408 -0.32710356 -0.22942777 -0.13695355 -0.0069844755
0.11178237 0.21525232 -0.19647864 -0.11254862 0.18241459 0.2610298 -0.09709459 0.2789232
-0.05238363 0.05382204 0.35274187 -0.25143212 -0.16640973 -0.049981914 -0.07814666 0.29698008
-0.18051963 -0.10867081 -0.18709745 -0.2632902 -0.3109755 0.324193 0.16984253 0.12972446
-0.008321775 -0.18279305 0.1047566 -0.27223754 -0.16156209 -0.12609111 0.29723245 0.26804543
-0.08880042 0.107007764 0.28621018 0.3748474 0.23587255 0.13430503 0.16216405 -0.3770625
-0.17358662 -0.24716474 -0.253508 -0.17317012 0.113629244 -0.087987036 -0.2159309 0.16236767
0.25196427 0.049120862 0.08091779 0.1520653 0.26020926 0.37216482 -0.16180065 -0.025040148
00000000: 220a ebbc fd9b 0e3e bd70 89be 48bf 5bbe
00000010: d71c 06be 4beb 173e 1aa2 33bd 160b 6d3e
00000020: bf44 7bbc 00d5 2b3d 02b9 f8bd 7ad6 a0bd
00000030: 1e7a a7be 1def 6abe 8d3d 0cbe 07de e4bb
00000040: 28ee e43d 1b6b 5c3e b231 49be e47f e6bd
00000050: e4ca 3a3e b3a5 853e 87d9 c6bd 06cf 8e3e
00000060: 3890 56bd 8074 5c3d 959a b43e b6bb 80be
00000070: 5067 2abe d6b9 4cbd 5b0b a0bd c60d 983e
00000080: 23da 38be cd8e debd 7996 3fbe f9cd 86be
00000090: 2e38 9fbe a0fc a53e 33eb 2d3e 7dd6 043e
000000a0: 0e58 08bc 1a2e 3bbe a18a d63d b862 8bbe
000000b0: 8870 25be 071e 01be da2e 983e 403d 893e
000000c0: ffdc b5bd e326 db3d 248a 923e 00ec bf3e
000000d0: 9388 713e 4287 093e 550e 263e 560e c1be
000000e0: b1c0 31be c118 7dbe cdcb 81be 8253 31be
000000f0: 73b6 e83d 8c32 b4bd fd1c 5dbe b643 263e
00000100: 7601 813e f532 493d 3ab8 a53d 02b7 1b3e
00000110: 263a 853e 638c be3e 12af 25be ff20 cdbc

conv1.bias f4 [8]
0.17584954 0.27615908 0.26348513 0.34538898 0.056841098 -0.2501988 -0.027910987 -0.19184825
00000000: e711 343e b964 8d3e 86e7 863e d3d6 b03e
00000010: 36d2 683d 0f1a 80be 95a5 e4bc de73 44be

conv2.weight f4 [16, 8, 3, 3]
-0.0044404226 -0.0043395977 -0.0045061256 -0.004518548 -0.00414556 -0.004238546 -0.003926574 -0.0041478286
-0.0042647026 -0.009163679 -0.008958334 -0.008929646 -0.009209047 -0.0089586545 -0.009554163 -0.009118433
-0.00893809 -0.008573072 -0.010587853 -0.010337275 -0.0105148405 -0.010571602 -0.010107449 -0.00931487
-0.011145874 -0.009509525 -0.010541218 -0.007735149 -0.007670871 -0.007365784 -0.0074509294 -0.0075740926
-0.0076142442 -0.0075531513 -0.0075510535 -0.007676096 -8.4117644e-05 -0.00010688913 -0.00022690445 -7.549451e-05
-0.0001262418 -0.00023059413 -8.16594e-05 -0.0001399316 -0.00028097336 -0.003567973 -0.0037904857 -0.003734911
-0.0036175027 -0.0044083935 -0.0036438836 -0.0036531403 -0.004377032 -0.0034044741 3.949825e-09 9.72395e-12
-1.0618833e-25 6.252684e-09 2.925273e-11 1.2054157e-24 1.0211495e-08 2.993884e-11 -3.8964137e-23 -0.0017329945
-0.0021180443 -0.0019579174 -0.0017044354 -0.0018510302 -0.0021208965 -0.0018234377 -0.0023493494 -0.002396189
-0.051442098 -0.006191004 0.015993444 -0.13220088 0.012292674 -0.091356136 -0.033952054 -0.08511556
-0.03434485 -0.030880917 -0.109196655 -0.10084928 -0.01730599 -0.017652787 -0.056289162 0.022083499
-0.1077898 -0.018446138 0.08371456 -0.04101778 0.07594069 0.021733202 -0.10052428 0.036925595
-0.037600018 -0.06970792 0.04708331 -0.0634696 -0.040141042 -0.042145576 0.049142353 -0.028713781
0.008525209 -0.010019769 -0.057297654 -0.037145384 -0.1186622 -0.0018506661 -0.0131366905 0.020083288
-0.093501695 -0.046088573 -0.12479813 -0.07654323 -0.04635792 0.08575715 -0.013657349 -0.06275444
0.019812921 0.060506664 -0.15393084 -0.07996025 -0.09576668 -0.06917754 -0.09339512 -0.032086838
-0.009988662 -0.061628878 -0.05493724 0.0016039368 -0.057807 -0.05042011 -0.0049480014 0.037570886
0.05240589 -0.014155891 0.086166926 0.0063291714 -0.0022920994 0.091220215 0.07008652 -0.038978912
-0.023605553 0.025927009 -0.034690645 -0.0021349613 -0.0150873475 -0.0154998945 0.0056810705 0.04555065
-0.006612604 0.07355878 0.049952745 -0.062002428 0.03925641 -0.05093309 -0.04683754 0.026120994
0.027811425 0.041083958 -0.023048097 -0.0019495243 0.032136317 -0.08058626 0.06400777 -0.09500591
0.008961145 -0.01699483 -0.06726295 0.009313402 0.06265493 -0.023554446 -0.020129614 -0.00679041
-0.052053314 0.021693056 -0.0083611775 -0.039863296 -0.012603819 0.027456122 0.010997394 0.0050560595
0.024278866 -0.015397534 -0.010564107 0.0021879082 0.014128359 -0.0110454755 -0.022734543 -0.020711895
-0.005493417 0.0057683494 -0.013243242 -0.0054369583 0.023596354 -0.010569355 3.875742e-05 -0.0001034639
0.013701849 5.4074975e-05 -0.00015528325 0.018971132 -1.2506026e-06 -0.000987035 0.0037990832 -0.0037451142
0.0040443577 -0.007825685 -0.0066755656 -0.0030912482 0.0074878624 -0.0041183336 -0.027617445 -0.034594934
0.080813564 -0.03979901 0.06677752 -0.023790497 -0.0140797235 0.03835213 -0.04577859 0.03716364
0.028503045 -0.066843666 0.006545492 0.013164016 0.03897436 -0.022754148 -0.11764195 -0.011484298
0.009389709 -0.07325984 0.06803167 0.09641569 -0.052040324 0.025502676 0.06644832 0.011667018
0.03137034 0.03170077 -0.08523992 0.005989482 0.05075634 0.057371408 0.04397335 -0.013514961
0.0027912788 -0.048449654 -0.10071007 -0.12183311 0.1570288 0.14488773 0.05797658 0.10237242
00000000: f780 91bb 2f33 8ebb 1fa8 93bb 5410 94bb
00000010: 7ad7 87bb 80e3 8abb 7daa 80bb 82ea 87bb
00000020: ebbe 8bbb 4123 16bc fac5 12bc a64d 12bc
00000030: 8be1 16bc 52c7 12bc 1089 1cbc 7b65 15bc
00000040: 1171 12bc 1276 0cbc ad78 2dbc ad5d 29bc
00000050: 7046 2cbc 8334 2dbc b799 25bc 669d 18bc
00000060: 2f9d 36bc d7cd 1bbc 13b5 2cbc 2277 fdbb
00000070: ee5b fbbb ad5c f1bb ed26 f4bb 1830 f8bb
00000080: e980 f9bb 6d80 f7bb d46e f7bb c387 fbbb
00000090: 5168 b0b8 aa29 e0b8 33ed 6db9 ce52 9eb8
000000a0: c65f 04b9 a4cb 71b9 8e40 abb8 9aba 12b9
000000b0: 9b4f 93b9 a7d4 69bb cc69 78bb 69c5 74bb
000000c0: a013 6dbb 4974 90bb 39ce 6ebb 8669 6fbb
000000d0: 356d 8fbb 991d 5fbb 07b7 8731 c710 2b2d
000000e0: 6d74 0396 31d7 d631 a5a7 002e 6f87 ba17
000000f0: a16e 2f32 23ac 032e 446b 3c9a a525 e3ba
00000100: e3ce 0abb 6750 00bb 5d67 dfba 449e f2ba
00000110: bdfe 0abb 6b00 efba 8bf7 19bb 6109 1dbb
00000120: f3b4 52bd e8dd cabb af04 833c ab5f 07be
00000130: 3667 493c ed18 bbbd 4f11 0bbd 1151 aebd
00000140: 2fad 0cbd faf9 fcbc 7fa2 dfbd 118a cebd
00000150: 4bc5 8dbc 949c 90bc 778f 66bd 74e8 b43c
00000160: e6c0 dcbd 5b1c 97bc 8a72 ab3d 4202 28bd
00000170: cb86 9b3d d409 b23c acdf cdbd 4b3f 173d
00000180: 7a02 1abd 07c3 8ebd 6eda 403d 5afc 81bd
00000190: ef6a 24bd d7a0 2cbd 7e49 493d 2a39 ebbc
000001a0: 51ad 0b3c f529 24bc f2b0 6abd c225 18bd
000001b0: 2b05 f3bd 0d92 f2ba 463b 57bc b585 a43c
000001c0: d17d bfbd 5fc7 3cbd 2996 ffbd b2c2 9cbd
000001d0: cde1 3dbd 72a1 af3d 13c3 5fbc 6685 80bd
000001e0: b54e a23c d6d5 773d 0ca0 1dbe 33c2 a3bd
000001f0: 5221 c4bd f4ac 8dbd f145 bfbd 7d6d 03bd
00000200: 7ca7 23bc 906e 7cbd df05 61bd 303b d23a
00000210: 08c7 6cbd 5185 4ebd d822 a2bb eee3 193d
00000220: 8fa7 563d 1cee 67bc 4978 b03d f064 cf3b
00000230: 0c37 16bb aad1 ba3d 8589 8f3d 5aa8 1fbd
00000240: 6f60 c1bc e164 d43c c717 0ebd b5ea 0bbb
00000250: ec30 77bc 45f3 7dbc 4628 ba3b 5293 3a3d
00000260: 8bae d8bb fca5 963d 409b 4c3d 42f6 7dbd
00000270: 54cb 203d 379f 50bd b8d8 3fbd b2fb d53c
00000280: c9d4 e33c a747 283d 5dcf bcbc 2e87 ffba
00000290: 5fa1 033d 690a a5bd 8116 833d 7592 c2bd
000002a0: c4d1 123c be38 8bbc 28c1 89bd 3d97 183c
000002b0: 3a51 803d 41f5 c0bc dce6 a4bc 1682 debb
000002c0: db35 55bd a3b5 b13c 52fd 08bc b247 23bd
000002d0: 4080 4ebc a9eb e03c 6a2e 343c 4dad a53b
000002e0: 79e4 c63c f045 7cbc 1415 2dbc 0263 0f3b
000002f0: a27a 673c 15f8 34bc cb3d babc feab a9bc
00000300: 1f02 b4bb 6c04 bd3b 2ffa 58bc 8328 b2bb
00000310: 244d c13c 172b 2dbc 768f 2238 c2fa d8b8
00000320: b87d 603c 90ce 6238 88d3 22b9 5969 9b3c
00000330: 61da a7b5 665f 81ba 0afa 783b 9770 75bb
00000340: 8886 843b 4d37 00bc b4be dabb 8a96 4abb
00000350: be5c f53b 16f3 86bb fb3d e2bc 6bb3 0dbd
00000360: 9581 a53d 4904 23bd a7c2 883d 4ae4 c2bc
00000370: a4ae 66bc 2017 1d3d 5582 3bbd e738 183d
00000380: 387f e93c 55e5 88bd 917b d63b e3ad 573c
00000390: 94a3 1f3d e866 babc 43ee f0bd a328 3cbc
000003a0: 4bd7 193c 4109 96bd 3054 8b3d 9775 c53d
000003b0: 3c28 55bd fdea d03c 0f16 883d 0527 3f3c
000003c0: 307e 003d abd8 013d 4492 aebd 6b43 c43b
000003d0: e1e5 4f3d 48fe 6a3d 661d 343d db6d 5dbc
000003e0: e3ed 363b 2573 46bd 1541 cebd a383 f9bd
000003f0: 28cc 203e 735d 143e da78 6d3d a2a8 d13d

conv2.bias f4 [16]
-0.011142991 -0.0374226 0.05418621 -0.090686284 0.05697211 -0.053887755 -0.04290452 -0.063359596
-0.08434567 0.047385946 0.04482858 -0.21337634 -0.055908248 -0.10217752 -0.027555175 -0.06622987
00000000: 1791 36bc 7148 19bd 5cf2 5d3d bbb9 b9bd
00000010: 965b 693d 68b9 5cbd a6bc 2fbd adc2 81bd
00000020: 6cbd acbd c417 423d 2c9e 373d 547f 5abe
00000030: 0c00 65bd 7342 d1bd 64bb e1bc 87a3 87bd

conv3.weight f4 [8, 16, 3, 3]
0.0035022243 0.0031852734 0.003413752 0.003429588 0.0033169615 0.0033870887 0.0032067483 0.003139438
0.0032331788 -0.020054678 0.021517249 0.021469628 -0.018997459 0.008463974 0.0229739 -0.013540143
0.014386156 0.012024742 0.0020728991 0.03680431 0.035372756 0.0053818002 0.026442146 0.03384513
-0.0041743414 0.025386006 0.029338771 -0.010019499 0.06651299 0.033268813 0.057799406 0.05358972
-0.047519755 -0.0014372012 0.00989281 0.015350978 0.030302938 -0.04465878 -0.03793453 0.056585316
-0.034223985 -0.07047972 0.04441441 0.044381894 -0.038373113 2.6619555e-05 -0.002537146 -0.0024816864
0.0035937175 -0.0012368615 0.002263318 -0.003797607 -0.00022491586 1.3882403e-05 4.2152792e-10 1.1670125e-09
5.3494483e-11 6.385426e-09 3.1516951e-09 4.6088244e-11 -2.8626683e-09 4.078716e-09 2.5294162e-09 -0.06164085
-0.06709259 -0.08765255 -0.058326162 -0.051617082 -0.10430727 -0.09054625 -0.052057523 -0.07313105
-0.016766712 0.006648792 -0.0201747 -0.06522062 -0.08226996 0.04452669 -0.019747134 -0.036444373
-0.028059132 -0.02951953 -0.01263387 -0.056468695 0.06499268 0.03892805 -0.03054552 -0.013359131
0.04291868 -0.01982995 0.0109640425 0.011165667 -0.06367776 0.009931608 -0.0062652254 0.05920604
-0.037436463 -0.031596445 0.058874756 -0.0001547118 1.2849706e-05 8.649241e-08 -5.0930154e-05 6.382483e-05
6.100124e-08 0.00014384663 -5.134655e-06 3.1319292e-08 -0.029388865 -0.020535078 0.012273527 0.010528698
0.027208213 0.04619294 -0.046889514 0.009108864 -0.0013088778 0.030598195 0.017234325 -0.02055287
-0.030751556 0.045018114 -0.028086642 0.037151817 -0.059408672 -0.015257106 0.00393429 0.0040039443
0.0040283115 0.00404142 0.0038749052 0.004064721 0.00415698 0.0040277136 0.0038194107 -0.019231204
-0.003853084 0.0018783127 0.0023662744 0.016710129 0.020316754 -0.00337542 0.012282761 0.016253987
-6.2305e-41 -4.2829e-41 3.0124e-41 3.3529e-41 -2.7662e-41 -1.0905e-41 3.7444e-41 1.6635e-41
-2.507e-42 -0.0018934465 -0.0015500496 -0.0011248443 -0.001673652 -0.0012903797 -0.0013150665 -0.0013888808
-0.0011161006 -0.0016746476 -0.00011567769 -6.3051746e-05 1.8531128e-06 -6.169699e-05 -2.4562542e-05 1.6259496e-06
-4.7588906e-05 -1.1684921e-05 7.806496e-07 -0.00052019156 -9.831573e-05 -0.00051355705 0.00020089389 0.0003247557
-0.00031571562 0.0004612236 2.2438884e-05 -0.0011471952 -0.0017610393 -0.004951773 -0.0049571157 0.00014558321
0.0040149614 -0.0034577646 -0.0028875496 -0.0037703507 -0.0012414946 -0.0013883534 -0.0010297846 -0.0009103371
-0.0013613842 -0.0011092408 -0.0012636294 -0.0011311042 -0.0012379095 -0.0017184006 -0.0013595583 -0.0009437145
-0.00096408854 -0.0012516718 -0.0008636206 -0.001298567 -0.00065086066 -0.0006027215 -0.0014873844 -0.0006386197
-0.00024226878 -0.0005892809 4.870483e-05 0.00020763163 -0.00031456733 0.00025002315 -5.3759e-05 -0.001026044
-0.001742001 -0.0017411686 -0.0009695419 -0.0011601057 -0.00047394395 -0.0012760614 -0.0008862703 -0.0006239692
-0.0002364236 6.909098e-05 1.8422124e-05 -3.114675e-05 4.809054e-05 9.351484e-06 -2.5020987e-05 6.925845e-05
4.1099203e-05 2.9228135e-05 -0.0019273105 -0.0040382915 0.0014748384 0.0016521818 0.00021309895 -0.00403092
0.0023424565 -0.0009113597 0.0012556723 -0.0013546823 -0.00089913205 -0.00088047254 -0.0012299967 -0.00079306477
-0.0011653416 -0.0008831397 -0.00085527275 -0.001439804 -0.0006451884 -0.00024034188 -0.00043503693 -2.930908e-06
00000000: 9385 653b 05c0 503b 41b9 5f3b f0c2 603b
00000010: 6161 593b ebf9 5d3b 4f28 523b 08bf 4d3b
00000020: bde3 533b b549 a4bc f144 b03c 13e1 af3c
00000030: 8fa0 9bbc 7bac 0a3c c333 bc3c 7ad7 5dbc
00000040: e9b3 6b3c 6c03 453c 7ad9 073b 1ec0 163d
00000050: 06e3 103d d059 b03b 339d d83c 31a1 0a3d
00000060: eac8 88bb 50f6 cf3c dd57 f03c d328 24bc
00000070: f637 883d e144 083d 12bf 6c3d e580 5b3d
00000080: 13a4 42bd 7860 bcba 7415 223c ab82 7b3c
00000090: de3d f83c 20ec 36bd 3d61 1bbd 01c6 673d
000000a0: 732e 0cbd ac57 90bd e2eb 353d cac9 353d
000000b0: 202d 1dbd 0f4d df37 3f46 26bb caa3 22bb
000000c0: 9384 6b3b 2f1e a2ba 2d54 143b 46e1 78bb
000000d0: 64d7 6bb9 78e8 6837 c8bc e72f 9a64 a030
000000e0: 6f45 6b2e cd66 db31 3595 5831 c0b2 4a2e
000000f0: 98b8 44b1 c424 8c31 f6d1 2d31 1e7b 7cbd
00000100: d767 89bd 2e83 b3bd 6ae7 6ebd 6f6c 53bd
00000110: 0d9f d5bd 5070 b9bd 453a 55bd bbc5 95bd
00000120: 585a 89bc 1cde d93b 6a45 a5bc 6392 85bd
00000130: 277d a8bd 9e61 363d bec4 a1bc b246 15bd
00000140: 44dc e5bc f1d2 f1bc 4bfe 4ebc b84b 67bd
00000150: e21a 853d 0573 1f3d 993a fabc 42e0 5abc
00000160: 7fcb 2f3d 6b72 a2bc 87a2 333c 34f0 363c
00000170: 7c69 82bd 2fb8 223c 854c cdbb 0882 723d
00000180: fa56 19bd 466b 01bd a826 713d 223a 22b9
00000190: 1195 5737 b5bd b933 d69d 55b8 b2d9 8538
000001a0: c9ff 8233 89d5 1639 5a4a acb6 ed83 0633
000001b0: ebc0 f0bc 2e39 a8bc e716 493c 8f80 2c3c
000001c0: c2e3 de3c cf34 3d3d 380f 40bd 583d 153c
000001d0: a78e abba 11a9 fa3c 002f 8d3c 7e5e a8bc
000001e0: b0ea fbbc ea64 383d f515 e6bc 812c 183d
000001f0: 8256 73bd f1f8 79bc 37eb 803b 8533 833b
00000200: edff 833b e36d 843b 1ff2 7d3b 5a31 853b
00000210: 4737 883b e9fa 833b 144f 7a3b c28a 9dbc
00000220: 0684 7cbb b731 f63a 7f13 1b3b aee3 883c
00000230: 526f a63c 2736 5dbb a23d 493c 1527 853c
00000240: aead 0080 6477 0080 f953 0000 775d 0000
00000250: 1c4d 0080 661e 0080 6168 0000 5f2e 0000
00000260: fd06 0080 862d f8ba 092b cbba 836f 93ba
00000270: 715e dbba f521 a9ba 4f5e acba 1b0b b6ba
00000280: 1f4a 92ba d97f dbba fd97 f2b8 a63a 84b8
00000290: 79b8 f835 5263 81b8 a80b ceb7 343b da35
000002a0: 339a 47b8 5b0a 44b7 d58d 5135 775d 08ba
000002b0: db2e ceb8 3ba0 06ba 0ba7 5239 f943 aa39
000002c0: a286 a5b9 62d0 f139 233b bc37 7c5d 96ba
000002d0: acd2 e6ba 7c42 a2bb 4d6f a2bb b2a7 1839
000002e0: f08f 833b aa9b 62bb 0b3d 3dbb fd17 77bb
000002f0: a5b9 a2ba 69f9 b5ba d6f9 86ba b0a3 6eba
00000300: 7970 b2ba f263 91ba 5ea0 a5ba 8f41 94ba
00000310: 5a41 a2ba f53b e1ba 3533 b2ba 9c63 77ba
00000320: e3ba 7cba 230f a4ba 9964 62ba ae34 aaba
00000330: 859e 2aba f5ff 1dba 57f4 c2ba 0b69 27ba
00000340: 8809 7eb9 f979 1aba 6a48 4c38 b1b7 5939
00000350: 83ec a4b9 8a15 8339 497b 61b8 537c 86ba
00000360: db53 e4ba ec37 e4ba db28 7eba b00e 98ba
00000370: ae7b f8b9 8441 a7ba 9854 68ba dd91 23ba
00000380: 7ae8 77b9 f0e4 9038 3689 9a37 91a3 02b8
00000390: d3b4 4938 51e4 1c37 29e4 d1b7 d93e 9138
000003a0: ef61 2c38 f12e f537 cf9d fcba a553 84bb
000003b0: 5d4f c13a 068e d83a 5073 5f39 cf15 84bb
000003c0: e683 193b 50e8 6eba 5f95 a43a 988f b1ba
000003d0: bbb3 6bba 83cf 66ba d737 a1ba ade5 4fba
000003e0: 60be 98ba 8182 67ba 6234 60ba ceb7 bcba
000003f0: dc21 29ba 4804 7cb9 ab15 e4b9 9eb0 44b6

conv3.bias f4 [8]
0.06681217 -0.004207301 -0.04245053 0.05952651 -0.00043872316 0.026576027 -0.04579796 -0.013339227
00000000: d2d4 883d 66dd 89bb 9be0 2dbd 12d2 733d
00000010: 6d04 e6b9 f8b5 d93c a496 3bbd c68c 5abc

conv4.weight f4 [4, 8, 3, 3]
-0.050800342 -0.0089009935 -0.08487103 0.12041275 -0.012391246 -0.061031014 0.05255095 -0.1181257
-0.07935864 -0.00014935246 0.0021749875 0.0006929406 0.00014744035 0.0022632028 0.00026835967 -0.00080675003
-0.0007273436 -0.00077728013 -0.22418568 -0.19556205 -0.14509514 -0.1341166 -0.117891476 -0.1475388
-0.17771904 -0.21953177 -0.2686805 -0.0044893827 0.013689618 -0.1349165 -0.14048214 -0.11067088
-0.07698926 -0.084176 -0.17637679 -0.25941592 -0.17441471 0.039078563 -0.105332814 -0.09980672
-0.1498247 -0.1425709 -0.07800828 -0.0779242 -0.17864127 -0.14408222 0.0073533948 -0.14261569
-0.1832189 -0.1037731 0.021198805 -0.09099356 -0.12112168 -0.15741532 0.13041721 0.16581956
0.15262976 0.13866621 0.18782698 0.14792705 0.124637924 0.18435124 0.12777549 0.0838028
0.12247699 0.13985415 0.15166086 0.17675452 0.17344056 0.12798053 0.11481326 0.11921458
-5.2899664e-11 -5.6891714e-11 -4.982888e-11 -4.1112655e-11 -1.1029157e-10 -1.04045786e-10 -1.8183878e-11 -2.22295e-11
-2.525813e-11 1.8986e-41 2.1419804e-36 -2.6779e-41 4e-42 5.1538066e-36 8.288518e-39 4.9239e-41
-5.2263e-41 -5.3292935e-36 1.030535e-31 1.0579105e-36 1.83092e-40 -5.712381e-32 -2.0123128e-33 -1.3260265e-34
1.4442748e-32 1.1559116e-33 -6.1653e-41 -0.00014572039 -0.00014014528 -0.00013310237 -0.00014572112 -0.00013979846
-0.00013878541 -0.00013407666 -0.00013581857 -0.0001238153 -0.00088737044 -0.0008911297 -0.00081059505 -0.00092059816
-0.00084406626 -0.00085747766 -0.00088897813 -0.00086503313 -0.0008359329 -0.00043422586 -0.00041687244 -0.00040067552
-0.0004731763 -0.0004023768 -0.00039789453 -0.00041623996 -0.0003810052 -0.00037894314 -0.000416297 -0.00011369256
-1.1082536e-09 -0.00061801 -0.00016338415 -8.5558645e-09 -0.0007406828 -0.00023991714 -6.408816e-07 -0.0008098922
-0.00027916513 -5.720499e-08 -0.0011049683 -0.0003757206 -2.0582621e-07 -0.0012735073 -0.0005097084 -5.4671987e-06
-0.06499306 0.019942664 0.12326341 0.09845108 -0.10051922 -0.0028952982 0.016446335 -0.024519544
-0.0622643 0.001799992 0.0026229117 -0.0023306832 0.0026355803 0.0022538393 -0.0021989082 0.0024716577
-0.00025636132 -0.0030941905 -0.037103813 -0.056616157 0.01276148 0.0073988875 -0.05397924 -0.07260987
-0.20262937 -0.10623457 -0.19289364 -0.067260146 -0.14078097 0.06806808 -0.05263386 -0.0040331045
-0.0645397 0.041554302 0.08231022 0.032048434 -0.053522218 0.06407751 0.03420192 -0.0055740243
-0.11075885 -0.07177128 -0.13617894 0.0580723 0.08694578 0.043905675 0.015446643 0.005661366
0.08943762 -0.08107923 -0.063643575 -0.13260704 -0.03664897 -0.024081163 0.08233867 0.04332295
0.03502369 0.06882201 0.07971288 0.04206048 0.076235645 0.1474443 -0.0153613575 0.058018204
0.090237975 0.008056297 0.15452598 0.16770503 0.037979696 0.15411548 0.16300628 0.038834408
0.019757207 -0.073959164 0.12063117 -0.06671758 0.015391666 0.04354473 -0.002179247 -0.0049630795
-0.06388344 0.0022520255 -5.418711e-05 0.0023960196 -0.00027378657 0.0044131395 -0.00057506573 -0.0012005183
-0.0023874869 -0.0020333105 0.16488883 0.17296124 0.1282997 0.23580383 0.16209663 0.09256828
0.05063631 -0.024386391 -0.047695927 0.08324912 0.13287085 -0.09277212 0.062485546 0.015457868
-0.008682657 -0.036533438 0.07846637 0.11317562 -0.078076296 0.08139263 0.09443141 0.03835115
00000000: 0514 50bd 79d5 11bc ddd0 adbd f69a f63d
00000010: a704 4bbc a8fb 79bd aa3f 573d e3eb f1bd
00000020: c886 a2bd 7f9b 1cb9 3c8a 0e3b 75a6 353a
00000030: 389a 1a39 3e52 143b a0b2 8c39 147c 53ba
00000040: 34ab 3eba 63c2 4bba ee90 65be 6b41 48be
00000050: d293 14be dd55 09be 1671 f1bd 6914 17be
00000060: fbfb 35be f0cc 60be 7e90 89be ac1b 93bb
00000070: 6b4a 603c 8d27 0abe 8dda 0fbe 6aa7 e2bd
00000080: 8cac 9dbd 7764 acbd 1e9c 34be 2ad2 84be
00000090: c599 32be d810 203d bbb8 d7bd 7767 ccbd
000000a0: a56b 19be 1bfe 11be cec2 9fbd b996 9fbd
000000b0: bded 36be 4a8a 13be bff4 f03b d909 12be
000000c0: bc9d 3bbe fe86 d4bd 1ea9 ad3c d55a babd
000000d0: a50e f8bd 7b31 21be 178c 053e 9acc 293e
000000e0: fa4a 1c3e 84fe 0d3e b755 403e 307a 173e
000000f0: 2b42 ff3d 92c6 3c3e 94d7 023e cda0 ab3d
00000100: 37d5 fa3d ed35 0f3e fc4c 1b3e 23ff 343e
00000110: 679a 313e 540d 033e 3723 eb3d c626 f43d
00000120: baa7 68ae 6036 7aae 5526 5bae bcd0 34ae
00000130: a288 f2ae 92cc e4ae 74f2 9fad 6288 c3ad
00000140: 412c dead ed34 0000 3438 3604 a64a 0080
00000150: 260b 0000 fc37 db04 0441 5a00 4289 0000
00000160: b091 0080 deae e284 66c5 050c 80fe b303
00000170: 63fe 0100 494d 948b 292d 2789 5842 3087
00000180: 69fb 950a 0b0f c008 ddab 0080 85cc 18b9
00000190: f6f3 12b9 6591 0bb9 b7cc 18b9 dd96 12b9
000001a0: ed86 11b9 ee96 0cb9 856a 0eb9 6bd4 01b9
000001b0: 6c9e 68ba b49a 69ba 1d7e 54ba 4c54 71ba
000001c0: 5444 5dba 5ac8 60ba 500a 69ba 64c3 62ba
000001d0: 8222 5bba cfa8 e3b9 ac8f dab9 c211 d2b9
000001e0: a614 f8b9 1af6 d2b9 809c d0b9 c83a dab9
000001f0: a7c1 c7b9 e3ac c6b9 7042 dab9 3a6e eeb8
00000200: 3551 98b0 f301 22ba 1952 2bb9 17fd 12b2
00000210: 622a 42ba 4492 7bb9 0c09 2cb5 f24e 54ba
00000220: e95c 92b9 8db1 75b3 95d4 90ba 5efc c4b9
00000230: 1401 5db4 d0eb a6ba f49d 05ba e172 b7b6
00000240: 151b 85bd cc5e a33c 8771 fc3d b8a0 c93d
00000250: 05dd cdbd 0bbf 3dbb 77ba 863c 36dd c8bc
00000260: da08 7fbd b6ed eb3a 28e5 2b3b 60be 18bb
00000270: b3b9 2c3b 26b5 133b 8f1b 10bb 89fb 213b
00000280: 3c68 86b9 e7c7 4abb 2bfa 17bd 58e6 67bd
00000290: 8715 513c 5e72 f23b 5619 5dbd 7cb4 94bd
000002a0: 137e 4fbe 8391 d9bd e985 45be b0bf 89bd
000002b0: e328 10be 4767 8b3d 9a96 57bd 2228 84bb
000002c0: 642d 84bd d834 2a3d 4392 a83d 3845 033d
000002d0: 1d3a 5bbd 123b 833d 5017 0c3d 4ea6 b6bb
000002e0: 89d5 e2bd d2fc 92bd 7e72 0bbe 38dd 6d3d
000002f0: a110 b23d 70d6 333d eb13 7d3c fb82 b93b
00000300: 122b b73d de0c a6bd 9057 82bd 24ca 07be
00000310: 3b1d 16bd dc45 c5bc 2da1 a83d 6873 313d
00000320: 0075 0f3d 8ef2 8c3d 8240 a33d 9c47 2c3d
00000330: 6f21 9c3d a3fb 163e 34ae 7bbc 7fa4 6d3d
00000340: b0ce b83d 8ffe 033c 0f3c 1e3e deba 2b3e
00000350: 9990 1b3d 73d0 1d3e 1eeb 263e d410 1f3d
00000360: ded9 a13c e777 97bd 7a0d f73d 3aa3 88bd
00000370: 542d 7c3c f55b 323d b3d1 0ebb 54a1 a2bb
00000380: 52d5 82bd b896 133b f746 63b8 8a06 1d3b
00000390: 038b 8fb9 199c 903b 02c0 16ba b65a 9dba
000003a0: 6277 1cbb 4a41 05bb 9ed8 283e c01c 313e
000003b0: ff60 033e 8f76 713e a9fc 253e 7094 bd3d
000003c0: 0568 4f3d f8c5 c7bc ce5c 43bd 847e aa3d
000003d0: 4c0f 083e 4fff bdbd d8f0 7f3d ff42 7d3c
000003e0: b441 0ebc 16a4 15bd fab2 a03d 9fc8 e73d
000003f0: 77e6 9fbd 2eb1 a63d 4165 c13d 1816 1d3d

conv4.bias f4 [4]
0.080036595 -0.006452766 0.038943775 0.0939
00000000: 3aea a33d b971 d3bb 8283 1f3d a54e c03d

conv5.weight f4 [2, 4, 3, 3]
0.08240615 0.058904685 0.115566485 0.073461115 0.10587354 0.1491078 0.14362 0.20846368
0.15828978 1.8991001e-06 6.8479217e-06 2.437303e-05 1.4752417e-05 3.8109505e-05 7.83897e-05 7.821769e-06
2.7849583e-05 7.0863956e-05 0.00026916902 -0.047678966 0.016959399 0.11947444 0.064158656 0.0788246
0.05784797 0.039795913 -0.03094447 -0.025758414 -0.04908025 0.045531705 0.0014268229 -0.09409204
0.05916847 -0.01213445 -0.080080144 -0.09672676 -0.113019094 -0.10419184 0.19513068 0.19614802
0.02292266 -0.21543026 0.03712248 -0.14223829 -0.006924621 0.0010716707 0.0011344156 0.001004924
0.0010980731 0.0011571301 0.0010252874 0.00095565023 0.0009743102 0.00089997903 -0.10885926 0.1823059
-0.06337133 0.15420748 -0.060968205 -0.024557635 0.117026865 -0.1294648 0.063778356 -0.10737583
0.041173115 -0.022574814 0.12101168 0.19435686 0.05482724 0.016845377 -0.057102207 0.07967062
00000000: 8ec4 a83d 0a46 713d 1fae ec3d c872 963d
00000010: 3ad4 d83d b7af 183e 1f11 133e 8177 553e
00000020: b716 223e 95e4 fe35 33c7 e536 af74 cc37
00000030: 2681 7737 c5d7 1f38 2665 a438 3e3a 0337
00000040: 869e e937 cc9c 9438 411f 8d39 054b 43bd
00000050: 70ee 8a3c 04af f43d 9d65 833d cb6e a13d
00000060: fef1 6c3d 0a01 233d 427f fdbc 4f03 d3bc
00000070: 5f08 49bd 747f 3a3d 3b04 bb3a 54b3 c0bd
00000080: a35a 723d 92cf 46bc 0f01 a4bd ae18 c6bd
00000090: 8e76 e7bd 8862 d5bd 56d0 473e 07db 483e
000000a0: 4dc8 bb3c c099 5cbe be0d 183d eaa6 11be
000000b0: eee7 e2bb 4d77 8c3a acb0 943a a7b7 833a
000000c0: 38ed 8f3a d8aa 973a f062 863a 9a84 7a3a
000000d0: da68 7f3a 92ec 6b3a 9bf1 debd 66ae 3a3e
000000e0: d4c8 81bd 91e8 1d3e ccb9 79bd 182d c9bc
000000f0: c8ab ef3d 6c92 04be 3a9e 823d dce7 dbbd
00000100: 24a5 283d d1ee b8bc f9d4 f73d 7c05 473e
00000110: 8792 603d 51ff 893c 01e4 69bd 5a2a a33d

conv5.bias f4 [2]
0.025021784 0.104985446
00000000: 7cfa cc3c 9c02 d73d

fc1.weight f4 [256, 512]
-1.9834e-41 1.277e-42 2.3667e-41 9.263e-42 7.0408e-41 -6.4154e-41 -1.6254e-41 -5.8265e-41
4.4385e-41 5.3213e-41 -4.6652e-41 -2.8867e-41 6.5773e-41 2.9127e-41 5.1331e-41 6.0745e-41
-5.1932e-41 -1.2851e-41 -6.3755e-41 -5.065e-41 5.4848e-41 5.8472e-41 -1.5999e-41 5.1744e-41
4.8021e-41 -6.635e-42 -4.2833e-41 -5.2804e-41 6.009e-41 -1.7816e-41 -4.617e-41 -4.487e-41
-5.9202e-41 4.6994e-41 -6.7774e-41 2.7842e-41 -2.504e-41 -3.418e-41 -9.38e-42 4.1054e-41
-1.4152e-41 -6.066e-42 1.1671e-41 3.8076e-41 1.1781e-41 -1.0442e-41 -2.4807e-41 -4.183e-42
-5.8897e-41 4.3677e-41 5.9316e-41 2.4297e-41 -6.2054e-41 -2.6091e-41 -5.8807e-41 4.823e-42
-1.6729e-41 -6.7833e-41 1.0923e-41 6.3427e-41 2.7784e-41 -3.3813e-41 -2.82e-42 -5.1356e-41
-2.284e-41 -8.737e-42 -5.3342e-41 1.3698e-41 5.2062e-41 1.4324e-41 -5.72e-41 2.679e-41
-7.483e-42 2.929e-41 -2.0533e-41 -3.7901e-41 1.2188e-41 1.5246e-41 1.2746e-41 3.2444e-41
3.926e-41 2.7236e-41 4.296e-41 6.0749e-41 1.9152e-41 -3.8604e-41 4.1492e-41 -2.0808e-41
4.458e-42 2.8366e-41 -2.1003e-41 6.4813e-41 4.587e-41 -3.941e-41 -6.6022e-41 6.116e-41
-6.4667e-41 -6.0154e-41 5.5861e-41 6.4984e-41 3.2383e-41 -6.227e-41 -6.66e-43 -5.6418e-41
-1.8712e-41 -3.2905e-41 -5.7813e-41 -3.2521e-41 -2.8669e-41 2.8926e-41 6.6346e-41 2.1614e-41
-2.3688e-41 -1.8662e-41 1.2836e-41 1.7404e-41 4.3383e-41 -5.7825e-41 -5.336e-42 5.3727e-41
4.8467e-41 -3.1668e-41 -1.5392e-41 5.6137e-41 -4.959e-41 -3.5973e-41 -5.6231e-41 -3.16e-41
4.122e-41 -5.1149e-41 -5.251e-41 -1.6949e-41 -5.0578e-41 -1.242e-42 -6.3716e-41 2.8357e-41
-2.2132e-41 -4.5953e-41 4.4326e-41 -5.4906e-41 -1.2323e-41 4.4976e-41 3.4884e-41 -1.0344e-41
5.9534e-41 -6.4583e-41 -3.5472e-41 -1.6783e-41 -3.8901e-41 -4.5038e-41 6.6105e-41 6.3585e-41
5.517e-42 1.0049e-41 -2.9644e-41 6.4741e-41 8.691e-42 5.1233e-41 -3.7392e-41 3.0473e-41
-2.997e-42 -5.2275e-41 6.0465e-41 2.6988e-41 -1.5001e-41 1.193e-41 6.829e-42 -5.67e-42
-6.9235e-41 1.595e-42 -5.2303e-41 -6.289e-41 4.5914e-41 9.635e-42 -1.9304e-41 3.1508e-41
3.9378e-41 2.3095e-41 1.6902e-41 -5.5532e-41 -7.951e-42 3.744e-41 -1.6209e-41 1.7136e-41
5.6111e-41 -1.5323e-41 -1.4747e-41 -4.2423e-41 -9.16e-43 7.532e-42 5.6324e-41 -8.772e-42
1.8747e-41 -3.5245e-41 -6.081e-41 2.7604e-41 4.956e-41 -4.2358e-41 4.2169e-41 1.5631e-41
-3.0529e-41 4.37e-43 1.0612e-41 4.63e-42 3.21e-43 4.589e-41 1.085e-41 -4.882e-42
-6.9321e-41 3.6634e-41 3.695e-42 5.0954e-41 2.1437e-41 -1.2323e-41 -2.8644e-41 -1.3343e-41
-5.158e-41 6.725e-41 6.8155e-41 3.5809e-41 6.4579e-41 4.225e-41 1.2668e-41 -5.282e-41
-5.8864e-41 -3.1903e-41 -1.2529e-41 5.7595e-41 6.5593e-41 4.7018e-41 2.2143e-41 -1.1318e-41
5.6023e-41 -1.466e-42 5.918e-41 -6.4988e-41 6.0481e-41 -2.9314e-41 -6.0986e-41 -4.582e-42
3.7912e-41 3.1853e-41 4.4608e-41 4.3835e-41 -3.5063e-41 5.0633e-41 -5.0726e-41 3.4556e-41
-2.2481e-41 1.756e-42 2.2127e-41 4.229e-41 -3.674e-42 2.8173e-41 1.4693e-41 3.5799e-41
00000000: 4a37 0080 8f03 0000 f941 0000 d219 0000
00000010: 45c4 0000 d6b2 0080 4f2d 0080 6ba2 0080
00000020: ba7b 0000 5694 0000 0c82 0080 7850 0080
00000030: 59b7 0000 3251 0000 178f 0000 55a9 0000
00000040: c490 0080 d323 0080 b9b1 0080 318d 0080
00000050: e598 0000 ffa2 0000 992c 0080 3e90 0000
00000060: dd85 0000 7f12 0080 6777 0080 3293 0080
00000070: 82a7 0000 aa31 0080 b480 0080 147d 0080
00000080: 08a5 0080 0083 0000 edbc 0080 9d4d 0000
00000090: cd45 0080 485f 0080 261a 0080 7172 0000
000000a0: 7327 0080 e910 0080 8920 0000 246a 0000
000000b0: d720 0000 1c1d 0080 2745 0080 a90b 0080
000000c0: 2ea4 0080 c179 0000 59a5 0000 bb43 0000
000000d0: fbac 0080 bb48 0080 eea3 0080 720d 0000
000000e0: a22e 0080 17bd 0080 731e 0000 cfb0 0000
000000f0: 734d 0000 425e 0080 dc07 0080 298f 0080
00000100: ab3f 0080 5b18 0080 b294 0080 2f26 0000
00000110: 2191 0000 ee27 0000 739f 0080 ae4a 0000
00000120: dc14 0080 a651 0000 3d39 0080 a769 0080
00000130: fa21 0000 802a 0000 8823 0000 715a 0000
00000140: 716d 0000 ec4b 0000 c177 0000 58a9 0000
00000150: 6335 0000 9d6b 0080 aa73 0000 013a 0080
00000160: 6d0c 0000 134f 0000 8c3a 0080 acb4 0000
00000170: de7f 0000 dc6d 0080 0bb8 0080 7daa 0000
00000180: 44b4 0080 afa7 0080 b89b 0000 26b5 0000
00000190: 455a 0000 95ad 0080 db01 0080 459d 0080
000001a0: 2934 0080 ba5b 0080 29a1 0080 a85a 0080
000001b0: eb4f 0080 a250 0000 f2b8 0000 403c 0000
000001c0: 0842 0080 0634 0080 c823 0000 8430 0000
000001d0: ef78 0000 31a1 0080 e00e 0080 c595 0000
000001e0: 1b87 0000 4758 0080 e82a 0080 7d9c 0000
000001f0: 3d8a 0080 4764 0080 c09c 0080 1758 0080
00000200: e872 0000 958e 0080 6092 0080 3f2f 0080
00000210: fe8c 0080 7603 0080 9db1 0080 0c4f 0000
00000220: b23d 0080 1980 0080 907b 0000 0e99 0080
00000230: 5a22 0080 607d 0000 3e61 0000 d61c 0080
00000240: f5a5 0000 08b4 0080 e262 0080 c92e 0080
00000250: 716c 0080 8c7d 0080 46b8 0000 40b1 0000
00000260: 610f 0000 031c 0000 a352 0080 79b4 0000
00000270: 3a18 0000 d18e 0000 3c68 0080 f254 0000
00000280: 5b08 0080 b991 0080 8da8 0000 3b4b 0000
00000290: d129 0080 4221 0000 0913 0000 ce0f 0080
000002a0: 00c1 0080 7204 0000 cd91 0080 50af 0080
000002b0: fd7f 0000 dc1a 0000 d035 0080 d557 0000
000002c0: c56d 0000 6140 0000 1e2f 0000 cd9a 0080
000002d0: 2a16 0080 5e68 0000 2f2d 0080 c52f 0000
000002e0: 6a9c 0000 b72a 0080 1c29 0080 4276 0080
000002f0: 8e02 0080 ff14 0000 029d 0000 7418 0080
00000300: 4234 0000 4062 0080 83a9 0080 f34c 0000
00000310: 278a 0000 1476 0080 8d75 0000 932b 0000
00000320: 1a55 0080 3801 0000 951d 0000 e80c 0000
00000330: e500 0000 ec7f 0000 3f1e 0000 9c0d 0080
00000340: 3dc1 0080 1f66 0000 4d0a 0000 0a8e 0000
00000350: c23b 0000 5a22 0080 d94f 0080 3225 0080
00000360: c98f 0080 77bb 0000 fdbd 0000 d263 0000
00000370: 05b4 0000 c775 0000 5023 0000 3e93 0080
00000380: 17a4 0080 ef58 0080 ed22 0080 8da0 0000
00000390: d9b6 0000 1183 0000 ba3d 0000 8d1f 0080
000003a0: 2b9c 0000 1604 0080 f8a4 0000 29b5 0080
000003b0: 99a8 0000 b751 0080 01aa 0080 c60c 0080
000003c0: af69 0000 cb58 0000 597c 0000 327a 0000
000003d0: be61 0080 258d 0000 678d 0080 5460 0000
000003e0: ab3e 0080 e504 0000 ae3d 0000 e375 0000
000003f0: 3e0a 0080 894e 0000 f528 0000 cb63 0000

fc1.bias f4 [256]
-3.0387491e-05 -0.0019062946 0.018797835 -1.07994225e-07 -0.0059007085 -0.00977482 -0.0017720183 0.07956771
6.5820177e-20 -1.6593383e-11 0.0111108385 -0.00041100066 -3.8863913e-05 0.069352806 0.03274449 0.031408492
-5.021758e-06 0.06978899 -0.0048219687 0.09544019 0.0662489 0.0016838928 -0.0036510257 -3.7903188e-12
-1.5676264e-08 0.0546232 0.066602506 -0.0015851625 -0.0005039909 -9.855852e-07 -0.00055750663 -0.0020798303
-0.022013847 0.0046166335 0.042538155 0.014485458 -2.5392788e-09 0.043955788 0.06482762 -0.0003103467
-0.003620256 -0.0012553284 -0.00011943833 -0.0033417756 -0.007614469 -0.03425797 -0.0024764736 -0.001874769
0.010015348 0.031666044 -6.335187e-07 -0.00020171021 -0.014365887 0.025083411 0.052242525 -3.6423233e-13
0.07764355 -0.0007335902 0.09383793 0.027226217 -0.004872956 -3.6081943e-07 -8.257638e-14 -0.0017732787
-0.009597745 0.002235611 -0.0002695512 0.072571434 -0.07228678 -0.01224122 -9.9771096e-05 0.07097912
-1.4524439e-09 0.07796419 -0.10583743 -4.7384685e-07 0.09399234 -0.0050159125 0.04269043 -0.027408998
-0.002764636 -7.793105e-14 -0.00018029791 0.00010763315 0.0723464 0.05446349 0.077869385 0.0484696
0.062387884 0.021142617 -5.2807015e-27 -0.0018361646 0.051303454 0.039549574 0.043372024 6.922475e-21
0.061072268 0.0037582663 -2.0176118e-14 -0.003912434 0.019839684 0.009775388 0.048652332 -0.001994895
-6.7791257e-06 0.0034493594 -0.0024391299 -0.003822442 0.0011324162 -3.80834e-08 -0.000108043576 -0.0014036468
-5.2158023e-21 -0.00017803373 -0.0052904016 -0.0031475925 -0.0017371393 -0.0001175074 -0.012696996 0.00040896382
-2.3892022e-10 0.016817842 -0.0015371187 8.021103e-27 0.023000274 -0.013674003 -0.0029918293 0.023576804
-0.0028569954 -0.00079990044 0.031566113 0.052981324 0.0006128094 -0.0037246472 -2.4369002e-13 0.07946291
0.002757248 -0.004984452 -0.014622012 -0.00013777711 0.042650387 -0.002780644 0.057358697 -0.0031328003
0.00031879017 0.06597604 -3.45205e-05 -1.2884385e-06 0.019894494 -0.006625108 -0.0001732376 0.027199242
-4.25e-43 -0.0013023084 -2.1955168e-07 -4.7020658e-05 0.08481533 -0.0031182894 -0.051791955 1.126281e-35
0.012967493 0.00014929796 -0.001779077 0.010455372 -0.00016929858 -0.0044673984 0.007904379 -1.1314582e-05
0.070132926 -1.2470008e-05 0.011257692 0.019199446 0.02112994 -5.597133e-13 -4.1898304e-10 0.015210713
0.040440667 0.07945906 -0.0035104228 -0.028150355 0.00817787 -1.3418666e-09 -0.0015114857 -0.0030732634
-6.303696e-06 -0.0179378 -0.0025054957 0.034172427 -2.9601479e-05 0.018383002 0.06721041 -1.2052889e-05
-2.0036265e-05 -0.0024807723 0.0030818223 -0.0029082578 -2.9792832e-06 -0.010997749 0.04068091 0.011372731
0.015207845 -0.0003565007 -0.038151126 0.048651755 -3.3209216e-07 0.06150288 -0.011568387 -0.007066178
0.05734413 -0.015790416 0.008424112 -7.712979e-09 -0.00012824679 0.054249145 -5.472389e-14 0.010902202
0.057273615 0.024708945 0.088339835 -0.0059598037 -2.4038963e-13 -3.5485482e-05 0.07213455 0.030832587
0.007986083 -0.008026335 0.06988673 0.008164155 0.035531685 -0.0010406533 -0.0070113963 0.013706582
-3.732761e-07 0.03882487 0.067505814 -0.002258517 0.08415062 0.0824299 -0.0017969559 -1.9720599e-14
0.06787636 -1.637408e-08 -7.3760793e-07 -0.0002341014 0.015976384 0.01662359 0.037550103 -0.0014303625
-0.0024684079 -0.00039383717 -0.015302585 -1.30594335e-05 -0.00054257375 0.09568323 -3.8083627e-07 0.0115200905
00000000: a4e8 feb7 a2dc f9ba ebfd 993c 74ea e7b3
00000010: bb5a c1bb 9126 20bc 1143 e8ba 65f4 a23d
00000020: db69 9b1f faf4 91ad 3c0a 363c 937b d7b9
00000030: cf01 23b8 d808 8e3d 161f 063d 31a6 003d
00000040: 9380 a8b6 88ed 8e3d 9b01 9ebb 2576 c33d
00000050: 81ad 873d 11b6 dc3a 0c46 6fbb 285c 85ac
00000060: 78a8 86b2 94bc 5f3d e566 883d 3ac5 cfba
00000070: 421e 04ba 7348 84b5 a325 12ba c34d 08bb
00000080: 6256 b4bc 2147 973b 7d3c 2e3d 6a54 6d3c
00000090: 777f 2eb1 fc0a 343d 58c4 843d 07b6 a2b9
000000a0: d141 6dbb d589 a4ba f77a fab8 b101 5bbb
000000b0: cc82 f9bb 1652 0cbd 554c 22bb cfba f5ba
000000c0: 6a17 243c 41b4 013d 130f 2ab5 2c82 53b9
000000d0: e65e 6bbc ba7b cd3c 42fc 553d 690b cdaa
000000e0: 9503 9f3d 684e 40ba 1a2e c03d 8409 df3c
000000f0: 51ad 9fbb a5b6 c1b4 0bf2 b9a9 5c6d e8ba
00000100: dc3f 1dbc 5483 123b 8d52 8db9 55a0 943d
00000110: 170b 94bd 668f 48bc 333c d1b8 805d 913d
00000120: 549f c7b0 b0ab 9f3d 4bc1 d8bd 0465 feb4
00000130: 0e7f c03d 865c a4bb 29dc 2e3d d688 e0bc
00000140: e52e 35bb 317c afa9 5a0e 3db9 1bb9 e138
00000150: 592a 943d 1c15 5f3d fc79 9f3d 0f88 463d
00000160: 708a 7f3d 4833 ad3c ad30 d193 76ab f0ba
00000170: 9223 523d bcfe 213d dda6 313d 09c3 021e
00000180: ea26 7a3d 3f4d 763b f6ba b5a8 e033 80bb
00000190: d586 a23c f328 203c ab47 473d c9bc 02bb
000001a0: 3f78 e3b6 a60e 623b cfd9 1fbb ef81 7abb
000001b0: 956d 943a 2491 23b3 7495 e2b8 92fa b7ba
000001c0: 250c c59d 91ae 3ab9 1b5b adbb d747 4ebb
000001d0: b9b0 e3ba 4e6e f6b8 1007 50bc 326a d639
000001e0: 0859 83af 92c5 893c 2579 c9ba d3df 1e14
000001f0: 126b bc3c ed08 60bc 9112 44bb 2424 c13c
00000200: 6e3c 3bbb 69b0 51ba 784b 013d f202 593d
00000210: f1a4 203a 3619 74bb 6f2f 89aa 73bd a23d
00000220: f2b2 343b 9d54 a3bb 2a91 6fbc 4378 10b9
00000230: 2cb2 2e3d 773b 36bb f4f0 6a3d ab4f 4dbb
00000240: 4b23 a739 721e 873d 1bca 10b8 69ee acb5
00000250: c7f9 a23c 6f17 d9bb 1da7 35b9 f2d0 de3c
00000260: 2f01 0080 38b2 aaba e8bd 6bb4 0c38 45b8
00000270: a9b3 ad3d 375c 4cbb cd23 54bd 9288 6f05
00000280: 9c75 543c de8c 1c39 eb2f e9ba 024d 2b3c
00000290: be85 31b9 4163 92bb 5e81 013c c2d3 3db7
000002a0: daa1 8f3d 4736 51b7 2f72 383c 2848 9d3c
000002b0: b218 ad3c 988b 1dab 9f56 e6af 5b36 793c
000002c0: 1da5 253d 6fbb a23d 1f0f 66bb 939b e6bc
000002d0: 79fc 053c bc6c b8b0 0b1d c6ba ce68 49bb
000002e0: 5684 d3b6 4bf2 92bc 3e33 24bb 63f8 0b3d
000002f0: b150 f8b7 f397 963c 9da5 893d c436 4ab7
00000300: 8d13 a8b7 7494 22bb 66f8 493b 7898 3ebb
00000310: b2ef 47b6 e72f 34bc 07a1 263d b154 3a3c
00000320: 532a 793c b7e8 bab9 5b44 1cbd 1047 473d
00000330: 664a b2b4 72ea 7b3d 5589 3dbc 668b e7bb
00000340: aee1 6a3d e75a 81bc 4905 0a3c 0a82 04b2
00000350: fc79 06b9 5a34 5e3d 5974 76a9 269f 323c
00000360: bd97 6a3d 6a6a ca3c 84eb b43d 754a c3bb
00000370: cc53 87aa 3fd6 14b8 47bb 933d 9f94 fc3c
00000380: 0fd8 023c e480 03bc c620 8f3d f3c2 053c
00000390: ac89 113d 8866 88ba dbbf e5bb 9291 603c
000003a0: ad66 c8b4 d406 1f3d 7d40 8a3d a103 14bb
000003b0: 2957 ac3d 02d1 a83d d687 ebba 9ba0 b1a8
000003c0: c302 8b3d fca6 8cb2 0800 46b5 1e79 75b9
000003d0: e8e0 823c 322e 883c 23ce 193d 007b bbba
000003e0: 03c5 21bb ee7b ceb9 b2b7 7abc d719 5bb7
000003f0: 823b 0eba 92f5 c33d bd75 ccb4 c3be 3c3c

fc2.weight f4 [128, 256]
1.1583e-41 -7.3671256e-35 -0.00068163115 4.007e-41 -2.1743e-41 -1.9432466e-16 -1.1359e-41 0.0008843706
-1.3846e-41 -2.4088e-41 -0.00060609763 7.0323e-41 -5.7284e-41 -0.00010597173 -0.00034495455 -0.0025598558
4.4952e-41 0.00018014667 5.508652e-08 -0.005128956 0.0018028944 -1.3355614e-07 -3.608e-41 -1.421e-42
5.5966e-41 -0.0025898868 3.9046914e-05 3.4193e-41 -1.611912e-29 -2.4285e-41 -1.9292e-41 -3.8366e-41
5.5664e-41 -1.6261516e-05 1.99934e-07 -1.9664e-41 3.6144e-41 4.450324e-05 0.00036125875 -1.07256064e-07
-7.71e-43 -5.6471e-41 -3.2978e-41 6.0997e-41 -1.2308e-41 2.7006e-41 -0.00012611241 9.858678e-05
5.1436e-41 0.000117811775 -1.322e-41 -3.9689e-41 2.119384e-05 0.00029965575 6.770049e-05 -4.1069e-41
-0.001010022 -2.6248e-41 -0.0035783262 -0.0004238933 -9.344e-42 3.3399e-41 6.5219e-41 5.6978e-41
-1.1558e-41 -7.443784e-08 5.312101e-07 0.00041533762 6.5528743e-29 3.2062506e-08 -2.615e-41 0.0008640429
-5.1114e-41 -0.0047027613 1.6907e-41 4.6642e-41 0.001516775 -6.3769e-41 -0.00055773096 -0.002136
5.5242e-41 -4.7018e-41 -1.5071134e-05 -4.5588873e-25 -0.006201495 0.00027385313 -0.004071774 2.5317e-41
-0.0024904972 0.00025722486 2.6594e-41 2.33e-42 9.6622265e-05 -0.0002316931 5.345851e-36 -3.9427e-41
0.0027839781 7.787e-42 -6.7617e-41 1.9177139e-07 -0.0008393122 -0.005145452 2.1842e-41 -0.0027305512
-2.4095e-41 1.8896762e-31 -5.6133e-41 1.3231e-41 8.499361e-10 5.8675e-41 4.0158e-41 -2.1291e-41
3.6397e-41 3.3127e-41 -7.10777e-08 -4.5822e-41 2.0452143e-22 3.6908405e-16 3.656e-41 4.06e-43
2.8822e-41 0.0021206532 4.7374e-41 1.5769e-41 -1.3223e-41 6.669871e-05 -5.2816e-41 -2.851825e-05
-5.0888e-41 -2.3598e-41 4.3299e-41 8.860808e-39 2.2269488e-38 -8.891822e-06 -7.032e-42 0.0055820304
-2.6615493e-05 2.7083086e-13 -2.2323e-41 -4.67e-41 -0.00418103 4.7117e-41 8.2336124e-13 -2.864e-41
4.0234452e-05 -0.00014725635 6.5099e-41 -6.227e-41 -0.0019707722 -9.379557e-05 -2.4412e-41 -0.00014405834
1.4362e-41 -0.00069416047 -5.9987e-41 1.5179e-41 -0.0012801511 -2.0647e-41 2.2974e-41 1.8913e-41
-1.7263843e-05 6.9534304e-29 -4.1806e-41 -5.5683e-41 2.9476018e-12 3.8792e-41 -3.1145784e-05 5.3318e-41
-0.00042810896 -2.8881e-41 -6.821768e-32 -0.00018097818 -0.0026480274 -5.343e-42 6.3168e-41 0.0003885511
-0.00010018799 0.0012364174 2.315e-42 6.69e-41 0.00041536352 -4.5392e-41 2.4541e-41 1.4229e-41
3.171e-42 3.2167327e-10 6.608e-41 -9.111356e-06 1.195e-41 -2.3105e-41 0.0015150668 -2.957097e-17
-5.9332e-41 -4.7001e-41 2.0687347e-13 4.9002e-41 -7.759e-42 -0.007365385 -0.0042802044 0.0010504309
-5.9575586e-07 4.3024e-41 6.429e-41 -0.00076487503 -2.7416e-41 0.0055557447 -0.005803132 4.1904e-07
0.0034761738 -6.1415e-41 -7.6572476e-05 4.6334e-41 -5.5249e-41 -0.0012781714 -3.0135e-41 -0.00971588
-0.0011821806 -7.2164e-05 -0.0017244891 -5.4457e-41 -2.4458e-41 -5.0349e-41 -0.0024219742 -0.0011692356
-0.0031629296 -0.0010846672 -4.5856796e-05 -1.695274e-08 3.4416704e-08 -5.8186e-41 -1.2788572e-08 -1.2437e-41
-6.5585e-41 -0.0019207257 -1.8013559e-08 3.282e-41 0.00017892949 -0.00020028988 2.3156e-41 -4.4976e-41
-0.006801681 1.2724e-41 -4.1752e-41 -7.4186984e-22 2.9972623e-05 -2.531e-41 -0.0002280087 -3.2212294e-05
4.7863e-41 -1.9819762e-11 -0.0004744148 -1.2046934e-30 -3.908e-42 -0.00069133454 -1.9568e-41 -0.0033866721
00000000: 4a20 0000 0fda c386 7eaf 32ba b36f 0000
00000010: 9c3c 0080 840a 60a5 aa1f 0080 1bd5 673a
00000020: 9926 0080 2643 0080 86e2 1eba 08c4 0000
00000030: af9f 0080 243d deb8 04db b4b9 41c3 27bb
00000040: 4f7d 0000 c1e5 3c39 4598 6c33 cd10 a8bb
00000050: 194f ec3a a267 0fb4 9464 0080 f603 0080
00000060: 039c 0000 17bb 29bb 4ec6 2338 515f 0000
00000070: a177 a38f b243 0080 c735 0080 f36a 0080
00000080: 2b9b 0000 5769 88b7 70ad 5634 d136 0080
00000090: c164 0000 fda8 3a38 5467 bd39 a554 e6b3
000000a0: 2602 0080 6b9d 0080 ee5b 0080 09aa 0000
000000b0: 4f22 0080 484b 0000 0b3d 04b9 60c0 ce38
000000c0: 628f 0000 b711 f738 da24 0080 a36e 0080
000000d0: 6dc9 b137 1d1b 9d39 6cfa 8d38 7c72 0080
000000e0: b762 84ba 2b49 0080 5a82 6abb ff3d deb9
000000f0: 0c1a 0080 1a5d 0000 ceb5 0000 d59e 0000
00000100: 3820 0080 a3da 9fb3 7b98 0e35 acc1 d939
00000110: 9622 a610 19b5 0933 e548 0080 f080 623a
00000120: 7c8e 0080 9f19 9abb 212f 0000 0582 0000
00000130: 86ce c63a c3b1 0080 b134 12ba 22fc 0bbb
00000140: fe99 0000 1183 0080 07da 7cb7 3a17 0d97
00000150: e935 cbbb f293 8f39 846c 85bb 9346 0000
00000160: 9c37 23bb 23dc 8639 224a 0000 7f06 0000
00000170: afa1 ca38 a5f2 72b9 2a63 e304 e86d 0080
00000180: 6773 363b b515 0000 7dbc 0080 b8e9 4d34
00000190: 4a05 5cba 2e9b a8bb e33c 0000 0cf3 32bb
000001a0: 2b43 0080 434b 750c 7a9c 0080 e224 0000
000001b0: f0a0 6930 90a3 0000 f26f 0000 5a3b 0080
000001c0: 7665 0000 585c 0000 61a3 98b3 bc7f 0080
000001d0: 5140 771b 31c3 d425 ea65 0000 2201 0000
000001e0: 5850 0000 a8fa 0a3b 0f84 0000 f52b 0000
000001f0: dc24 0080 99e0 8b38 3b93 0080 7a3a efb7
00000200: db8d 0080 c841 0080 b378 0000 547c 6000
00000210: 467e f200 162e 15b7 9a13 0080 77e9 b63b
00000220: 5644 dfb7 d776 982a 3a3e 0080 2e82 0080
00000230: 0601 89bb 5883 0000 6ec1 672b d64f 0080
00000240: 6ac1 2838 d368 1ab9 78b5 0000 95ad 0080
00000250: 1228 01bb 1db4 c4b8 0d44 0080 5e0e 17b9
00000260: 0928 0000 52f8 35ba 38a7 0080 502a 0000
00000270: beca a7ba 8e39 0080 0b40 0000 b934 0000
00000280: d2d1 90b7 584a b010 8a74 0080 399b 0080
00000290: 466b 4f2c 236c 0000 88a2 02b8 a194 0000
000002a0: d073 e0b9 8250 0080 6d1a b18b f6c4 3db9
000002b0: 878a 2dbb e50e 0080 16b0 0000 72b6 cb39
000002c0: 041c d2b8 490f a23a 7406 0000 7dba 0000
000002d0: 26c5 d939 897e 0080 6944 0000 aa27 0000
000002e0: d708 0000 7dd7 b02f 34b8 0000 fadc 18b7
000002f0: 5021 0000 6840 0080 3595 c63a 3d5f 08a4
00000300: 65a5 0080 0583 0080 38eb 682a 9988 0000
00000310: a115 0080 5459 f1bb f540 8cbb 9dae 893a
00000320: 08ec 1fb5 ef77 0000 37b3 0000 e581 48ba
00000330: 6d4c 0080 f70c b63b 3328 bebb 6bf8 e034
00000340: 85d0 633b 33ab 0080 8995 a0b8 2981 0000
00000350: 039a 0080 5188 a7ba 0154 0080 5b2f 1fbc
00000360: 66f3 9aba c156 97b8 4108 e2ba ce97 0080
00000370: 2e44 0080 5a8c 0080 fcb9 1ebb 0941 99ba
00000380: 2749 4fbb 642b 8eba 5c56 40b8 789f 91b2
00000390: 91d1 1333 33a2 0080 bcb4 5bb2 ab22 0080
000003a0: d3b6 0080 dcc0 fbba 3cbc 9ab2 7d5b 0000
000003b0: 059f 3b39 e804 52b9 8d40 0000 607d 0080
000003c0: a3e0 debb 7823 0000 6374 0080 6637 609c
000003d0: b86d fb37 8e46 0080 9f15 6fb9 b01b 07b8
000003e0: 6c85 0000 2356 aead e0ba f8b9 0279 c38d
000003f0: e50a 0080 ad3a 35ba 8c36 0080 eef2 5dbb

fc2.bias f4 [128]
0.02855184 0.012814563 0.12211372 -5.7734087e-07 0.12017652 0.058359142 0.044220295 0.08301226
0.008812258 -0.0020380828 -0.00244966 -0.02481401 0.026981851 0.012995413 0.05400837 -2.1023453e-08
-0.0009599841 -0.01608934 0.02269739 0.009915647 0.026901083 -0.026447685 -0.02696093 -0.014545839
-2.9539482e-08 0.083719075 0.03524153 -6.890843e-15 0.05308217 0.010809603 0.026548158 -0.025389215
-1.5475189e-05 -0.044016458 -2.0264839e-05 0.01747732 0.05943973 -8.626742e-12 -0.008996903 0.04696959
0.03456696 -0.0050714687 0.036149383 -0.0062250607 -0.013142231 0.0717622 0.07854049 0.053158037
0.045573782 -0.039961588 0.023724068 0.015771832 -0.005933321 0.060105246 0.06514367 0.0014903774
4.5112e-41 0.02526859 -0.0032592716 0.047390126 0.12104354 0.056533977 0.055132568 0.055874772
-0.0071799187 0.011563014 -1.1681838e-06 -0.047357783 0.037641704 0.0016961042 0.070862964 -0.021430142
-0.00014730112 -0.0009562596 0.059940245 0.064841256 0.014073048 -0.004751425 0.010398099 -0.002311899
0.053222977 0.045380443 0.048568364 -0.008361429 0.04477197 0.10917968 0.00935278 -0.012234355
-0.024956094 -0.00058057526 0.08713153 -0.0008373178 0.02979826 -1.0611892e-17 0.027105201 -0.00016799418
0.07363103 0.058969185 -0.007775865 -0.012112038 -0.06652408 0.012545539 0.012391267 0.06257568
-0.034991067 -0.019272335 0.023775507 -0.00042171753 -0.0051336773 -0.051415514 -0.05658673 -0.0027166074
0.008280652 0.039733395 0.01760238 0.044094086 0.10938933 -0.017731128 0.008032059 0.045322023
-0.004358535 0.10216439 0.041409213 0.05198134 0.011654821 0.00055495003 0.0784308 0.049082655
00000000: 8ce5 e93c 2cf4 513c c216 fa3d 90fa 1ab5
00000010: 1b1f f63d ff09 6f3d 5720 353d 5502 aa3d
00000020: 4a61 103c 5b91 05bb 7a8a 20bb c046 cbbc
00000030: 0b09 dd3c b6ea 543c e137 5d3d 1097 b4b2
00000040: 71a7 7bba cbcd 83bc e0ef b93c 3d75 223c
00000050: a95f dc3c d1a8 d8bc 2bdd dcbc ac51 6ebc
00000060: 02be fdb2 e874 ab3d 6c59 103d cf44 f8a7
00000070: b16c 593d c31a 313c 867b d93c 0bfd cfbc
00000080: b7d0 81b7 9a4a 34bd 69fe a9b7 992c 8f3c
00000090: 1377 733d 64c3 17ad bf67 13bc 2f63 403d
000000a0: 1696 0d3d 902e a6bb 6011 143d 98fb cbbb
000000b0: 8352 57bc 0ff8 923d d6d9 a03d 3ebc 593d
000000c0: 93ab 3a3d c3ae 23bd fa58 c23c ee33 813c
000000d0: 4e6c c2bb eb30 763d 0b6a 853d c458 c33a
000000e0: c17d 0000 1300 cf3c 8199 55bb 261c 423d
000000f0: ade5 f73d 2c90 673d b0d2 613d f2dc 643d
00000100: 8645 ebbb cc72 3d3c 7dca 9cb5 3cfa 41bd
00000110: 302e 1a3d d04f de3a 9a20 913d 448e afbc
00000120: d874 1ab9 7fad 7aba e783 753d 7ecb 843d
00000130: a492 663c d7b1 9bbb ca5c 2a3c 3b83 17bb
00000140: 5600 5a3d d8e0 393d 9fef 463d 60fe 08bc
00000150: d062 373d 9999 df3d 673c 193c 9b72 48bc
00000160: b970 ccbc bf31 18ba 0472 b23d 727f 5bba
00000170: 7b1b f43c 3ec1 43a3 ba0b de3c 9827 30b9
00000180: decb 963d ac89 713d afcc febb 9271 46bc
00000190: c73d 88bd ce8b 4d3c be04 4b3c ae27 803d
000001a0: cb52 0fbd 04e1 9dbc dac4 c23c f819 ddb9
000001b0: 6838 a8bb 1399 52bd 7dc7 67bd 1c09 32bb
000001c0: 92ab 073c 7cbf 223d de32 903c 009c 343d
000001d0: 8307 e03d df40 91bc e698 033c 96a3 393d
000001e0: 0bd2 8ebb 903b d13d b59c 293d 63ea 543d
000001f0: ddf3 3e3c 117a 113a 54a0 a03d e50a 493d
