saved_models/type2_split100_batchsize32_rng0_epoch40/modelbest.pth (torch, 705653 bytes, 16 tensors)

conv1.weight f4 [8, 1, 3, 3]
00000000: 8e2a b7bc 2cf8 163e 3656 96be a3fb 78be
00000010: 38a1 09be 1960 9f3d b04e 433d 4952 983e
00000020: 7f36 f8ba 76e7 5c3d 29fd e4bd 4386 b0bd
00000030: 39e8 88be d44a 46be f491 00be eca8 d53c
00000040: 632b 0a3e 5c29 483e 3ebb 6fbe c53e 23be
00000050: d7d1 de3d 0bd1 913e 6e5f 89bd ad4a 7f3e
00000060: e773 b6bc 9acc 703d f84b a33e 41bd 05be
00000070: aa8f 0fbd 88ed 003d f692 b83c faf6 513e
00000080: 5d82 cfbc 633b 9cbd e4ab f8bd 342c 43be
00000090: 77db 0ebe 2f2b af3e 4276 533e f9eb 3c3e
000000a0: 82c5 473d c485 09be 9fe1 7d3d e6c9 96be
000000b0: 5fb8 61be cadd 1cbe bd50 683e b6da 553e
000000c0: 2fb7 06be e77c a43b ec10 683e b3e8 b03e
000000d0: 8d07 183e 094b 6e3d a313 363e a6ae d8bd
000000e0: 4e7a 453d 6be1 38be 0968 24be 4787 e2bd
000000f0: cc7d ca3d 4939 993d 6b70 4ebe 8b2a db3d
00000100: 5472 473e 4a5e d2bc 8a65 883c 0020 b23d
00000110: 7919 5e3e c9f1 a23e 2dbb 73be bcc7 cbbd
-0.022359159 0.14743108 -0.2936265 -0.24314742 -0.13440406 0.07782001 0.047682464 0.2975028
-0.001893714 0.053931676 -0.11181099 -0.086193584 -0.26739672 -0.19364482 -0.12555677 0.026081525
0.13493113 0.19547027 -0.23411271 -0.15941913 0.108798675 0.284798 -0.06707655 0.2493083
-0.022272063 0.058788873 0.31893897 -0.13060476 -0.035049118 0.031476527 0.022531014 0.2050437
-0.025330717 -0.076285146 -0.121421605 -0.19059831 -0.13950907 0.34212634 0.2065058 0.18449391
0.048772343 -0.13429934 0.061982747 -0.2945091 -0.22042988 -0.15318981 0.22687049 0.20884213
-0.13155816 0.0050197723 0.22662705 0.34552535 0.1484663 0.058177028 0.17780928 -0.105801865
0.048212342 -0.1805474 -0.16055311 -0.11060958 0.09887275 0.074816294 -0.20160072 0.10701474
0.19477206 -0.025679726 0.01664998 0.0869751 0.21689405 0.31825092 -0.2380187 -0.09950206

conv1.bias f4 [8]
00000000: 1b95 da3d ab00 583e 22f3 ab3e 567f 043e
00000010: 2ec7 61bd 0337 c9be a0dd fcbb 4ffe a2be
0.10672971 0.21094005 0.33583933 0.129392 -0.055121593 -0.39299783 -0.0077168494 -0.31834647

conv2.weight f4 [16, 8, 3, 3]
00000000: 0705 890e af4d 450e 1e84 958b caad 1910
00000010: 0b9a 0000 3391 0000 f17e 0380 3a76 7706
00000020: 99c9 c900 4aa2 de87 e639 0000 33c8 0a85
00000030: 7daa 0b8a b8af 0080 a6bb 9610 8924 ba8a
00000040: dfe5 f606 9911 0200 f9be e1b9 c32a ceb9
00000050: 30de a0b9 edc9 ccb9 4e34 c2b9 41dc c0b9
00000060: 1a15 f4b9 5af4 97b9 3aa0 bcb9 1f69 a80a
00000070: 484e 0000 cb6c 0000 f40c 0000 3a8b f906
00000080: fea0 5488 d7cc f90c af38 0f8a d449 cb8c
00000090: a89b 1b88 f577 5588 fb8f 4d89 4653 0080
000000a0: 787d 0300 6d91 0080 12f0 9704 0f48 6183
000000b0: f978 b68f fcac 50b9 1ac2 4cb9 359d 71b9
000000c0: 4c34 25b9 c2c2 39b9 429b 2cb9 fb4e d1b8
000000d0: f9a2 cbb8 890f c9b8 6907 a288 6732 0000
000000e0: aaf6 0000 4d8a 0080 e3ba 0000 b385 1585
000000f0: 918e 0e0f ea29 ec04 bfea 310f 558c 59b7
00000100: e920 b5b7 926b aab7 0350 d5b6 bb75 f8b6
00000110: ae2f 1ab7 aa80 b1b6 2344 02b7 f57e f1b6
00000120: 7395 983a d5dd 943d 6dd6 713d 024f babd
00000130: 5a89 8a3d 7dc4 aabd aaff 93bd aa33 b1bd
00000140: 6005 83bd 5dd5 173d c465 59bd cfba a4bd
00000150: d246 813c c5d7 113c 1397 7abd 7e68 b2bc
00000160: 5fad 06be 9138 91bd c95b a83d a574 8dbd
00000170: 7890 a83d e9eb a73c 6dec 02be e62d 4c3d
00000180: d8b6 22bd f974 9fbd ceee 883d 9a30 39bd
00000190: 1aad 3fbd a845 4ebd c014 41bd 77af 51bd
000001a0: 78c6 5dbd 5f31 53bd 5358 64bd e508 5dbd
000001b0: b28c aebd 5cd2 243d d2e7 5e3d fb90 8b3d
000001c0: 5b2e 94bd b948 e8bb 3cf5 90bd 0573 69bd
000001d0: 1122 86bd 89dc 963d 8a63 0dbd 4684 f03c
000001e0: a8a8 293d ee81 e93d a6d4 58bd b679 4bbd
000001f0: 7171 09bd 049f ea3d 2579 30bd c3ef b2bb
00000200: 0a73 efbb 5a8e 1dbd 27d0 d8bc 0853 96bc
00000210: 714e 39bd 7383 21bd acc4 0cbd 57e1 3b3d
00000220: e9be 5fbd 9def c3bc 673b 043e 1e86 58bd
00000230: 396b 0c3d 507a 1b3e 37bb af3d 9306 473d
00000240: adb1 2bb0 4a42 5d31 a299 5c32 d333 2d31
00000250: a729 6732 99b5 1333 4775 4032 2cb2 3833
00000260: d5f8 9f33 a438 2f30 22f2 e230 2df8 9431
00000270: fd6e eb30 8618 cf31 7329 3d32 4fcc 7731
00000280: 6109 1d32 2fe4 bf32 3678 00bc c5c8 f7bb
00000290: 2765 f4bb 47fc 06bc 49db fbbb 5963 f2bb
000002a0: 2ce7 f1bb 39ab eabb 0a20 e8bb bded 64a1
000002b0: 4767 1d9d b1fb b316 aefc d8a0 1b42 3b1b
000002c0: c18b 3a1b 61f5 28a1 ab9e 311b 0855 0718
000002d0: 2b16 a7b7 7fa8 e5b5 3bce 6536 1382 94b7
000002e0: bcbc f135 376f 3437 0aa9 14b7 65a3 7437
000002f0: 559a 0b38 46e0 bfbb 3714 cabb a658 c2bb
00000300: f1e2 debb fe7f b1bb 98af b4bb 077b cfbb
00000310: b647 9dbb 6d62 9ebb ca34 919b dd93 4097
00000320: 547d 6714 acc5 021a 5cfa 7997 c3c5 3f96
00000330: f895 1899 398d 6516 64cc 4693 9ab9 c5bb
00000340: ab04 a7bb 6b90 acbb 4556 c8bb 9bc4 a4bb
00000350: 7284 99bb 3bbd a7bb f4b9 90bb 2700 8abb
00000360: 1963 f93d 1340 50bd 1fb4 4e3d 92de 02bc
00000370: e49a 2cbd e81e eb3b 2cc8 3fbd 21bf a23c
00000380: 3272 19bb 941f 3a3c 1628 823d 1926 383d
00000390: a4a1 b93d 4448 b43a eee0 e1bd 3688 9b3c
000003a0: c695 143d 536a 92bd 518b 353d ebd1 9c3d
000003b0: 5cf8 87bd d7c9 e4ba a5ed 343d 5879 ac3a
000003c0: 3320 043b 7ee4 ef3b e656 d3bd aac7 15bd
000003d0: 1bac 49bd c04f 5abd 36e1 39bd a06b 76bd
000003e0: a200 92bd 3d9d 43bd aa71 79bd 933e 9bbd
000003f0: c58b 0a3e f95f ba3d b4f2 6fbd 537d 9c3d
3.377795e-30 2.4319528e-30 -5.75915e-32 3.0307812e-29 5.526e-41 5.2088e-41 -3.21044e-40 4.6542396e-35
1.8531254e-38 -3.3498232e-34 2.077e-41 -6.5254996e-36 -6.724672e-33 -6.3036e-41 5.9453686e-29 -1.7924891e-32
9.287268e-35 1.89984e-40 -0.0004305763 -0.00039323242 -0.0003068312 -0.00039060359 -0.00037041534 -0.00036785196
-0.00046555029 -0.0002898302 -0.00035977532 1.6217354e-32 2.8082e-41 3.9028e-41 4.647e-42 9.3867965e-35
-6.3985675e-34 3.8487808e-31 -6.8958606e-33 -3.1321536e-31 -4.682659e-34 -6.4238365e-34 -2.4743677e-33 -2.9873e-41
3.20516e-40 -5.2169e-41 3.57204e-36 -6.6204276e-37 -1.7993183e-29 -0.00019900867 -0.00019527265 -0.00023042115
-0.00015755108 -0.00017715528 -0.00016461036 -9.980608e-05 -9.71015e-05 -9.5873205e-05 -9.7517625e-34 1.8081e-41
8.8486e-41 -4.9613e-41 6.7042e-41 -7.030503e-36 7.028598e-30 5.5521825e-36 8.771984e-30 -1.29668815e-05
-2.1592206e-05 -2.031567e-05 -6.3572093e-06 -7.4046816e-06 -9.190217e-06 -5.2899895e-06 -7.764468e-06 -7.1971394e-06
0.0011641219 0.072688736 0.059042383 -0.09097101 0.06764479 -0.083382584 -0.072264984 -0.08652432
-0.063975096 0.037068713 -0.053075567 -0.080434434 0.01578084 0.008901541 -0.06117923 -0.021778341
-0.13152073 -0.07090867 0.08220632 -0.06907014 0.0823068 0.020498233 -0.12785502 0.04984846
-0.039725155 -0.07785983 0.066861734 -0.045212366 -0.046795942 -0.050359398 -0.04713893 -0.051192727
-0.054144353 -0.051560756 -0.055748295 -0.05396356 -0.08522929 0.040239677 0.0544203 0.06814762
-0.07235404 -0.0070887473 -0.07078025 -0.056994457 -0.065494664 0.073662825 -0.034518756 0.029359948
0.04142061 0.11401735 -0.052937172 -0.04967662 -0.03355545 0.11456111 -0.043084282 -0.0054607107
-0.007307415 -0.038465835 -0.026466442 -0.01835014 -0.045240823 -0.039432 -0.03436725 0.045869198
-0.054625425 -0.023917967 0.12913285 -0.05286228 0.034281943 0.15183377 0.0858063 0.048590254
-6.246193e-10 3.2197414e-09 1.28406175e-08 2.5204272e-09 1.345544e-08 3.4391267e-08 1.1202537e-08 4.3002885e-08
7.449277e-08 6.374512e-10 1.6512482e-09 4.3355812e-09 1.7130045e-09 6.027281e-09 1.1010672e-08 3.6059367e-09
9.140735e-09 2.2339092e-08 -0.0078411605 -0.0075617754 -0.0074583474 -0.008238859 -0.007686053 -0.007397097
-0.007382294 -0.0071615246 -0.0070838975 -7.756405e-19 -2.083217e-21 2.907785e-25 -3.6759033e-19 1.5489637e-22
1.5430716e-22 -5.724537e-19 1.4692365e-22 1.749127e-24 -1.9918274e-05 -1.7110868e-06 3.42437e-06 -1.7703545e-05
1.8010828e-06 1.075473e-05 -8.860845e-06 1.4581577e-05 3.3283915e-05 -0.005855593 -0.0061669606 -0.005930978
-0.006801956 -0.005416869 -0.0055140965 -0.0063318047 -0.0047998084 -0.0048335106 -2.4022352e-22 -6.2225176e-25
1.1687236e-26 2.7043048e-23 -8.0772237e-25 -1.549126e-25 -7.888502e-24 1.8543035e-25 -2.5091886e-27 -0.0060340883
-0.005096992 -0.0052662394 -0.0061137998 -0.00502832 -0.004684978 -0.0051189936 -0.0044166986 -0.004211444
0.121771045 -0.050842356 0.050464746 -0.007987635 -0.042139903 0.007175315 -0.04682176 0.019866528
-0.0023414013 0.011360068 0.06355302 0.044958208 0.09064034 0.0013754447 -0.1102923 0.018985849
0.036275648 -0.07149186 0.044322316 0.07657226 -0.06639168 -0.0017455172 0.044171948 0.0013158722
0.0020160794 0.0073209396 -0.10319309 -0.036567368 -0.0492364 -0.05329871 -0.045380794 -0.060161233
-0.07129027 -0.047757376 -0.060899414 -0.075802945 0.1352988 0.091003366 -0.05858107 0.07641091

conv2.bias f4 [16]
00000000: a12b 01ba bf60 dcbd 21cc 0ebc e4b8 24be
00000010: beef 3d3c 1238 0dbb 19e9 843c 4527 43be
00000020: 66f2 2bbe 1375 00bd 84a5 eabc 82dc 51bd
00000030: 2b7b 4bba 96c7 5dbe f3c4 0dbe ce9c d03b
-0.00049274607 -0.1076064 -0.00871566 -0.16086155 0.0115928035 -0.0021548313 0.01622443 -0.19057949
-0.16791686 -0.03136165 -0.028643377 -0.051235683 -0.0007762189 -0.21658167 -0.13844661 0.006366349

conv3.weight f4 [8, 16, 3, 3]
00000000: 2e27 5411 3fac a80f caa3 c690 3165 1111
00000010: e9b5 a88f ccd1 f110 4a27 ae0e 6946 d18e
00000020: 3807 2f10 3391 debc 55d0 bf3d 85b3 ce3d
00000030: 8c13 32bc 74e9 843d 7fab ef3d a66a c23c
00000040: b830 d53d 226d da3d 9f0d 72bb 315b 47bb
00000050: b2a6 23bb 5251 54bb 8dbf 3cbb 4978 0fbb
00000060: 4311 33bb af89 1fbb 1056 f0ba 4dee 9fbc
00000070: 5cee 8b3d 13c2 be3c 9752 9b3d e1d0 8b3d
00000080: edb0 5dbd 49ce 0f3d 141e 483d b3e4 613d
00000090: 20f3 b23a a3f2 f0b9 c24f dab9 ee79 bb3b
000000a0: 4f1f 3b3b 60ec 0db9 584b ab3b 8ffb d53b
000000b0: 1ad6 053b 6bee 84b6 0c8a 96ba 1b52 9dba
000000c0: c093 db37 56fa 8039 9665 c639 322b 21b8
000000d0: 4fd9 82bb 190f 80bb 6c7b 07bd 6a73 06bd
000000e0: bd65 28bd 859e 61bd 3350 b8bd af77 d8bd
000000f0: a0fe 58bc e09c 1dbc 34ee 993c 004a c1bd
00000100: be14 00be db33 46be 97db 15bd 0f17 4ebd
00000110: 2692 2cbe 3093 89bd 9bfb 5cbb bf9b 2bbd
00000120: 39b8 a23c f85f ed3c a122 c2bb c1a3 89bc
00000130: 3750 38bd bcd4 a23d 7d42 383d 1e65 8d3c
00000140: 1816 b83c 2ba8 26bc 048a 2c3b ef62 47bd
00000150: 9436 c13d 5dc5 6e3d 8a27 adbc afc8 733c
00000160: ec15 8e3d 2d1a c0ba 44a8 1b3d e268 f93c
00000170: ee15 4bbd d4e9 483d ed8a d63c af58 b83d
00000180: 150f 833c cf5a 9d3c e9f0 e03d 08af c1ba
00000190: 8312 c8ba 58a5 833a 6682 f6b9 a586 273b
000001a0: dbc2 253b 21a3 af3a 7911 e13a b2a8 653b
000001b0: 4c86 6835 8a66 abb5 9081 ff36 8b3e beb5
000001c0: 16c1 d834 50a4 c036 8254 86b8 1600 78b8
000001d0: 464d 65b8 3a94 09bd 6cb3 89bd 4463 1fbe
000001e0: 84c0 e1bd 7dce 32bc 2030 0bbe fc8f dc3c
000001f0: 6ac7 f3bd a7e6 8dbd 9009 50bc 8e71 15bd
00000200: 7df1 62bd 6516 5b3c b8e6 ebbb f790 89bc
00000210: 8239 6c3d 4b61 883c 28d2 283c 6f5d 83ba
00000220: afab 97ba 8e3d 9aba 0fa3 86ba 9c9f 9eba
00000230: 7c7f a3ba da84 85ba d721 9dba 7af4 a7ba
00000240: 2d22 5729 9daf 5a29 2e0a 3529 594d 1428
00000250: 0870 4027 599e 5227 89d1 e224 4dc1 87a1
00000260: 6d2f 73a2 19c2 10bd eabb 4ebd 956b 513d
00000270: 9655 203d 178b eb3c aae7 973d cdaf 82bc
00000280: 09f4 473d b0d6 eabc 1e06 b63b 8f02 9e3b
00000290: e3a3 8a3b beef b23b de0d 9d3b 73d1 893b
000002a0: b720 af3b f965 993b d5ae 883b f6d7 9c3d
000002b0: 966c 7d3d c024 19bc 7c0c e13c e2a7 ca3c
000002c0: ea9a d2bc b5a3 923d cdde f33d 0de6 b43d
000002d0: 74ad 26ba 0b76 7bbb daf0 23bb 1910 5f3a
000002e0: d18e a23b 7272 85ba df13 89ba 7856 37bb
000002f0: a780 0fb8 9bb0 19bb 5b73 31bb d703 d53b
00000300: 0526 aaba fe03 923a f00d 823a 97df 52bb
00000310: dcc0 95b9 0513 213b c305 6ebe 8d88 65be
00000320: a2ef 6abe 59a2 76be 82db 51be 0d95 55be
00000330: f750 6fbe 773f 74be 5221 60be 0b89 aa3d
00000340: efa7 073e 4d91 fd3d 3bf0 0d3e 955a 303e
00000350: 756b ef3d add7 193e 4061 0e3e 7855 9f3d
00000360: dc8d 0c3d f457 aabc c957 be3d b5ab be3d
00000370: f0ab 023e 20c9 923c a0dc 543d 20c8 853d
00000380: 3499 003e fe6b cb3d 9c8f 9fbc 4bda 53bd
00000390: 1d21 2bbd 4152 0cbc 7b24 bc3d b84d 6b3d
000003a0: 40f6 dc3d 973c aa3d a219 233d 0b17 60bc
000003b0: 26b2 e83d f197 d93d cd6f 983d 24fe 4fbc
000003c0: 6d87 d43d ff65 363d 2b4f ae3d 3c02 a63a
000003d0: 23dd 033b c2b4 02bc bcd9 4aba 4c8d 8d3b
000003e0: b4c5 62ba ea94 fcba 3a79 ce3b a569 35ba
000003f0: 0015 4f3a 83d3 34ba 3b97 ae39 b80c 63b9
1.6735924e-28 1.6632426e-29 -7.8349587e-29 1.1469665e-28 -1.6636148e-29 9.538098e-29 4.2932146e-30 -5.159028e-30
3.4518226e-29 -0.027168846 0.09365908 0.100928344 -0.010868918 0.0648984 0.11702632 0.023732495
0.10409683 0.10665347 -0.0036934388 -0.0030419345 -0.0024971184 -0.0032397103 -0.0028800697 -0.0021891764
-0.0027323521 -0.002434354 -0.0018336195 -0.01952281 0.06832573 0.023285901 0.07584112 0.0682695
-0.054123808 0.03510884 0.04885681 0.055149745 0.0013652779 -0.00045957146 -0.00041639624 0.0057213223
0.0028552597 -0.00013534864 0.0052274875 0.0065302323 0.0020421804 -3.961662e-06 -0.0011485233 -0.0012002619
2.6175636e-05 0.00024600577 0.0003784119 -3.842562e-05 -0.0039931904 -0.00390805 -0.03307669 -0.03282491
-0.04111265 -0.055082817 -0.08999672 -0.10569703 -0.013244301 -0.009619921 0.018790342 -0.094379425
-0.12507913 -0.19355719 -0.03658637 -0.05031496 -0.16852626 -0.06717527 -0.0033719304 -0.041896578
0.019863235 0.028976426 -0.0059245382 -0.016801717 -0.044998374 0.07950732 0.044985283 0.01726013
0.022471473 -0.01017193 0.002632738 -0.048678335 0.09434238 0.05829369 -0.021137018 0.01487939
0.06937775 -0.0014656238 0.038002267 0.03044552 -0.04958146 0.04905112 0.026189292 0.0900129
0.015998403 0.01920834 0.1098345 -0.0014776895 -0.0015264306 0.0010043783 -0.0004701793 0.0025562432
0.0025293145 0.0013400057 0.0017171345 0.0035043177 8.662216e-07 -1.2770336e-06 7.6146753e-06 -1.4174306e-06
4.0373624e-07 5.7411744e-06 -6.405359e-05 -5.9127888e-05 -5.466982e-05 -0.033588625 -0.06723675 -0.1556521
-0.110230476 -0.010913488 -0.13592577 0.026924126 -0.119032696 -0.06928759 -0.012697592 -0.036485247
-0.055406082 0.0133720385 -0.0071991347 -0.016792757 0.05767203 0.016647955 0.010304011 -0.0010022352
-0.0011571551 -0.0011767612 -0.0010271984 -0.0012102011 -0.0012473906 -0.0010186688 -0.0011988234 -0.0012813949
4.7769233e-14 4.8558044e-14 4.0198903e-14 8.2324225e-15 2.6706085e-15 2.9229195e-15 9.836684e-17 -9.199122e-19
-3.2957748e-18 -0.035341356 -0.050472178 0.05112799 0.03914412 0.028752847 0.07417233 -0.015952969
0.048816714 -0.028666824 0.0055549284 0.0048220824 0.0042309626 0.0054607084 0.004792913 0.0042058765
0.005344476 0.0046813455 0.004171232 0.07658379 0.061871134 -0.009347141 0.027471773 0.024738256
-0.025708634 0.07160131 0.1190773 0.08832941 -0.0006358244 -0.003836992 -0.0025015385 0.00085091736
0.0049608727 -0.0010181202 -0.0010458193 -0.0027975123 -3.4213674e-05 -0.0023451212 -0.0027076814 0.006500702
-0.0012981301 0.0011140106 0.0009922367 -0.0032176727 -0.00028563186 0.0024577987 -0.23244385 -0.22415371
-0.22942975 -0.24085368 -0.20493892 -0.2085764 -0.2337073 -0.23852335 -0.2188771 0.0832692
0.13247655 0.123812295 0.13861172 0.17222054 0.11690418 0.1502368 0.13904285 0.07779974
0.034314975 -0.020793892 0.092940874 0.09310094 0.12760901 0.01791817 0.051968217 0.065323114
0.12558442 0.09932707 -0.019477658 -0.051721852 -0.041779626 -0.008564533 0.091866456 0.057447165
0.10789156 0.08312338 0.039819367 -0.013677369 0.11362104 0.10624684 0.07443199 -0.012694869
0.10377393 0.044530865 0.08511194 0.0012665461 0.0020120821 -0.007977666 -0.00077381334 0.0043198224
-0.0008650676 -0.0019270454 0.0063010724 -0.00069203443 0.00078995526 -0.0006897973 0.00033300542 -0.00021653145

conv3.bias f4 [8]
00000000: 1c08 013e c6a9 43bd 4c3b 56b1 cf9c 3cbb
00000010: b6ae 80bd 29f5 1dbd c23b 7ebb 9e97 9dbc
0.1260075 -0.04776933 -3.1174805e-09 -0.0028779989 -0.062833235 -0.03856388 -0.0038792943 -0.019237336

conv4.weight f4 [4, 8, 3, 3]
00000000: 6786 acbd a8b3 03bd 5ec4 b5bd 2495 8d3d
00000010: 1ac0 acbc 91c7 6abd 26ad 543c 95a8 d9bd
00000020: 15da 8fbd 6ecc 8e3c 862b 99bd ec30 da3c
00000030: 6099 afbb e633 99bd f6e2 adbd 0da7 3a3c
00000040: b97f bf3c 056a dcbc 2484 9d8d 02c3 220e
00000050: 5523 bf83 0d70 0000 23f8 5c00 6aa4 3203
00000060: 2420 0080 b534 af8e 02f4 1693 ecf2 8e3c
00000070: 2c8c 9d3c 755d 1abc c786 2bbc 7e2d b8bb
00000080: ffb7 653b 1e41 e23b 1356 a8bb c3f9 88bc
00000090: eff9 8fbd 064c 863d 8afb fcbc d578 b6bc
000000a0: 5842 77bd 0575 4bbd 4a53 cb3b 936c b43c
000000b0: 1078 2abd de93 12bd d365 3d3d dbc0 38bd
000000c0: 3a2b 81bd 9834 b5bc 5f55 643d e434 953b
000000d0: c8a5 a3ba 6011 9dbc a97f 7006 d328 7200
000000e0: 5c75 ee87 95b0 0080 1cd9 0000 3e57 0080
000000f0: 73cf 1d05 86f9 e009 2e0d bb80 960e e88a
00000100: 7ab5 6f0e 2832 0000 4528 8607 fc3d 1c81
00000110: 5a16 908e df4c b682 b5e8 a90e f2b9 0180
00000120: b9dd 13b8 08ad 27b8 ebc2 1db8 cf27 e4b7
00000130: 4d71 e6b7 a5c1 d8b7 5c4a 8db7 21fd b5b8
00000140: 80b3 d1b8 aeac 7bb6 4efc 14b9 b4f1 8ab9
00000150: 156a dbb8 12f6 d33a 1e52 15bc e631 a2ba
00000160: 496d 203b 0381 823c 8740 6f88 a831 0080
00000170: 9e09 0000 b414 a285 32e4 2708 db1c cb88
00000180: ea8e 0080 4e8b c605 ca0c 0000 8684 8434
00000190: 847d 14b7 4d1e d6b7 0814 0ab7 81ea 8cb9
000001a0: 542c efb9 6234 d4b9 363a 9ebb 7990 b7bb
000001b0: e2b9 14b7 031c 66b9 9f3b d4b9 0da8 13b9
000001c0: bb86 00bb 38ff 89ba a900 75bb fd33 aabc
000001d0: f9fe 4f3b 878d 4fb6 4abd 77b8 a286 b3b9
000001e0: c877 88b8 e595 5dba 6eb6 43ba d936 d7ba
000001f0: 57da a0bb eaae 833a a136 498c 5540 9b89
00000200: 21ed 5700 ad71 0080 b962 0080 ddb5 4207
00000210: 4d2b 838c 2d04 718d b797 a788 c988 0000
00000220: 5a0b 9005 c8b8 f10c 2165 0080 7cf2 5005
00000230: 6c57 0500 da27 0000 ede2 0080 b426 0380
00000240: ee71 a5bc 4d5e 29bc ff93 be3b b788 003b
00000250: 421a e2bc eca8 44bc b67e fdbb 5975 64bc
00000260: 6150 91bc 0b58 a7bb 9498 4b3a 8645 72bc
00000270: bcab 98bb a061 78b9 fcde 05bd be87 b6bb
00000280: 436c d53c 58fd 49bd 6130 0000 6778 0603
00000290: 7323 e00c 1889 ad07 5c3b 3002 afbc a981
000002a0: 3f04 1a0d 715f 0983 55b4 278e 81ad cdba
000002b0: 2eaf 9fbb 152f 9fba 232a feba 7dba 03bb
000002c0: 4a19 28bc 8822 ba3b f160 013d 5cfc a33c
000002d0: b5a5 ccbb cce1 733b 4c53 53b9 2aa6 71bb
000002e0: 62fb 0bbd 7ec6 f6bc 408a 3cbd ce08 033d
000002f0: ad3f 603d 062a bcba 8d62 5fbb 18b4 b4bb
00000300: 9d01 363b dc56 9dbc fa94 adbc 2bdc 06bd
00000310: 0b91 5cbc bf73 f6bb 4187 0080 f8ae 4788
00000320: b986 0000 8920 840b b839 b60b c538 0000
00000330: bbb4 a20f c958 0000 e877 8a0e f07a c405
00000340: ce51 0000 f092 668f 8921 3b09 dcf6 d48b
00000350: 7343 9881 073b 0000 ffe5 7280 371e 0080
00000360: 369b f3bc 34f5 05be 7dff 723d 9851 01be
00000370: cba5 5abd 4e30 fcbc 3ae5 8cbd 1186 a5bd
00000380: 9ec5 13be 84f2 913d 7557 883d 861e 2d3e
00000390: c227 df3c 09c0 323e d484 903d 817e 5b3c
000003a0: 63f9 5e3d af73 4a3d 42c8 d71e 03e3 9eb0
000003b0: 75bc 26b4 cc59 2c37 b4c4 8ab8 16f9 01b9
000003c0: 9a5c 3eb2 8345 4db4 7cf4 a0b5 5928 fa3d
000003d0: e17d 423e eaa5 32bd a143 cd3d bda3 9e3d
000003e0: be9d 1f3d 2879 903c 6457 1d3e 74a5 2b3e
000003f0: adce ccbc 3ce3 183e 1076 1d3e cff8 b93d
-0.08424073 -0.032153755 -0.08875345 0.06913212 -0.021087695 -0.057319228 0.012980735 -0.106278576
-0.07024018 0.017431464 -0.074790046 0.026634656 -0.00535886 -0.07480602 -0.08490555 0.011392367
0.023376333 -0.026906023 -9.707684e-31 2.0061935e-30 -1.1234083e-36 4.0196e-41 8.53788e-39 5.2498237e-37
-1.153e-41 -4.3191586e-30 -1.9052967e-27 0.017449819 0.019231878 -0.009421696 -0.010469145 -0.0056206575
0.0035052297 0.006904735 -0.005137214 -0.016720658 -0.07030093 0.06557469 -0.030881662 -0.022274414
-0.060366005 -0.049672145 0.006204997 0.022024428 -0.041618407 -0.03578555 0.046239685 -0.045105796
-0.06307073 -0.022119805 0.05574548 0.004553424 -0.001248532 -0.019173324 4.5232773e-35 1.0483892e-38
-3.5879238e-34 -6.3346e-41 7.7884e-41 -3.1297e-41 7.420207e-36 5.416069e-33 -1.7177966e-38 -2.2346274e-32
2.9546402e-30 1.7993e-41 2.0185747e-34 -2.8697146e-38 -3.5520265e-30 -2.6786618e-37 4.1885805e-30 -1.5854e-40
-3.5254026e-05 -3.997705e-05 -3.761325e-05 -2.7198255e-05 -2.7470896e-05 -2.583938e-05 -1.6843136e-05 -8.6779015e-05
-9.999331e-05 -3.7502427e-06 -0.0001420837 -0.00026501494 -0.00010462493 0.0016171357 -0.009113817 -0.001237449
0.0024479202 0.015930658 -7.19973e-34 -1.7813e-41 3.45e-42 -1.5242012e-35 5.0522977e-34 -1.2224402e-33
-5.1268e-41 1.8671003e-35 4.588e-42 2.468334e-07 -8.850711e-06 -2.5524898e-05 -8.230105e-06 -0.000268776
-0.0004561866 -0.0004047482 -0.0048287166 -0.0056019393 -8.864767e-06 -0.00021944944 -0.00040480212 -0.00014081616
-0.0019611556 -0.0010528332 -0.0037384427 -0.020776743 0.003173767 -3.0927783e-06 -5.906568e-05 -0.0003424185
-6.507296e-05 -0.0008452817 -0.0007465844 -0.0016419544 -0.0049088406 0.0010046635 -1.5500916e-31 -3.737539e-33
8.074754e-39 -4.0779e-41 -3.5415e-41 1.4648383e-34 -2.0209807e-31 -7.4268885e-31 -1.0086615e-33 4.9069e-41
1.3545865e-35 3.724314e-31 -3.6278e-41 9.82465e-36 4.90539e-40 1.4296e-41 -8.1406e-41 -2.8939e-40
-0.020195927 -0.010337424 0.0058159824 0.0019612738 -0.027600411 -0.012003165 -0.0077360524 -0.0139439935
-0.017738523 -0.005106931 0.00077665714 -0.0147870835 -0.004659144 -0.00023687491 -0.032683358 -0.005570381
0.0260526 -0.049313873 1.7355e-41 3.9517276e-37 3.4534e-31 2.6110723e-34 1.2947473e-37 -6.2351543e-38
4.7460025e-31 -4.0370243e-37 -2.0671166e-30 -0.0015691967 -0.004873178 -0.0012144769 -0.001939122 -0.002010017
-0.010259936 0.005680386 0.03158659 0.020017795 -0.0062453398 0.0037213443 -0.00020153559 -0.0036872723
-0.034175284 -0.030123945 -0.046030283 0.03199082 0.054748226 -0.0014355786 -0.003408584 -0.005514633
0.0027771958 -0.019206457 -0.021189202 -0.032924812 -0.013462315 -0.007521122 -4.852e-41 -6.009006e-34
4.833e-41 5.0893504e-32 7.0190695e-32 2.0365e-41 1.6044048e-29 3.185e-41 3.4135092e-30 1.8476912e-35
2.9346e-41 -1.1368175e-29 2.2525074e-33 -8.203086e-32 -5.5932767e-38 2.1175e-41 -1.0551754e-38 -1.0839e-41
-0.029737096 -0.13081819 0.059325684 -0.12628782 -0.05338077 -0.030784752 -0.06879659 -0.08082212
-0.14430854 0.07126334 0.06657306 0.16906175 0.027240638 0.17456068 0.07056585 0.01339686
0.054437052 0.04942673 2.2846835e-20 -1.1560534e-09 -1.5528515e-07 1.0272906e-05 -6.6169916e-05 -0.0001239519
-1.1080511e-08 -1.9117401e-07 -1.1992083e-06 0.12214727 0.18993331 -0.04361526 0.10022665 0.07746074
0.038968794 0.017635897 0.15365368 0.16762334 -0.025000894 0.14930433 0.15377069 0.090806596

conv4.bias f4 [4]
00000000: 5c96 8f3d b4f3 44b9 31d9 543c ecf3 333d
0.07011101 -0.00018782803 0.012991236 0.043933794

conv5.weight f4 [2, 4, 3, 3]
00000000: 5078 79aa 3297 b4a8 d3a1 eca8 366f 1d2c
00000010: 3747 1a2b 1530 45a8 4bff 72a6 4231 3b2c
00000020: 1bc5 822b fa67 07a4 cf3a 00a1 e681 7191
00000030: f5d2 9626 c4f4 441d e32f 9598 22a3 ae27
00000040: 912d 1ca3 e222 4813 9a07 8ba4 d273 5d29
00000050: 19d2 8327 f93d 532b de43 4317 410a 812a
00000060: 1e87 cd19 029b 4598 1031 919b e5d5 aabc
00000070: 0e6c a0bc 657c acbc 8fff bebc c068 bebc
00000080: 1ed2 bebc 1338 aebc bd67 a7bc 0cdf abbc
00000090: 22bd b2bd f70e cdbd 9366 0c3e 913d f03d
000000a0: ef3a 063d 30b1 c0bd e501 1fbb cc03 cbbd
000000b0: 32af 903d f5ec 1db9 9072 85b7 4e8e 8037
000000c0: 5031 373a 0ed3 5e3a 2179 4837 db17 c8b8
000000d0: 8361 c3b8 0767 4c37 e292 92bd 616b ea3d
000000e0: 0e82 32bd a5d9 8c3d 5697 60bd 6d16 e63a
000000f0: 27ab 353d 61d2 b7bd 3702 4c3d e3ff 01be
00000100: 0574 7f3d 3d7c f9bb 70ca eb3d 28de 803e
00000110: 3e47 c23d 33bb 3d3c 4be0 353c e90b fd3d
-2.2157384e-13 -2.0049585e-14 -2.6271443e-14 2.2372776e-12 5.481062e-13 -1.0946123e-14 -8.4306603e-16 2.6601642e-12
9.291763e-13 -2.936153e-17 -4.344592e-19 -1.9051576e-28 1.0465521e-15 2.6066925e-21 -3.856395e-24 4.847157e-15
-8.466426e-18 2.5260748e-27 -6.029452e-17 4.9172316e-14 3.6587592e-15 7.5048263e-13 6.309356e-25 2.2922118e-13
2.1251077e-23 -2.5539912e-24 -2.4019944e-22 -0.020853946 -0.019582774 -0.02105541 -0.02331522 -0.023243308
-0.023293551 -0.021266973 -0.020435208 -0.02098038 -0.087274805 -0.1001262 0.13711004 0.11730493
0.032771047 -0.09408796 -0.0024262604 -0.099128336 0.07064666 -0.0001506096 -1.5908183e-05 1.5325055e-05
0.0006988244 0.00085000775 1.19491315e-05 -9.5411866e-05 -9.3164876e-05 1.21833355e-05 -0.07156922 0.11446262
-0.04358106 0.0687745 -0.054831825 0.0017554291 0.044352677 -0.089756735 0.0498068 -0.1269527
0.062366504 -0.0076136873 0.11513221 0.25169492 0.094862446 0.011580276 0.011100839 0.12355787

conv5.bias f4 [2]
00000000: e35e acbc 803c 7b3d
-0.02104134 0.061336994

fc1.weight f4 [256, 512]
00000000: c46a f69a 20ae 509a 3f90 669d b49e 3b9b
00000010: d37e c399 0dc7 c59b 5b64 c01d 9e3c 309d
00000020: 6d87 d39b b20b c09b bd18 e39b 337b 041b
00000030: 522d 929b 0d1b 6599 21ed 7b99 f186 729a
00000040: c145 c018 b765 2699 0594 2b19 a35c e71d
00000050: 80b8 229b c1d3 129f d7d4 4d9b 6324 d09a
00000060: b9a7 9a22 2630 2a99 7e5b 091a 8571 6119
00000070: 02f5 8098 c6e9 c59d 440d d49a 0351 d4a1
00000080: ad89 d119 f9d1 0c9a 45bc 8418 5b4f 619a
00000090: 706a c49d 1e52 9a27 3ee8 8d24 e297 2898
000000a0: 0b36 2e99 b039 501a e038 aca7 151f ff9a
000000b0: e0d8 fe19 182b f528 d6f1 9b30 641d 7fae
000000c0: 6591 18aa 6cff 1ead 39ab 8daf 7ff5 82ad
000000d0: d157 d5a8 a7a6 33a4 8876 e5ad 7ca7 672c
000000e0: 7b3e a2a8 cc6b 35ad 3916 19b5 23c2 0eb4
000000f0: 9e9e 12ac b562 9e1a ceed e928 dd7a 3a9b
00000100: ff5a 7d23 ebcc f1a7 497a d22a e6ae 9d2c
00000110: 7ea1 8ea9 b242 0624 9e90 919f 3ad6 65a1
00000120: 94e5 62a1 2cc4 c4a1 77e0 4023 d66e 5224
00000130: a88d 28a2 5c02 971e 6854 5da1 72a0 d39f
00000140: 10c8 9f9b 5849 57a0 99f7 dea0 dd8c 0ba2
00000150: 4e06 82a0 ca2e 26a2 65b6 aca1 9119 03a2
00000160: 7055 3b9c fb56 40a0 626a 8d9f 141f 15a1
00000170: b2df 04a2 8735 2724 ef26 57a1 d78e 5ba1
00000180: d9b4 999d e63e a61e 26b5 b222 3ecf b81e
00000190: a115 549f f3e0 e621 d241 361e 227e 879d
000001a0: 48b2 a39b 89ac 4ea0 b170 b61e 7ce7 b11e
000001b0: 7b7d 819e c6c9 9d1d 8f55 869d 8416 2ea0
000001c0: 4c99 a89a 5e63 b51e 03da c021 e83f 6a21
000001d0: 97c4 361c 372f b89d 0dfd 8e9d e1e9 8f9d
000001e0: d53c 439b dffc 21a1 6e43 831e 167d b0a1
000001f0: ff22 daa1 2656 c6a0 a137 65a0 f438 af1d
00000200: 122c 1a1e 8d6a 0fa2 94b0 fea0 a849 59a1
00000210: f41d 22a0 3c79 1aa2 4840 569f 1280 9d9d
00000220: d2da 7c9d 486f 5122 8df7 2fa2 72bc a523
00000230: 2bcc cf1d 2165 b7a1 e347 7b22 fa57 321f
00000240: 9267 74a0 587a 47a1 3736 c0a1 3df3 9f9e
00000250: 4029 0c23 7d4b 9ba0 7f84 c21e 48e9 cda0
00000260: ca88 bd9d 4470 0a24 7092 07a2 a98b a51e
00000270: cea2 b09e e82b 0222 461b 1fa2 9046 9c1e
00000280: 65b8 b79d f900 dc20 3d1a 87a1 a0b5 9da0
00000290: 5695 3ea1 ede8 881e 29d8 8ea1 84d2 871e
000002a0: 4b39 569c b122 b51e bb24 379e 1a71 f8a1
000002b0: a5d4 d622 941a 6d9e 6536 979d 66d0 8a1d
000002c0: 2242 591b e58b a99f b461 2fa2 cfbf b722
000002d0: 7f62 5a23 bb97 e5a1 d898 c71e 9e3e 9e1e
000002e0: 5af9 3ba0 e3fc 3ca5 75e8 fa23 fbc8 1fa2
000002f0: 9b44 2d9f de65 1c24 d4b2 22a0 a6f1 8da1
00000300: 46a8 c29f d82f 24a0 6ed8 72a1 773a f91d
00000310: 75bf eda1 d1ad 42a1 e635 1222 a8e8 5e1e
00000320: 255c a49d dc3b d39f cb10 d5a1 4029 0ba0
00000330: d630 889f 3b17 8ca1 3a66 b1a1 cbbc 1d1d
00000340: 76ab 349c c078 9022 8ae0 a023 317f 3b1e
00000350: fdb5 7d1e 446c bc1e b2fa 6018 c25b 131e
00000360: 64c2 fd9c 975f bd1e 8cfe 951e c87a eaa1
00000370: b126 57a0 59eb c2a1 d77e f39b 0fd2 6b9c
00000380: 07dd b19d ca49 84a1 4d93 471e eeb8 a61e
00000390: 1137 d99e a234 aaa1 ddcd 3ea0 b6cd 2021
000003a0: 6330 7c9d 6453 831e 3f11 8e23 4693 1e1e
000003b0: 5d8f de9e c634 ac9c 0790 851e 1a49 759d
000003c0: e473 09a0 00c0 1f1e 1b6b dca1 4f90 da9b
000003d0: f5d6 dc9b 67ab eba1 7adf ee9b 512b b39b
000003e0: c503 e79b 5e9c f09b 1c66 589b 912c 219b
000003f0: 5843 821e d4b4 009c fb54 fc9b f936 cb9b
-1.01915705e-22 -4.315405e-23 -3.051482e-21 -1.5519557e-22 -2.0213751e-23 -3.271955e-22 5.092574e-21 -2.3324744e-21
-3.4994539e-22 -3.1771293e-22 -3.7569987e-22 1.0958592e-22 -2.4182961e-22 -1.1844485e-23 -1.3024284e-23 -5.0153432e-23
4.970127e-24 -8.60254e-24 8.870385e-24 6.1240975e-21 -1.3459941e-22 -3.109186e-20 -1.7025975e-22 -8.608557e-23
4.1919367e-18 -8.7985175e-24 2.8404843e-23 1.16551525e-23 -3.333462e-24 -5.238718e-21 -8.7702577e-23 -1.4387122e-18
2.16657e-23 -2.9120936e-23 3.4311304e-24 -4.6593012e-23 -5.199082e-21 4.283262e-15 6.1542436e-17 -2.1790172e-24
-9.006503e-24 4.305999e-23 -4.7801254e-15 -1.05515744e-22 2.635058e-23 2.7219153e-14 1.1346468e-09 -5.800639e-11
-1.3550756e-13 -9.037975e-12 -2.5769412e-10 -1.4888311e-11 -2.3685835e-14 -3.8955598e-17 -2.6086924e-11 3.2920047e-12
-1.801271e-14 -1.03125945e-11 -5.702928e-07 -1.3295407e-07 -2.0835898e-12 6.550674e-23 2.5971328e-14 -1.5425259e-22
1.3734427e-17 -6.711311e-15 3.7388346e-13 4.481626e-12 -6.334081e-14 2.911311e-17 -6.164914e-20 -7.7871744e-19
-7.687562e-19 -1.3333403e-18 1.0455873e-17 4.5630373e-17 -2.2843238e-18 1.5988723e-20 -7.4989423e-19 -8.962741e-20
-2.643363e-22 -1.8235476e-19 -3.777211e-19 -1.8912585e-18 -2.202703e-19 -2.2521965e-18 -1.1703453e-18 -1.7767345e-18
-6.1983535e-22 -1.6291812e-19 -5.989182e-20 -5.0524295e-19 -1.800776e-18 3.6257692e-17 -7.289636e-19 -7.4389133e-19
-4.0685755e-21 1.7601948e-20 4.8438795e-18 1.9567471e-20 -4.4910637e-20 1.564495e-18 9.648611e-21 -3.586462e-21
-2.70813e-22 -1.7505966e-19 1.9316608e-20 1.8836344e-20 -1.3710304e-20 4.1766183e-21 -3.555797e-21 -1.4745823e-19
-6.9730836e-23 1.9205218e-20 1.3068133e-18 7.9366863e-19 6.0472835e-22 -4.8753213e-21 -3.7848735e-21 -3.809361e-21
-1.6149678e-22 -5.4883594e-19 1.3898053e-20 -1.1959334e-18 -1.4781518e-18 -3.3599513e-19 -1.941546e-19 4.6381002e-21
8.161806e-21 -1.9436521e-18 -4.3146123e-19 -7.3619943e-19 -1.3731844e-19 -2.0935073e-18 -4.5369435e-20 -4.1689976e-21
-3.346505e-21 2.8383694e-18 -2.3847975e-18 1.7969146e-17 5.500355e-21 -1.2427331e-18 3.40549e-18 3.776574e-20
-2.0701872e-19 -6.7585743e-19 -1.3024777e-18 -1.6935381e-20 7.59815e-18 -2.6307975e-19 2.0595348e-20 -3.4882723e-19
-5.016932e-21 3.0019073e-17 -1.8373435e-18 1.7527817e-20 -1.870206e-20 1.764153e-18 -2.1562957e-18 1.6546326e-20
-4.8630356e-21 3.7270093e-19 -9.154901e-19 -2.6717024e-19 -6.457215e-19 1.4495896e-20 -9.679511e-19 1.4380748e-20
-7.088071e-22 1.9178468e-20 -9.695535e-21 -1.6835071e-18 5.8229962e-18 -1.2552172e-20 -4.002561e-21 3.6743775e-21
1.7971188e-22 -7.180572e-20 -2.3768646e-18 4.9805335e-18 1.1838661e-17 -1.5557806e-18 2.113316e-20 1.6754799e-20
-1.592202e-19 -1.6392082e-16 2.7203504e-17 -2.1654916e-18 -3.6690924e-20 3.3913393e-17 -1.3781103e-19 -9.618495e-19
-8.244058e-20 -1.390717e-19 -8.227923e-19 6.5970202e-21 -1.6110423e-18 -6.59598e-19 1.9815223e-18 1.1800694e-20
-4.3505714e-21 -8.9461005e-20 -1.4437886e-18 -1.1787406e-19 -5.767903e-20 -9.492918e-19 -1.2021046e-18 2.087638e-21
-5.977861e-22 3.9159127e-18 1.744233e-17 9.926e-21 1.3431343e-20 1.9950052e-20 2.907789e-24 7.80109e-21
-1.6792384e-21 2.0050688e-20 1.5881267e-20 -1.5888957e-18 -1.822401e-19 -1.3208247e-18 -4.0282946e-22 -7.802647e-22
-4.7080047e-21 -8.9642e-19 1.0565433e-20 1.7652419e-20 -2.2998544e-20 -1.153358e-18 -1.616174e-19 5.4482365e-19
-3.3376938e-21 1.3904654e-20 1.5402975e-17 8.394906e-21 -2.3564458e-20 -1.1395647e-21 1.4141491e-20 -3.2463273e-21
-1.1642696e-19 8.4570946e-21 -1.493613e-18 -3.6158332e-22 -3.653486e-22 -1.5969589e-18 -3.9518216e-22 -2.9641059e-22
-3.821818e-22 -3.980572e-22 -1.7900095e-22 -1.3332008e-22 1.3792138e-20 -4.258536e-22 -4.174482e-22 -3.3619058e-22

fc1.bias f4 [256]
00000000: 4ad4 59bc b260 1dbc c988 e63c 949e bbbc
00000010: d9ab f3bb b820 febb 2120 4abb 061d b43d
00000020: 3a00 20b0 5403 45b6 85bf 3f3a 95fc 2cbd
00000030: 428c 84ba e860 863d 6e04 32bc f1a7 393d
00000040: 9733 7eb9 170c a23d 0b99 4b39 c10d 8f3d
00000050: c70f cc3d abd6 1a38 d725 74b8 58d4 7213
00000060: c105 e5a9 ccfe 213c 7067 3c3d 5a2a 68ac
00000070: a635 d9ba 2d87 fdb8 b20a 17b9 20ea 4e35
00000080: c85c eeb7 b768 ca3b a29a 1f3d 13b7 00bc
00000090: e6e5 17ba 3854 653d a07e 1abc 1693 85bb
000000a0: 1760 47bd 1926 20bc 45cf 9ebb 0cf6 643c
000000b0: ee5c 3bbb 3309 0c22 dd30 adbb 7af3 433c
000000c0: 72ce 4ebc 76d8 98bc 4aea 1ebc a2ee 8eae
000000d0: 82ba c5bc 4e20 cc3c 844a 323d 02f1 99bb
000000e0: 3788 593d 374c c7b7 caee 3e3d 8b13 cbbb
000000f0: 2d79 94bb 3325 5939 08e7 c2b7 b3cb c295
00000100: ec9f a8bc d2fc 863b 777b adb9 2373 273d
00000110: 5f38 4fb8 163b be3b ba62 fab7 dd17 053d
00000120: e2b3 03bc f2a1 a03d e0f0 10ae eb19 97ba
00000130: 7251 c33d 255b 98bb 4d14 873c f549 d4b9
00000140: a54c d593 6f65 e1ba 7459 fd3b 393a 083b
00000150: 5895 c5b9 b69b 983c 9869 823d a541 663d
00000160: e2d6 a33d 8c78 c83c 57e1 3a3c d378 38bd
00000170: 5e03 1f3c fd18 b43b 24d5 1abb bada 24bd
00000180: e19f 803d a416 f2ba 8594 82bc 57f1 54bc
00000190: 8116 87bb f3eb 57b9 5845 5c3d b8d4 ab3c
000001a0: 17c0 f43c 6523 87bb 2f6b 02ab b631 0189
000001b0: c5ac 9e3a c2bb 89bc bf77 06b9 5d46 823d
000001c0: 59c2 0dbb 379b 94b6 318a 8bbc f559 71b9
000001d0: 5421 a9bc 88d5 6d39 31c6 81af 54c4 3fbb
000001e0: e09f 9cbb f95b f93b 042b 23b5 142e caba
000001f0: 73bc 983c a6f6 863b 1ca8 10bc b486 2e3c
00000200: 7a8d e53b 7c2f ccba 8b43 543d 236d acbc
00000210: 19c7 223a b6f5 c83c 56fd 57bb 1310 923d
00000220: 977e f73a 7dbe 26bc c8e3 3c90 50bc f4bb
00000230: 279c c4ba a8cb 7bbb 02c1 663c 86e3 c13b
00000240: e83f b4bc f6c8 da3b 7b72 58bb 6287 99bb
00000250: da84 483c 946d 34bc 3279 449a 727d 323c
00000260: 5fc5 bbb3 2bc8 b8bb ce39 8ab9 c511 163c
00000270: eeb4 5b3d 31ee f2ba 7cbb ccb9 5eaa 0cbc
00000280: 05b7 3d3b 327a d5b4 c4a4 45bd 8f49 babb
00000290: fc7f e4bb e16b c9bb e97e 2f3c 708e b3ba
000002a0: 6247 2d3e 56a5 98bc 152f 843c 37be b93b
000002b0: ac58 863d ce67 45bd e7f6 ef3c 99b5 f0ba
000002c0: 2215 b3bb e46a 983d c641 5aba 57dc b53c
000002d0: ea92 ba3b 3e34 8fb9 363f adbb 7be1 8bbb
000002e0: 3884 b3bb efda b03b 1724 f8bc a3b3 ce3c
000002f0: f388 67bc 9d95 6ab6 7b7f 713d 7008 3ab7
00000300: 10ab 48b1 108b 8bb8 fda3 93bc 6d58 a7bc
00000310: 6fbe 34b7 a465 bc3b f7c2 4d3c 5da1 6f3c
00000320: 61ca 2a3d 17fe d2bb 9e46 28ba f43e 373d
00000330: d611 8fbc 6cf3 893d efb3 95bc 03a2 243c
00000340: 6952 8b3d 58fb a5b7 1ce5 fc3b ff68 5db6
00000350: 0ae7 75bd 0674 373d 64db 15b3 cc7d 9c3b
00000360: a1bb 5e3d 2e47 733c cc74 4b3d 1f19 df3c
00000370: cc7b a3ba 60dd 95b3 974b 393d b3d5 363d
00000380: 91d1 16bd 7b9f bdbb 8144 a93d 8161 51b1
00000390: 8d1e 893d b655 e0bc 858c 103c 0678 7bbc
000003a0: 895f 06b6 198b 4bbc 2196 993d ebe3 adb9
000003b0: 494f 883d 4714 533d f2eb 65a6 3730 17bc
000003c0: 1b37 963d d126 b4ba 9c0d cabb 629e 3fbc
000003d0: b2d6 a43c 61a8 783c 46e6 c23b 586c 453b
000003e0: ed25 8bbb 7497 51ba 16f6 00bc 233f 2cba
000003f0: 221a 28b7 1278 373d abf9 2bbb c3f7 99b3
-0.013295243 -0.0096055735 0.028141396 -0.022902764 -0.0074362573 -0.007755365 -0.0030841904 0.08794598
-5.8207983e-10 -2.9357225e-06 0.00073146104 -0.04223307 -0.0010112601 0.06561452 -0.010865314 0.045326177
-0.00024242546 0.07912462 0.00019416602 0.06985045 0.09963947 3.6916386e-05 -5.8209374e-05 3.0649388e-27
-1.0170641e-13 0.009887408 0.045997083 -3.2992693e-12 -0.0016571775 -0.000120891586 -0.00014404466 7.7081677e-07
-2.8415016e-05 0.0061770338 0.03896583 -0.007856148 -0.00057944504 0.05598852 -0.009429604 -0.004076372
-0.048675623 -0.009774708 -0.004846486 0.013974678 -0.0028589326 1.8978408e-18 -0.005285366 0.011959905
-0.012622463 -0.018657904 -0.009699414 -6.499802e-11 -0.024136785 0.024917748 0.043528095 -0.00469792
0.05310842 -2.3758139e-05 0.046614446 -0.006197398 -0.004531047 0.0002070859 -2.3234184e-05 -7.8677357e-26
-0.02058407 0.004119494 -0.0003308912 0.040881287 -4.9405146e-05 0.0058053834 -2.9848296e-05 0.03249346
-0.008038493 0.078433886 -3.295575e-11 -0.001152811 0.09537019 -0.004649537 0.016489172 -0.00040490893
-5.3844337e-27 -0.0017196367 0.007731611 0.0020786657 -0.00037686038 0.018628936 0.06367797 0.056214947
0.0799997 0.024471544 0.011406264 -0.045037102 0.009705393 0.005496143 -0.0023625577 -0.040247656
0.062804945 -0.0018469882 -0.01593996 -0.012996993 -0.0041225557 -0.00020591896 0.05377707 0.020975456
0.029876752 -0.0041240924 -4.6334025e-13 -1.5551184e-33 0.0012105933 -0.016813163 -0.00012823845 0.06361077
-0.0021630733 -4.428813e-06 -0.017033668 -0.00023017063 -0.020645775 0.00022681628 -2.3605787e-10 -0.0029261308
-0.004779801 0.007609841 -6.078483e-07 -0.0015425109 0.018644547 0.0041187583 -0.008829143 0.010652233
0.0070053907 -0.0015578116 0.051822226 -0.021048134 0.00062094774 0.024531227 -0.0032957396 0.07131972
0.0018882331 -0.010177252 -3.725194e-29 -0.0074687377 -0.001500015 -0.003842095 0.014084103 0.0059170155
-0.02200313 0.0066767884 -0.003302722 -0.0046853283 0.0122387055 -0.011012454 -4.062975e-23 0.010894166
-8.743768e-08 -0.0056390963 -0.0002636448 0.00915951 0.053639345 -0.0018534121 -0.000390496 -0.008585541
0.00289482 -3.976325e-07 -0.048252836 -0.0056850384 -0.0069732647 -0.0061468934 0.01071141 -0.0013699066
0.16921762 -0.018633526 0.016135732 0.0056684273 0.065598816 -0.0481947 0.029292537 -0.0018364667
-0.0054651657 0.07442263 -0.0008325841 0.022199793 0.005693783 -0.0002731401 -0.0052870763 -0.0042688227
-0.005478408 0.0053971927 -0.030290646 0.025232142 -0.014131772 -3.4955804e-06 0.058959465 -1.1088428e-05
-2.9201068e-09 -6.653939e-05 -0.018022532 -0.020427907 -1.0773175e-05 0.005749421 0.01255869 0.014625874
0.04169691 -0.0064389813 -0.0006419214 0.04473777 -0.01746456 0.06735882 -0.018274276 0.010048392
0.06802828 -1.9786574e-05 0.0077177417 -3.2992682e-06 -0.06003479 0.044788383 -3.48913e-08 0.0047757383
0.054378156 0.0148485135 0.049671933 0.027233658 -0.0012472807 -6.978621e-08 0.045238104 0.044637393
-0.03682095 -0.005786834 0.08265019 -3.0468927e-09 0.0669528 -0.02738462 0.008822565 -0.01534844
-2.0023165e-06 -0.0124233 0.07499338 -0.00033166943 0.066557474 0.05153301 -7.97701e-16 -0.009227804
0.07334729 -0.0013744478 -0.006166173 -0.011695476 0.020121906 0.015176863 0.005947861 0.0030124392
-0.0042464645 -0.00079952856 -0.007871171 -0.00065706874 -1.0019665e-05 0.044792242 -0.0026241343 -7.169685e-08

fc2.weight f4 [128, 256]
00000000: c6da 30bc d64e 0080 a52a faba 00a5 0080
00000010: 5619 2100 dcac f5aa 24a5 0000 63f5 a33a
00000020: cc1b 0000 89de 1200 f6e2 97ba 7e54 0100
00000030: 077c 71a9 328a 7abc 7b96 0080 adaa 68bb
00000040: fc7a 0080 6a00 ea39 d5a9 8c34 5155 fdbb
00000050: c0b0 5d3b f58d 95b4 0d82 0080 ca7f 0000
00000060: 2375 0000 954c 91bb 96a4 1739 6dc3 0882
00000070: 9217 b3b9 b282 0000 4d77 0080 d65d 0080
00000080: 533f 0000 8d41 94b8 5f4e 3d37 8271 0080
00000090: a69a 0000 c163 0c39 c6b2 803a bd67 e0b6
000000a0: 8090 11bc aa6c 37bc 65d4 0080 c9a6 e3bb
000000b0: 1364 0080 2aa1 0000 a0ab c9b9 66e7 9039
000000c0: 3529 0000 2c0b 9539 2b34 01bc bc67 0000
000000d0: 25d6 4338 4991 323a a4bd 1239 3361 0080
000000e0: 09af d4ba 5f47 3d80 afee dfbb e32d 9aba
000000f0: a092 0080 07d6 0525 3e16 0180 0e62 0000
00000100: 4b7c 7fba 18a0 03bb eb0c 0137 463f a53a
00000110: 16b2 0000 bcac 0e34 b9c5 0000 6a78 ec3a
00000120: 549f 0080 78f1 d4bb 6f01 3c80 2152 0080
00000130: 970b 2c3b 3e5e 0100 bc68 9bba a60c 0080
00000140: 6ebe 1b80 7767 0080 17eb 37b8 3b9a a216
00000150: ac61 39bc 6e2f 3c3a bb25 c6bb dd64 0080
00000160: 59b6 82bb bcdf d639 225e b2bb 467d 2221
00000170: db2f ca39 b6a0 1aba 519e b48e 638f 3cbc
00000180: ca94 953b 1e36 0080 02ea f5ba 7224 0236
00000190: 66a6 51bb aa74 0000 57af 0080 191b 9abb
000001a0: 681a 0180 0458 0000 715e 1000 9835 0e80
000001b0: e3b6 e933 aee8 37bc 2056 0080 48b6 0000
000001c0: 5bb2 0080 4a0d 0080 f783 55bc 4d4f 0000
000001d0: 8407 9f1a a275 f6a1 ae4d 0000 2384 0100
000001e0: 32a8 37bc 3d61 863b 42a6 0000 b55f 0080
000001f0: 45c5 0000 4b04 a339 5c7a 0080 a1d8 40b9
00000200: 0092 8539 5c44 0080 3434 0180 08a1 1202
00000210: 761f d187 21c6 28b8 a7a2 0000 b2e0 073c
00000220: 5ee7 85b8 6263 8c27 3fa0 0000 430f 0080
00000230: c1ae 0000 93d4 0080 b11c dc35 6cb3 33bc
00000240: 4299 6939 dcbb c8b9 2cbb 0000 b522 0000
00000250: 4f15 a6bb 4ed5 6db9 331c 7580 aa59 3eba
00000260: 2ccd 3db8 245f 8fba b76f 0080 4c95 2abc
00000270: 1473 cdba 0e9d 0000 26d3 7300 f704 0000
00000280: e38f 72b8 d0f3 cb01 ce38 33bc 5358 6d80
00000290: c63c 1d28 17b9 568f 9bce 1db8 7797 0080
000002a0: 18b3 59bc ce48 3bbc f21a f915 fa33 17bc
000002b0: dfb0 a6bb 219f 3e14 96e5 9900 6b6f 393a
000002c0: a029 25bc 5231 ef3a f9a4 0000 8708 0080
000002d0: 16fa 583a 39a0 4228 b6cf 35bc bca5 0080
000002e0: ca39 0080 b4e4 7d30 c38f 0000 1541 dab7
000002f0: e290 0080 003c 0080 d84f 433b e279 09aa
00000300: b94e 0000 e844 0080 11ba 7a2e 460b 0500
00000310: e6f0 6e82 9d20 d3bb 01e8 d9bb d6b2 ff3a
00000320: 84a9 eabb 275c 1abc c700 0100 9afa ecba
00000330: 573d 0000 bfe7 0c3c 6df1 c637 7c42 1c36
00000340: 6309 b53b 0f6f 0080 752c 8db9 2e52 0080
00000350: a404 36ba e873 3abb 3eed 0080 bf3f a6b9
00000360: 1a0c 2dbb 2883 39b9 9356 31bb e9f1 0ab8
00000370: 35a3 5900 357c 0080 0603 34bb fe7d 1bbb
00000380: e8fe cbbb 24ab 5abb ffe1 0cb9 d436 3db2
00000390: a724 1536 1dff 34bc f68a edb4 8ea4 0080
000003a0: cbbe 0080 cd96 8603 a165 84b3 bc04 0000
000003b0: 8793 ad39 047b d7b9 d969 0080 ac69 0080
000003c0: 830d 34bc 3818 1b81 2627 df03 b666 719b
000003d0: a316 e038 d7c1 22bc 6300 15ba 3de2 02b9
000003e0: 3eba 0080 6f4e 84b3 26c1 71ba cd6f 721b
000003f0: 7c82 0080 270d 32ba f9ab 4000 7843 0080
-0.010794347 -2.8281e-41 -0.0019086195 -5.9191e-41 3.03966e-39 -4.3640688e-13 5.9241e-41 0.0012509044
9.972e-42 1.73287e-39 -0.0011588025 1.22146e-40 -5.3620326e-14 -0.015291737 -5.3982e-41 -0.0035502121
-4.4118e-41 0.00044632267 2.62006e-07 -0.007731118 0.0033827275 -2.78567e-07 -4.6653e-41 4.5842e-41
4.2021e-41 -0.004434178 0.00014461795 -1.0047786e-37 -0.00034159102 4.6885e-41 -4.2797e-41 -3.3662e-41
2.2716e-41 -7.0694e-05 1.1283525e-05 -4.0719e-41 5.5477e-41 0.00013388602 0.0009818904 -6.687797e-06
-0.008884549 -0.011195341 -7.6193e-41 -0.0069473726 -3.59e-41 5.7815e-41 -0.00038465578 0.00027638226
1.4782e-41 0.00028427818 -0.007885973 3.7213e-41 4.669106e-05 0.00068118103 0.00013994292 -3.4869e-41
-0.0016226481 -5.627568e-39 -0.006833873 -0.0011762943 -5.2599e-41 1.1608426e-16 -9.9814e-41 3.5175e-41
-0.0009745999 -0.0020084437 7.692007e-06 0.0012607358 6.3885e-41 1.3287621e-07 7.093e-41 0.0018041257
-5.7156e-41 -0.006498512 -5.510644e-39 -2.9462e-41 0.0026252025 1.25643e-40 -0.0011856775 -4.537e-42
-2.547872e-39 -3.7116e-41 -4.3849544e-05 2.6269845e-25 -0.011314791 0.00071786984 -0.0060469783 -3.6183e-41
-0.0039890227 0.00040983956 -0.0054433504 5.5053533e-19 0.00038564097 -0.00058985816 -4.452588e-30 -0.011508795
0.004564856 -1.9414e-41 -0.0018761756 1.9392724e-06 -0.003199005 4.1851e-41 -6.29e-41 -0.0047029373
-1.01308e-40 3.1574e-41 1.503247e-39 -1.304923e-39 1.0883175e-07 -0.011224909 -3.0896e-41 6.539e-41
-6.3982e-41 -4.767e-42 -0.013031951 2.8448e-41 6.5773e-23 -1.6700746e-18 2.7866e-41 1.39237e-40
-0.0112095345 0.004100947 5.9642e-41 -3.4333e-41 7.0767e-41 0.0003109298 -4.3894e-41 -0.00018391247
0.00025476515 -2.4523e-41 -1.10562e-40 1.07726e-37 -3.1465316e-34 -4.0238843e-05 5.8349e-41 0.008293318
-6.38503e-05 3.8965557e-15 5.7485e-41 -5.475e-42 6.269e-41 -7.6257e-41 1.6399628e-06 -0.0109680705
0.00022277705 -0.0003828694 6.7145e-41 1.245e-41 -0.005068458 -0.00022681543 -1.0754869e-38 -0.0007261286
-4.5252193e-05 -0.0010938388 -4.0076e-41 -0.010411572 -0.0015674555 5.634e-41 1.0636828e-38 1.781e-42
-5.78313e-05 7.4920277e-38 -0.010938836 -1.0041754e-38 8.728429e-15 -1.05866616e-29 -3.7624133e-05 -5.4335e-41
-0.013287328 -0.011430932 1.0061281e-25 -0.009228701 -0.0050870026 9.623931e-27 1.4133191e-38 0.00070737925
-0.010080725 0.0018248952 5.9181e-41 -3.059e-42 0.0008277012 1.0803906e-14 -0.011096885 -5.9454e-41
-2.0731e-41 9.236587e-10 5.1572e-41 -2.6017931e-05 -5.1974e-41 -2.1524e-41 0.002980223 -1.2210331e-13
2.824e-41 -2.4719e-41 5.700868e-11 4.63222e-40 -1.7554613e-37 -0.006443097 -0.0066499715 0.0019508253
-0.007161321 -0.009421385 9.2114e-41 -0.0018080056 2.2005e-41 0.008600174 2.3715862e-05 2.328451e-06
0.0055248006 -3.984e-41 -0.0002692674 -2.948e-41 -0.00069434405 -0.0028450433 -8.5106e-41 -0.00031709482
-0.0026404918 -0.00017691834 -0.002705966 -3.312706e-05 8.231907e-39 -4.4557e-41 -0.0027467622 -0.002372622
-0.0062254556 -0.0033366168 -0.0001343563 -1.1013714e-08 2.2224065e-06 -0.011047152 -4.4245797e-07 -5.9031e-41
-6.8444e-41 7.910434e-37 -6.165215e-08 1.698e-42 0.00033107048 -0.0004109965 -3.7971e-41 -3.7908e-41
-0.01098955 -2.848638e-38 1.311575e-36 -1.996824e-22 0.00010685369 -0.00993391 -0.00056839566 -0.00012482046
-6.6811e-41 -6.160996e-08 -0.0009222202 2.0053896e-22 -4.6809e-41 -0.0006792121 5.939164e-39 -2.4203e-41

fc2.bias f4 [128]
00000000: 5b05 093d 2aaf 853c 4160 fe3b 3537 01b8
00000010: 34e0 be3d 233a 933d 0f5e a9ba 5f35 1cbd
00000020: 66a7 b6ba 6b5b 18bb 0b20 fbbb bdfc 45b2
00000030: ad37 723c b983 9b3c 9551 763d dfc5 1dbc
00000040: 57f7 93ac 69d6 4eb7 5aa6 323d 81a8 2c3d
00000050: 5df3 3abb 635e 11bb d231 ddbb 46c6 c8bc
00000060: cda3 c4bc e2e4 d13d 91ce e53c 5b2c 13bd
00000070: 0f9c 8a3d d136 c5bd 4da2 9c3c 851d 0000
00000080: 0d0b 41b9 6766 a0bc 7e6f 0bb7 bfd8 4fbb
00000090: 2cf5 b43d e6d1 643d dcf5 d93c 78cc 0a3d
000000a0: 660b 1a3d dd88 29bb 75e6 a93d 825f cab7
000000b0: 035a 1ebd bc6f ca3d 7f8d 873d 44f0 9e3d
000000c0: 0af3 213d 181d cab0 9c03 163c 4f88 52bb
000000d0: 6cd7 bdb3 f86e a53d 4edb cf3d 93de c6bb
000000e0: 32d0 b6b7 4676 233d d9ff d8b2 556d 7f3d
000000f0: 6093 5cba e4f3 1a3d 20bc ab3a f4b9 1c3d
00000100: a453 1abd 033f 8a3c 7cba 87b2 bbad a6bc
00000110: bc06 263d 6499 013c e8aa 063e 8351 42b8
00000120: a866 2ab9 d4fe 0e3d a792 19bb 865b 783d
00000130: 9723 27bd f3eb 97bc c9a2 8d3c 870b 00bd
00000140: 6008 88a2 3298 c9bc 47c5 863d 3420 693d
00000150: bf42 0c3d f037 033d cbf6 2d3c 8ecd b5bc
00000160: 45f8 c5bc 596b d0b9 239d 713d 5ea5 bebc
00000170: bc56 6d3d d3ad cc3c 2afb f9b9 a9f3 7c3d
00000180: 2ea8 db3c d1de 243d 5606 1abd 1ac6 293d
00000190: a840 0337 1922 3e3d 0e7e 233c da14 563d
000001a0: 4bb7 0cbc 729c 48bc efe2 573d 1499 74bb
000001b0: 7c2f a60c 26d9 29bd e48e c6b9 331f 37bb
000001c0: 9f50 be3d 5ac6 213d 178f 7fbb bda3 313d
000001d0: 4df5 c5bb 6a77 013b e1cc 853b eca3 183d
000001e0: 2fee 643c 15e9 58ba 44b8 273d d77f 903d
000001f0: 3650 333d 3540 7dba 44b1 8e3d 682f 0d3d
0.033452373 0.016318876 0.007762939 -3.0807412e-05 0.09320107 0.07188823 -0.0012921708 -0.038136836
-0.0013935387 -0.0023247849 -0.007663732 -1.1524375e-08 0.014783782 0.018983709 0.060136396 -0.009629696
-4.2054515e-12 -1.2328478e-05 0.043615676 0.042152885 -0.0028526403 -0.0022181503 -0.006750324 -0.024508607
-0.024003888 0.10248734 0.0280526 -0.035930973 0.06768047 -0.09629596 0.01912036 1.059e-41
-0.00018410031 -0.01958008 -8.311004e-06 -0.0031714884 0.08835825 0.055864237 0.026606493 0.033886403
0.037608527 -0.002586893 0.08295909 -2.412475e-05 -0.03866006 0.09884593 0.06618785 0.07760671
0.03953842 -1.4705703e-09 0.009156134 -0.0032124703 -8.840183e-08 0.08077806 0.10149251 -0.0060690134
-2.179304e-05 0.039907716 -2.5262056e-08 0.062360127 -0.00084142946 0.03783025 0.001310233 0.038263276
-0.037677422 0.01687575 -1.5800872e-08 -0.020346513 0.040533766 0.007910106 0.13151133 -4.6329118e-05
-0.00016250706 0.03491099 -0.002343336 0.06063416 -0.040805425 -0.018545127 0.017289536 -0.031260993
-3.687174e-18 -0.024608705 0.065805964 0.056915477 0.03424334 0.032035768 0.010617922 -0.022192743
-0.024166236 -0.00039752832 0.058987748 -0.023272213 0.057944044 0.02498523 -0.00047680113 0.06175581
0.026813593 0.040251557 -0.0376037 0.04144869 7.823262e-06 0.046419237 0.009978784 0.05226598
-0.008588622 -0.012244331 0.052706655 -0.0037322687 2.5604928e-31 -0.041466855 -0.00037871965 -0.002794218
0.09292721 0.039495803 -0.00389952 0.043369044 -0.006041205 0.0019755014 0.0040832614 0.037265703
0.013972803 -0.0008274478 0.040947214 0.070556335 0.043777667 -0.00096607517 0.069674045 0.03446904
