saved_models/type2_split100_batchsize32_rng0_epoch40/model.pth (torch, 705653 bytes, 16 tensors)

conv1.weight f4 [8, 1, 3, 3]
-0.022696972 0.14706492 -0.29450077 -0.24166253 -0.13234039 0.07908266 0.054959428 0.3040059
0.0030644978 0.046856314 -0.11585707 -0.08680535 -0.2610507 -0.18500203 -0.1160276 0.038821
0.14889047 0.20783165 -0.23394851 -0.15968865 0.108244896 0.28519937 -0.06696712 0.24925175
-0.019781271 0.061384156 0.32104895 -0.13017085 -0.035491843 0.03153682 0.022160862 0.20445709
-0.025499744 -0.078007296 -0.12275346 -0.1912493 -0.1377493 0.3445921 0.20981976 0.18446977
0.049584284 -0.13270879 0.059552938 -0.29584774 -0.2209548 -0.15230781 0.227675 0.20948797
-0.13028331 0.006258485 0.22768386 0.34738642 0.15034826 0.05980994 0.18065661 -0.10364427
0.049391784 -0.17660916 -0.15692925 -0.107513346 0.10192685 0.077478066 -0.19930178 0.10812337
0.19607916 -0.024364237 0.018149598 0.08871723 0.21857876 0.31977102 -0.235995 -0.09729918
00000000: 00ef b9bc 3098 163e cec8 96be 6276 77be
00000010: 3d84 07be 17f6 a13d 231d 613d a9a6 9b3e
00000020: bed5 483b 68ec 3f3d 7946 edbd 01c7 b1bd
00000030: 70a8 85be 2c71 3dbe e19f edbd c502 1f3d
00000040: be76 183e d2d1 543e 3390 6fbe 6c85 23be
00000050: 80af dd3d a705 923e 0f26 89bd da3b 7f3e
00000060: 550c a2bc f46d 7b3d 8760 a43e 824b 05be
00000070: e55f 11bd c12c 013d b28a b53c 335d 513e
00000080: d7e4 d0bc 4ac2 9fbd 2b66 fbbd dbd6 43be
00000090: 270e 0dbe 606e b03e feda 563e a5e5 3c3e
000000a0: e418 4b3d d0e4 07be c8ed 733d 5b79 97be
000000b0: fa41 62be 94f6 1bbe a323 693e 0484 563e
000000c0: fd68 05be fa13 cd3b f525 693e a2dc b13e
000000d0: e5f4 193e 45fb 743d 0cfe 383e 7243 d4bd
000000e0: 0a4f 4a3d 08d9 34be 10b2 20be f52f dcbd
000000f0: 06bf d03d d2ac 9e3d c415 4cbe c96f dd3d
00000100: fac8 483e 8297 c7bc 77ae 943c 61b1 b53d
00000110: 1cd3 5f3e 07b9 a33e aca8 71be cb44 c7bd

conv1.bias f4 [8]
0.10629555 0.21628463 0.33939856 0.12614691 -0.05995681 -0.3932951 -0.0015195783 -0.31884378
00000000: 7bb1 d93d b879 5d3e a6c5 ad3e a82c 013e
00000010: 4695 75bd fa5d c9be 962c c7ba 7e3f a3be

conv2.weight f4 [16, 8, 3, 3]
9.516918e-37 1.9819244e-37 4.1722e-41 4.714394e-35 4.64e-43 1.068e-42 4.679e-41 -5.934e-42
1.775e-42 3.4293e-41 -4.016e-41 2.455e-41 1.3277e-41 -3.9965e-41 7.854004e-35 -3.7176e-41
2.3193e-41 -6.0574e-41 -0.00018640557 -0.00017084386 -0.00013492675 -0.00016816067 -0.00015933916 -0.00015909181
-0.00019633735 -0.00012152872 -0.00015127887 -4.614e-41 -3.1756e-41 1.648e-41 -1.1799e-41 2.0331e-41
-4.7724e-41 5.264797e-38 1.3162e-41 -4.597655e-39 2.7807e-41 4.5213e-41 5.2942e-41 3.1403e-41
4.009e-42 5.1443e-41 -1.7508e-41 -6.0086e-41 -1.1349795e-35 -7.3403586e-05 -7.323601e-05 -8.88508e-05
-5.503169e-05 -6.2633306e-05 -5.9392725e-05 -3.1406693e-05 -3.060588e-05 -3.068677e-05 2.5759e-41 5.176e-41
2.5469e-41 5.5364e-41 -2.0808e-41 1.8283e-41 3.0308978e-36 -2.2449e-41 4.011001e-36 -2.6128707e-06
-4.6435234e-06 -4.522852e-06 -1.088523e-06 -1.3320783e-06 -1.7181544e-06 -8.6216147e-07 -1.32136e-06 -1.2406925e-06
0.0037325448 0.07510981 0.06076634 -0.0912245 0.06623531 -0.08267005 -0.083686866 -0.09571464
-0.07105133 0.04770775 -0.04442553 -0.07510123 0.022259112 0.013151057 -0.05839859 -0.030529527
-0.13568994 -0.0749536 0.083585106 -0.06777496 0.083435595 0.022020584 -0.12636921 0.05121526
-0.038411003 -0.07650938 0.068249345 -0.041811775 -0.041336823 -0.042980004 -0.043549523 -0.04527547
-0.046360377 -0.047731567 -0.050043616 -0.046319816 -0.08519012 0.03863737 0.051626325 0.068461746
-0.07235928 -0.008337584 -0.06977276 -0.056569383 -0.06596733 0.07601555 -0.032475114 0.030892953
0.044238567 0.11657325 -0.050673623 -0.04718083 -0.030983765 0.11693828 -0.043709077 -0.007596201
-0.008460812 -0.03861921 -0.026420964 -0.018232029 -0.044363488 -0.037948586 -0.032007877 0.047830597
-0.05262536 -0.022307895 0.13165325 -0.04994588 0.03691071 0.15454556 0.08890836 0.051695418
-2.4938775e-11 1.225607e-10 5.6681254e-10 1.1161816e-10 6.340274e-10 1.8213432e-09 5.2696814e-10 2.3582196e-09
4.3773913e-09 1.9489675e-11 5.4058726e-11 1.5961664e-10 5.572836e-11 2.3462168e-10 4.6739984e-10 1.2064175e-10
3.5655595e-10 1.0145287e-09 -0.0073580556 -0.0070833177 -0.006979469 -0.0077091735 -0.0071789427 -0.0069024996
-0.006885292 -0.0066673947 -0.0065895086 -9.780272e-22 -9.612136e-25 5.600548e-30 -5.6819513e-22 3.2640972e-26
4.0888245e-26 -7.009358e-22 3.1548717e-26 1.0299229e-28 -4.255341e-06 -2.8922034e-07 5.5823944e-07 -4.1412845e-06
3.5870443e-07 2.093571e-06 -2.2404097e-06 3.4275292e-06 7.931669e-06 -0.005392718 -0.0056397035 -0.0053955913
-0.0062181256 -0.0049113333 -0.0049687214 -0.005735615 -0.004306358 -0.004305673 -7.562696e-26 -2.2359148e-29
5.7381345e-32 7.7785e-27 -7.698844e-29 -5.5109786e-30 -8.86106e-28 1.6834343e-29 -1.2837631e-32 -0.005344883
-0.0044645546 -0.0045714807 -0.005360322 -0.0043511176 -0.0040109274 -0.0044311113 -0.0037645567 -0.003544428
0.12591793 -0.047183447 0.052268073 -0.0040014684 -0.0389116 0.00880462 -0.04516411 0.020779407
-0.0023132195 0.022735555 0.07006564 0.047589045 0.10050256 0.007229482 -0.107843906 0.026362954
0.039840534 -0.070752725 0.045481503 0.07765355 -0.06540762 -0.00048657408 0.04534805 0.0023812714
0.003311463 0.008541599 -0.102070905 -0.03256543 -0.04329839 -0.046467956 -0.04152341 -0.054508142
-0.06481311 -0.042772967 -0.05403057 -0.06824758 0.13493744 0.089989826 -0.060014404 0.07773061
00000000: 06ec a103 fee1 8602 4e74 0000 02a9 7a06
00000010: 4b01 0000 fa02 0000 6e82 0000 8b10 0080
00000020: f304 0000 985f 0000 f36f 0080 6f44 0000
00000030: 0325 0000 686f 0080 95cb d006 a267 0080
00000040: a740 0000 dba8 0080 dd75 43b9 8d24 33b9
00000050: 207b 0db9 4954 30b9 4814 27b9 e2d1 26b9
00000060: e8df 4db9 3cdd feb8 9da0 1eb9 9f80 0080
00000070: 8658 0080 f12d 0000 e420 0080 ad38 0000
00000080: 0985 0080 4852 8f01 b124 0000 6410 3280
00000090: 844d 0000 097e 0000 9593 0000 8a57 0000
000000a0: 2d0b 0000 678f 0000 ce30 0080 7fa7 0080
000000b0: 2962 7185 40f0 99b8 4996 99b8 6955 bab8
000000c0: d4d1 66b8 005a 83b8 741c 79b8 aeba 03b8
000000d0: d05e 00b8 abb5 00b8 ce47 0000 4990 0000
000000e0: ff46 0000 559a 0000 013a 0080 f732 0000
000000f0: 8eeb 8004 943e 0080 ef9b aa04 c758 2fb6
00000100: 90cf 9bb6 01c3 97b6 5e19 92b5 ddc9 b2b5
00000110: 569b e6b5 496f 67b5 9559 b1b5 df85 a6b5
00000120: b69d 743b 2cd3 993d 20e6 783d e9d3 babd
00000130: 61a6 873d ea4e a9bd 0564 abbd 0a06 c4bd
00000140: 5c83 91bd 3469 433d 8bf7 35bd acce 99bd
00000150: be58 b63c 8877 573c 5c33 6fbd 0f19 fabc
00000160: 4ef2 0abe 4681 99bd ab2e ab3d 99cd 8abd
00000170: 48e0 aa3d 8364 b43c ee66 01be 18c7 513d
00000180: db54 1dbd f3b0 9cbd 50c6 8b3d d342 2bbd
00000190: cd50 29bd cd0b 30bd fc60 32bd c572 39bd
000001a0: 61e4 3dbd 2d82 43bd 89fa 4cbd d9b9 3dbd
000001b0: 2878 aebd 3842 1e3d 2076 533d ac35 8c3d
000001c0: 1a31 94bd 5d9a 08bc 05e5 8ebd 4cb5 67bd
000001d0: e119 87bd 0aae 9b3d a004 05bd 3813 fd3c
000001e0: 8033 353d f5bd ee3d 258f 4fbd b040 41bd
000001f0: aad1 fdbc 567d ef3d 4a08 33bd 8de9 f8bb
00000200: 389f 0abc 2d2f 1ebd c770 d8bc 565b 95bc
00000210: 7db6 35bd fa6f 1bbd b11a 03bd 04ea 433d
00000220: b18d 57bd 0cbf b6bc 1cd0 063e 0d94 4cbd
00000230: af2f 173d 3141 1e3e 9615 b63d 93be 533d
00000240: 215d dbad c5c1 062f e3cd 1b30 7073 f52e
00000250: b647 2e30 d152 fa30 16da 1030 3d0e 2231
00000260: f167 9631 d96e ab2d b7c0 6d2e 1780 2f2f
00000270: 8e18 752e 11fc 802f 577a 0030 a2a5 042f
00000280: ca04 c42f 8e6f 8b30 d81b f1bb 2d1b e8bb
00000290: 08b4 e4bb 3c9d fcbb 563d ebbb 5d2e e2bb
000002a0: 049e e1bb 297a dabb ceec d7bb 98cb 939c
000002b0: 98bd 9497 6a2f e30e f8b9 2b9c 59a1 2115
000002c0: 0278 4a15 48d8 539c c038 1c15 e98e 0211
000002d0: 1ac9 8eb6 2446 9bb4 ecd9 1535 5df5 8ab6
000002e0: f693 c034 477f 0c36 f259 16b6 8104 6636
000002f0: 4212 0537 66b5 b0bb 43cd b8bb 80cd b0bb
00000300: 6bc1 cbbb 40ef a0bb a8d0 a2bb d3f1 bbbb
00000310: 591c 8dbb 9a16 8dbb 483e bb95 abbf e28f
00000320: 72f8 940b ae11 1a14 5b30 c390 468d df8e
00000330: bb68 8c92 74b8 aa0f 4750 858a 2124 afbb
00000340: 664b 92bb 5ccc 95bb a4a5 afbb d293 8ebb
00000350: 196e 83bb db32 91bb c8b6 76bb a249 68bb
00000360: a1f0 003e 6e43 41bd 0c17 563d c01e 83bb
00000370: c561 1fbd 4141 103c 00fe 38bd 9339 aa3c
00000380: 6299 17bb ea3f ba3c 937e 8f3d bbec 423d
00000390: 49d4 cd3d 4ae5 ec3b 44dd dcbd 1ff7 d73c
000003a0: d42f 233d cee6 90bd d04a 3a3d d308 9f3d
000003b0: 6ef4 85bd de1a ffb9 e0be 393d 1b0f 1c3b
000003c0: 2105 593b 10f2 0b3c 8d0a d1bd 5463 05bd
000003d0: a759 31bd 2f55 3ebd 7314 2abd ee43 5fbd
000003e0: bcbc 84bd b532 2fbd 294f 5dbd 63c5 8bbd
000003f0: 0a2d 0a3e 964c b83d aad1 75bd 3a31 9f3d

conv2.bias f4 [16]
-0.00022656337 -0.10711207 -0.008285904 -0.16033542 0.010234664 -0.00046721427 0.00784828 -0.19236033
-0.16740677 -0.032029014 -0.028193643 -0.043677177 -0.002431133 -0.21802619 -0.1403645 0.00563342
00000000: a491 6db9 935d dbbd 9ac1 07bc f82e 24be
00000010: 4baf 273c 70f4 f4b9 1296 003c 1bfa 44be
00000020: ae6c 2bbe db30 03bd 5bf6 e6bc d7e6 32bd
00000030: a553 1fbb 4242 5fbe b6bb 0fbe 8d98 b83b

conv3.weight f4 [8, 16, 3, 3]
1.8561942e-34 2.8414717e-36 -4.8057105e-35 1.7217148e-34 -1.8156129e-36 1.4810574e-34 1.062123e-37 -7.535199e-38
7.7431335e-36 -0.025806364 0.09435039 0.10073318 -0.010055174 0.06514316 0.1165333 0.025049826
0.10511558 0.10728406 -0.002566182 -0.0020845484 -0.0016938334 -0.0021913408 -0.0019153053 -0.0014371967
-0.0017905843 -0.0015653325 -0.0011622797 -0.019146262 0.068073064 0.02241721 0.07570739 0.06769521
-0.0549153 0.035304457 0.04878401 0.055036776 0.00061885745 -0.00061185064 -0.00056670705 0.004246306
0.0025819107 0.0007963049 0.00393701 0.0047544306 0.0021533412 -7.8517985e-07 -0.0015919273 -0.0015900865
5.1478746e-06 5.1215404e-05 8.754756e-05 -1.8910723e-05 -0.002130826 -0.0021541144 -0.029964982 -0.028237797
-0.03693345 -0.061168462 -0.09618963 -0.112217054 -0.01944581 -0.01555983 0.014285209 -0.09510657
-0.12731469 -0.19811836 -0.03832472 -0.05371506 -0.1731927 -0.06881837 -0.006469785 -0.04532781
0.02043933 0.029038537 -0.0064382097 -0.016410043 -0.044965178 0.0791001 0.045461208 0.017515432
0.022597678 -0.009712755 0.0024883067 -0.049925715 0.0948976 0.058356605 -0.022042582 0.014103824
0.067550525 -0.0038913821 0.038215764 0.030215017 -0.050211646 0.0489122 0.02573969 0.089350566
0.016083661 0.019107047 0.10969425 -0.00063138444 -0.00076755136 0.0005542017 -0.00019083828 0.0021869738
0.002180456 0.0005545672 0.0021394251 0.0030265967 0.0019893597 0.0030631402 0.0036922356 0.0017009508
0.002848129 0.0035314197 0.00041347512 0.001648734 0.0025432808 -0.031934522 -0.06622527 -0.1563504
-0.109446704 -0.011067805 -0.13719591 0.02732082 -0.11897829 -0.06982078 -0.0119601535 -0.03662154
-0.05719748 0.014017862 -0.0071022124 -0.017490042 0.058618154 0.01753836 0.011045383 -0.00056904054
-0.00066117506 -0.00067213847 -0.0005871473 -0.00069883897 -0.00072328706 -0.0005881296 -0.0007025013 -0.0007578607
2.9588738e-16 3.0167761e-16 2.4315452e-16 4.1154982e-17 1.1826566e-17 1.29828015e-17 3.2770135e-19 -2.7229392e-21
-9.685302e-21 -0.033086404 -0.04826219 0.052815653 0.042052135 0.031639695 0.07643015 -0.012331369
0.052335713 -0.025763864 0.0047952454 0.004130221 0.003608599 0.004667315 0.0040608244 0.0035470359
0.004511593 0.003913131 0.003469534 0.077991664 0.063124195 -0.008368992 0.029841363 0.026893327
-0.024034128 0.0744494 0.12162004 0.090265 -0.00030206892 -0.0012574388 -0.000403445 -0.0006677838
0.003009776 -0.0005639798 -0.0016334018 -0.0020373457 -0.00039164734 -0.0011100393 -0.0015575158 0.004295957
-0.00059040857 0.0012368674 0.0011630912 -0.0016056027 -0.00012877081 0.0016184093 -0.2418027 -0.23389605
-0.23960689 -0.24968228 -0.21411233 -0.21813162 -0.24229093 -0.2472957 -0.2280458 0.08586407
0.1346582 0.12489716 0.14299661 0.17625588 0.11923627 0.1553468 0.14372295 0.08052024
0.03578761 -0.019371988 0.09402637 0.09545517 0.12988578 0.019806804 0.05473328 0.067992635
0.1276668 0.10047343 -0.01832359 -0.050942488 -0.03920799 -0.0061166864 0.0933927 0.060864516
0.111265995 0.085594535 0.041030042 -0.012582641 0.114458606 0.108109884 0.07614338 -0.011278693
0.10600056 0.046570353 0.086744 0.00058863376 -0.0005531795 -0.0074432353 -0.000412738 0.0014059937
-0.0021549028 -0.0009928872 0.0022699432 -0.0024563128 -0.0012047628 -0.0033573378 -0.00329761 -0.0016833186
00000000: 04bb 7607 c6b9 7104 f183 7f86 ebda 6407
00000010: 8c74 1a84 c6dd 4407 9691 1002 ac20 cd81
00000020: a1ad 2405 de67 d3bc c73a c13d 334d ce3d
00000030: 75be 24bc c769 853d 03a9 ee3d 4b35 cd3c
00000040: d646 d73d bfb7 db3d 642d 28bb eb9c 08bb
00000050: 9e03 deba 999c 0fbb fb0a fbba 5260 bcba
00000060: 0ab2 eaba d82b cdba a357 98ba 9fd8 9cbc
00000070: e469 8b3d 4ca4 b73c 7a0c 9b3d c9a3 8a3d
00000080: deee 60bd 689b 103d bed1 473d 3e6e 613d
00000090: d23a 223a 9a64 20ba 118f 14ba 9924 8b3b
000000a0: 4635 293b 1ebf 503a 0902 813b 0ecb 9b3b
000000b0: 121f 0d3b 26c5 52b5 37a8 d0ba 736a d0ba
000000c0: e8bb ac36 1fd0 5638 bd99 b738 78a2 9eb7
000000d0: 54a5 0bbb 0b2c 0dbb 1f79 f5bc f452 e7bc
000000e0: 8747 17bd c88b 7abd 12ff c4bd 0ed2 e5bd
000000f0: d24c 9fbc a8ee 7ebc 820c 6a3c 3cc7 c2bd
00000100: c85e 02be 8adf 4abe 62fa 1cbd 5304 5cbd
00000110: 6d59 31be a5f0 8cbd 7d00 d4bb a7a9 39bd
00000120: 6270 a73c 3ae2 ed3c 9ef7 d2bb 5b6e 86bc
00000130: 682d 38bd 3cff a13d 8835 3a3d 867c 8f3c
00000140: c41e b93c 3f22 1fbc dc12 233b e87e 4cbd
00000150: ac59 c23d 5607 6f3d a592 b4bc ba13 673c
00000160: ee57 8a3d 8f06 7fbb 2288 1c3d 7c85 f73c
00000170: baaa 4dbd 2958 483d 0bdc d23c 6efd b63d
00000180: e2c1 833c 6286 9c3c 61a7 e03d 7e83 25ba
00000190: 8035 49ba d947 113a c31b 48b9 5553 0f3b
000001a0: fbe5 0e3b 6060 113a 9935 0c3b de59 463b
000001b0: eb5f 023b f7be 483b 6ff9 713b 70f2 de3a
000001c0: ada7 3a3b 646f 673b b1c7 d839 551a d83a
000001d0: 2cad 263b c6cd 02bd 1da1 87bd 521a 20be
000001e0: 9825 e0bd bd55 35bc 167d 0cbe eacf df3c
000001f0: e4aa f3bd 32fe 8ebd 85f4 43bc 7800 16bd
00000200: e847 6abd 2dab 653c adb9 e8bb 4747 8fbc
00000210: 9719 703d 9bac 8f3c b2f7 343c aa2b 15ba
00000220: b552 2dba 7332 30ba caea 19ba 4a32 37ba
00000230: f99a 3dba b62c 1aba 1028 38ba 2cab 46ba
00000240: 4591 aa25 c2e7 ad25 462b 8c25 3acb 3d24
00000250: 6129 5a23 8c7d 6f23 d470 c120 4ebd 4d9d
00000260: 3ff3 369e 9c85 07bd 93ae 45bd 3a55 583d
00000270: dc3e 2c3d a098 013d 6987 9c3d 8309 4abc
00000280: f95d 563d bd0e d3bc 6f21 9d3b ce56 873b
00000290: 3f7e 6c3b 47f0 983b aa10 853b 6375 683b
000002a0: fcd5 933b b939 803b 1f61 633b 18ba 9f3d
000002b0: 4247 813d 191e 09bc e075 f43c 654f dc3c
000002c0: 38e3 c4bc ed78 983d ed13 f93d dbdc b83d
000002d0: 015f 9eb9 a5d0 a4ba 7985 d3b9 360e 2fba
000002e0: a93f 453b 0bd8 13ba df17 d6ba fd84 05bb
000002f0: 0456 cdb9 bd7e 91ba 8f25 ccba 19c5 8c3b
00000300: a6c5 1aba 621e a23a dd72 983a 1673 d2ba
00000310: a706 07b9 ce20 d43a 219b 77be 7282 6fbe
00000320: 825b 75be b6ac 7fbe 4340 5bbe e55d 5fbe
00000330: 1d1b 78be 153b 7dbe d784 69be 80d9 af3d
00000340: d7e3 093e 15ca ff3d b46d 123e 6c7c 343e
00000350: 2532 f43d 3b13 1f3e 1c2c 133e cce7 a43d
00000360: 0796 123d 01b2 9ebc e690 c03d 007e c33d
00000370: c700 053e e141 a23c 0130 603d b93f 8b3d
00000380: 16bb 023e 03c5 cd3d 5a1b 96bc 12a9 50bd
00000390: 8f98 20bd 7c6e c8bb ac44 bf3d 124d 793d
000003a0: 6ddf e33d 304c af3d 1e0f 283d 6c27 4ebc
000003b0: 4669 ea3d b768 dd3d 0ff1 9b3d 44ca 38bc
000003c0: d216 d93d 8ec0 3e3d d7a6 b13d 8b4e 1a3a
000003d0: 3f03 11ba 62e6 f3bb c264 d8b9 5249 b83a
000003e0: 4539 0dbb c423 82ba 54c3 143b 17fa 20bb
000003f0: 22e9 9dba c806 5cbb b71c 58bb cda2 dcba

conv3.bias f4 [8]
0.12584531 -0.04727653 -2.5731722e-10 -0.002367017 -0.062319092 -0.038060978 -0.0032404538 -0.017914226
00000000: 98dd 003e 09a5 41bd 2e76 8daf f51f 1bbb
00000010: 4e42 7fbd d4e5 1bbd cb5d 54bb dbc0 92bc

conv4.weight f4 [4, 8, 3, 3]
-0.07874112 -0.028887572 -0.08281629 0.06742538 -0.01829964 -0.052871745 0.0139403725 -0.09964724
-0.06513076 0.015954778 -0.067360595 0.024071744 -0.0046771807 -0.06750171 -0.07642075 0.01065304
0.02151849 -0.02399481 -1.2159684e-37 -5.8612e-41 -6.82e-42 6.135e-42 5.93e-42 -2.9919e-41
3.918e-42 4.359e-41 -1.3885334e-33 0.0126926955 0.013846464 -0.0061970395 -0.0068339063 -0.0035361014
0.0025627995 0.00559538 -0.002889523 -0.010974011 -0.063950926 0.06007743 -0.027962813 -0.02018309
-0.055048537 -0.04515219 0.0057704467 0.02018629 -0.037904866 -0.031591468 0.0414 -0.039827608
-0.055939168 -0.019628135 0.04939901 0.004258486 -0.0009408553 -0.016928574 1.0469e-41 -5.3268e-41
-9.43e-42 -1.87e-42 -6.838e-42 1.4398e-41 -4.9834e-41 4.4535e-41 -2.7907e-41 2.3636e-41
8.809118e-37 -5.8478e-41 -5.8988e-41 -2.8945e-41 -7.4177674e-37 3.0796e-41 1.0119723e-36 2.8327e-41
0.00014654054 0.00033738549 0.00039278241 0.00010623882 0.00022946786 0.00026893595 9.955077e-05 0.00029103633
0.00046381148 0.00012638184 0.0001461434 6.855775e-05 1.8313925e-05 0.0008364369 -0.0054018227 -0.00048304422
0.0017640467 0.012296776 -5.262e-42 1.3813e-41 5.7362e-41 -3.8468e-41 4.2864e-41 3.1491e-41
1.3025e-41 -5.1887e-41 2.049e-42 0.000108802924 0.00013912145 0.00010402434 2.3935618e-05 -6.3800406e-05
-0.00022536109 -9.3202245e-05 -0.002587968 -0.0035077927 0.00015329085 0.00014252076 2.3132678e-05 2.7244389e-05
-0.0009455252 -0.0006337609 -0.0017298626 -0.015220158 0.0025965935 0.00014596112 0.00018424643 6.367706e-05
4.1346557e-05 -0.0003231774 -0.00041246673 -0.0006281572 -0.0033187072 0.00083606126 -3.919503e-39 -5.3949e-41
-5.4487e-41 -3.3544e-41 1.6142e-41 -3.0002e-41 -2.753472e-39 -5.425164e-38 -1.7124e-41 2.2e-42
-4.7985e-41 1.8362126e-38 3.0118e-41 3.671e-41 -6.0214e-41 3.4218e-41 4.7417e-41 4.312e-41
-0.016969578 -0.007991317 0.005878324 0.0006332001 -0.023340441 -0.008902313 -0.004475346 -0.006040786
-0.009377278 -0.011602361 -0.0046887365 -0.019493727 -0.0069958786 -0.0005766729 -0.032590564 -0.0041751727
0.02981772 -0.0450391 1.5575e-41 3.844e-42 -2.1304e-41 -4.4214e-41 3.1127e-41 -4.9034e-41
1.6215241e-38 -4.103e-41 4.477e-42 -0.010104185 -0.011408394 -0.008501807 -0.004762287 -0.002868344
-0.0114001455 0.006769492 0.0348593 0.023154682 -0.01261302 -0.0020608213 -0.0059963474 -0.0062342025
-0.033994474 -0.030460106 -0.04437465 0.03521585 0.057762876 -0.00868695 -0.008913238 -0.011062193
-0.0004685407 -0.019456679 -0.021712206 -0.031348076 -0.009724963 -0.00396278 5.04e-43 -5.0744e-41
-9.627e-42 2.9741e-40 2.48994e-40 4.1725e-41 1.4665109e-35 -2.1373e-41 7.0285077e-37 -5.9949e-41
-4.95e-43 -5.6732318e-36 -2.5286e-41 -3.56806e-40 9.43e-42 3.0646e-41 5.8812e-41 -6.2202e-41
-0.0295903 -0.13088726 0.0589055 -0.12654696 -0.054000832 -0.031786032 -0.069223344 -0.08148478
-0.14522783 0.07311658 0.06989641 0.17130916 0.030515403 0.1804098 0.07394221 0.017040538
0.060707923 0.052852806 3.6772855e-23 -3.9718003e-11 -1.3675358e-08 2.5678737e-06 -2.0753063e-05 -4.4488388e-05
-6.5205835e-10 -1.7456092e-08 -1.6342412e-07 0.124424934 0.19440798 -0.040834993 0.10399298 0.0846688
0.04277306 0.021713303 0.16093107 0.17138654 -0.023226926 0.1523872 0.15582433 0.0940611
00000000: 0643 a1bd a1a5 ecbc 969b a9bd 5116 8a3d
00000010: 20e9 95bc 0b90 58bd 2966 643c da13 ccbd
00000020: 4763 85bd 98b3 823c 5af4 89bd 1b32 c53c
00000030: 0943 99bb 563e 8abd 7b82 9cbd 178a 2e3c
00000040: 8b47 b03c c490 c4bc 5182 2582 63a3 0080
00000050: 0313 0080 1a11 0000 8810 0000 6753 0080
00000060: ec0a 0000 8379 0000 aeb5 e688 06f5 4f3c
00000070: 48dc 623c 8910 cbbb f6ee dfbb f0bd 67bb
00000080: a4f4 273b 7359 b73b 275e 3dbb 57cc 33bc
00000090: b4f8 82bd c013 763d 4512 e5bc 0257 a5bc
000000a0: 937a 61bd 81f1 38bd 0416 bd3b b85d a53c
000000b0: 2242 1bbd 0e66 01bd 0c93 293d 4622 23bd
000000c0: 7820 65bd 2fcb a0bc 9e56 4a3d c58a 8b3b
000000d0: bba3 76ba cbad 8abc 2f1d 0000 7d94 0080
000000e0: 491a 0080 3605 0080 1013 0080 2328 0000
000000f0: eb8a 0080 257c 0000 cb4d 0080 e341 0000
00000100: 1fe1 9503 03a3 0080 6fa4 0080 b050 0080
00000110: de69 7c83 d955 0000 9c2d ac03 f74e 0000
00000120: ada8 1939 1de3 b039 5dee cd39 88cc de38
00000130: 4f9d 7039 f9ff 8c39 eac5 d038 3c96 9839
00000140: b92b f339 5e85 0439 123e 1939 a9c6 8f38
00000150: dba0 9937 5544 5b3a c601 b1bb 1941 fdb9
00000160: 9637 e73a 6b78 493c ab0e 0080 8126 0000
00000170: e79f 0000 3c6b 0080 7d77 0000 c957 0000
00000180: 4f24 0000 a490 0080 b605 0000 202d e438
00000190: 21e1 1139 a427 da38 59c9 c837 95cc 85b8
000001a0: e84e 6cb9 9375 c3b8 e69a 29bb ffe2 65bb
000001b0: b3bc 2039 a071 1539 0c0d c237 e18a e437
000001c0: 1fdd 77ba f922 26ba 8fbc e2ba f85d 79bc
000001d0: 9c2b 2a3b 240d 1939 4632 4139 5c8a 8538
000001e0: 876b 2d38 2370 a9b9 5940 d8b9 ebaa 24ba
000001f0: ab7e 59bb 1f2b 5b3a fbad 2a80 6396 0080
00000200: e397 0080 825d 0080 ff2c 0000 a253 0080
00000210: 8ffb 1d80 e0af 9381 bc2f 0080 2206 0000
00000220: c385 0080 23f2 c700 f553 0000 5566 0000
00000230: daa7 0080 635f 0000 2e84 0000 3378 0000
00000240: c903 8bbc 03ee 02bc f59e c03b 57fd 253a
00000250: 7434 bfbc 02db 11bc eca5 92bb c9f1 c5bb
00000260: 28a3 19bc d417 3ebc f9a3 99bb 4fb1 9fbc
00000270: af3d e5bb dd2b 17ba af7d 05bd e3cf 88bb
00000280: 4b44 f43c eb7a 38bd 6b2b 0000 b70a 0000
00000290: 633b 0080 407b 0080 c556 0000 b088 0080
000002a0: 7f91 b000 6072 0080 7b0c 0000 068c 25bc
000002b0: 46ea 3abc 2a4b 0bbc f50c 9cbb d4fa 3bbb
000002c0: adc7 3abc 9dd2 dd3b a0c8 0e3d e3ae bd3c
000002d0: d7a6 4ebc d80e 07bb 027d c4bb 4848 ccbb
000002e0: ca3d 0bbd 7987 f9bc 31c2 35bd 7f3e 103d
000002f0: c498 6c3d b653 0ebc d408 12bc 333e 35bc
00000300: 78a6 f5b9 9d63 9fbc ccdd b1bc d766 00bd
00000310: 7455 1fbc 35da 81bb 6801 0000 748d 0080
00000320: d61a 0080 0f3d 0300 18b6 0200 5074 0000
00000330: 39f2 9b05 943b 0080 f02a 6f03 1da7 0080
00000340: 6101 0080 0650 f184 7d46 0080 a1e2 0380
00000350: 491a 0000 6e55 0000 f2a3 0000 65ad 0080
00000360: 5b67 f2bc 4f07 06be e546 713d 8795 01be
00000370: fa2f 5dbd 1232 02bd f8c4 8dbd 7ee1 a6bd
00000380: 9bb6 14be 25be 953d d925 8f3d ab6b 2f3e
00000390: 70fb f93c 59bd 383e 036f 973d 9998 8b3c
000003a0: dfa8 783d 2f7c 583d 97d2 311a 7fae 2eae
000003b0: dcf0 6ab2 bc53 2c36 dd16 aeb7 0b99 3ab8
000003c0: 873c 33b0 5af2 95b2 ae79 2fb4 80d2 fe3d
000003d0: e312 473e 9842 27bd 46fa d43d d666 ad3d
000003e0: ce32 2f3d 19e0 b13c 1dcb 243e f47f 2f3e
000003f0: 6546 bebc 640b 1c3e 6a90 1f3e 1ba3 c03d

conv4.bias f4 [4]
0.0715393 -0.00013817498 0.010982449 0.04436049
00000000: 3283 923d 10e3 10b9 bbef 333c 58b3 353d

conv5.weight f4 [2, 4, 3, 3]
-1.4601252e-21 -1.33387e-26 -3.9619507e-26 7.2470246e-17 2.5636284e-17 -3.250592e-27 5.9021744e-33 4.784141e-17
9.68246e-18 -1.7252522e-23 -1.3859096e-32 -2.6906445e-33 2.5778073e-19 -4.9393e-41 -5.384459e-28 2.6709985e-18
-1.4069377e-28 1.2838862e-31 -9.01129e-36 4.2511017e-21 1.6132032e-25 2.2364216e-16 -4.72e-43 8.819484e-18
-3.1057e-41 2.2467e-41 2.6025e-41 -0.019170372 -0.017416907 -0.01938512 -0.022572288 -0.022454765
-0.022502208 -0.019631041 -0.018480357 -0.019170428 -0.08641395 -0.100274816 0.13027534 0.111760326
0.029539654 -0.093956545 -0.0035344926 -0.098003365 0.06648297 0.0003489815 0.00034102687 -0.0011588722
0.0005802905 0.000590833 -0.0010117075 -6.839698e-05 -0.000111634654 -0.0009995376 -0.058585696 0.12747465
-0.03665744 0.069617376 -0.045153957 0.009820356 0.046345238 -0.07894428 0.044463582 -0.12791215
0.060347352 -0.009332437 0.11595772 0.25483227 0.09677753 0.012715147 0.015205202 0.12601715
00000000: dca5 dc9c 9f19 8494 b12f 4495 e21a a724
00000010: f773 ec23 ebc4 8093 af2a f509 2ba1 5c24
00000020: 209c 3223 2ddb a699 cceb 8f8a ae87 5f89
00000030: b92a 9820 b089 0080 eca3 2a92 bc15 4522
00000040: bd59 3291 70a8 260c 21a6 3f85 229a a01d
00000050: 73b4 4716 c2eb 8025 5101 0080 d6b0 2223
00000060: 9356 0080 a13e 0000 8c48 0000 2f0b 9dbc
00000070: e7ad 8ebc 8bcd 9ebc 85e9 b8bc 0ef3 b7bc
00000080: 8d56 b8bc 47d1 a0bc 1e64 97bc 4d0b 9dbc
00000090: ccf9 b0bd e25c cdbd e666 053e 99e2 e43d
000000a0: 25fd f13c 4a6c c0bd f2a2 67bb fdb5 c8bd
000000b0: 3928 883d 81f7 b639 dacb b239 4ce5 97ba
000000c0: a31e 183a 22e2 1a3a 459b 84ba 5970 8fb8
000000d0: 661d eab8 eb02 83ba 8ef7 6fbd b788 023e
000000e0: 1d26 16bd 8e93 8e3d 5bf3 38bd 8fe5 203c
000000f0: 81d4 3d3d 8aad a1bd 721f 363d 67fb 02be
00000100: c92e 773d 14e7 18bc 3e7b ed3d 6079 823e
00000110: 4c33 c63d 3153 503c 3d1f 793c a40a 013e

conv5.bias f4 [2]
-0.020475501 0.061484795
00000000: 3dbc a7bc 7bd7 7b3d

fc1.weight f4 [256, 512]
5.188e-42 -6.3054e-41 3.8415e-41 -1.1126e-41 3.3735e-41 5.961e-42 -5.3559e-41 4.7714e-41
-3.8445e-41 7.858e-42 1.8266e-41 4.3712e-41 1.753e-42 -5.7628e-41 8.705e-42 1.2268e-41
-8.74e-42 -4.023e-41 4.1333e-41 -5.5183e-41 2.9388e-41 -9.86e-42 4.942e-41 2.4285e-41
-1.066499e-39 1.9863e-41 -5.571e-41 -5.036e-42 3.77e-42 4.7332e-41 -6.0514e-41 -5.2791e-41
2.8177e-41 -4.4982e-41 3.7632e-41 5.4663e-41 2.8358e-41 3.8615485e-29 1.387652e-38 -5.8581e-41
4.0562e-41 -2.9672e-41 -6.183156e-29 -3.3787e-41 -3.1049e-41 1.2292135e-25 3.969631e-12 -9.94676e-14
-4.6445283e-22 -1.403726e-15 -8.1141485e-13 -2.183801e-14 -2.1626678e-25 9.172487e-37 -1.2805914e-14 1.0039829e-17
-3.2728218e-26 -1.0801267e-15 -7.339201e-09 -1.1390259e-09 -7.6360186e-18 3.8299e-41 2.8144474e-26 -3.128e-41
3.630055e-39 -1.01085025e-25 3.071845e-18 9.9877016e-17 -1.6695206e-22 -2.796787e-37 4.834e-41 4.1837e-41
1.24909e-40 1.79405e-40 -4.4446e-41 -9.852521e-39 -5.2633e-41 1.6066e-41 -1.7054e-41 4.6041e-41
-1.553e-42 -1.3653e-41 -6.0829e-41 -9.0524e-41 -2.8165e-41 3.9922e-41 4.6386e-41 -7.9859e-41
1.8499e-41 -4.284e-42 3.3062e-41 -5.884e-41 -8.1525e-41 4.834602e-39 -5.0964e-41 1.7522e-41
-5.512e-41 2.604e-41 -9.13401e-40 2.5865e-41 -9.399e-42 -4.46892e-40 -4.1534e-41 2.5995e-41
2.7962e-41 -1.6376e-41 3.215e-41 2.0706e-41 2.8732e-41 5.6568e-41 8.462e-42 -3.229e-42
-4.0967e-41 2.8273e-41 -3.63083e-40 -1.93103e-40 2.2377e-41 7.954e-42 2.1769e-41 6.114e-42
2.5684e-41 -5.7578e-41 -8.046e-42 1.0281e-41 1.76444e-40 -5.4384e-41 1.475e-41 1.4658e-41
-5.0871e-41 -9.606e-41 -6.1542e-41 -5.9906e-41 1.093e-41 -1.09503e-40 -9.62e-42 2.4143e-41
3.25e-42 -8.26512e-40 -8.5754e-41 2.0380902e-38 -5.0129e-41 7.89e-43 -9.10023e-40 5.2477e-41
-2.7049e-41 -6.0783e-41 -2.861e-42 2.7009e-41 -1.2288e-40 -4.0015e-41 3.2095e-41 -5.4166e-41
4.9443e-41 6.1754097e-38 -8.6988e-41 2.4426e-41 3.1875e-41 -5.10022e-40 -9.3576e-41 2.2642e-41
1.3849e-41 -5.5861e-41 1.50721e-40 -4.1345e-41 -5.8744e-41 7.58e-42 5.0188e-41 1.4411e-41
6.0523e-41 1.9422e-41 3.9581e-41 -5.061e-41 -1.023384e-39 3.6819e-41 1.1104e-41 5.3488e-41
2.8406e-41 5.2535e-41 -4.8327e-41 -1.124677e-39 4.789166e-39 -4.3194e-41 3.417e-41 2.139e-41
-1.469e-42 -2.0252222e-35 -5.810428e-37 -1.19602e-40 -4.405e-41 5.2351205e-38 7.69e-42 3.5508e-41
4.4374e-41 1.0052e-41 -8.54e-42 -6.1328e-41 -4.9663e-41 -6.3211e-41 -5.7877e-40 -4.14e-42
5.3656e-41 4.4334e-41 -3.546e-41 2.2365e-41 2.6164e-41 2.2302e-41 4.728e-42 -1.991e-42
5.3087e-41 -9.92065e-40 2.0468456e-38 -3.3477e-41 -7.16e-43 2.6131e-41 -4.1086e-41 -1.988e-41
2.0221e-41 3.2415e-41 4.598e-42 -4.7573e-41 -1.4729e-41 -2.7634e-41 2.512e-41 5.5786e-41
4.0852e-41 1.33923e-40 -2.2138e-41 2.6084e-41 5.4516e-41 3.07e-43 -7.896e-42 -1.13442e-40
3.4686e-41 7.777e-42 2.0670783e-38 -3.7062e-41 1.0126e-41 2.486e-41 1.5163e-41 1.11e-41
1.3637e-41 -3.312e-41 -3.8593e-41 -6.215e-42 -9.3e-43 -4.4854e-41 -4.116e-41 -1.7251e-41
-4.987e-42 2.644e-42 4.7759e-41 3.4866e-41 -3.217e-42 6.282e-42 -4.13e-42 -5.317e-42
00000000: 760e 0000 c5af 0080 166b 0000 041f 0080
00000010: 0a5e 0000 9e10 0000 4d95 0080 0285 0000
00000020: 2b6b 0080 e815 0000 eb32 0000 da79 0000
00000030: e304 0000 a5a0 0080 4418 0000 3322 0000
00000040: 5d18 0080 2570 0080 3873 0000 d499 0080
00000050: ec51 0000 7c1b 0080 c389 0000 b243 0000
00000060: f79c 0b80 5f37 0000 4c9b 0080 0a0e 0080
00000070: 820a 0000 f183 0000 b0a8 0080 2993 0080
00000080: 8c4e 0000 647d 0080 e768 0000 6198 0000
00000090: 0d4f 0000 c4cd 4310 181a 9700 4da3 0080
000000a0: 1271 0000 b752 0080 fac2 9c90 2f5e 0080
000000b0: 8d56 0080 552b 1816 42ab 8b2c 2bfb dfa9
000000c0: 4c5f 0c9c 594c caa6 9a64 64ab 06b3 c4a8
000000d0: d7dc 8596 d10f 9c03 dbb0 66a8 c133 3923
000000e0: f20f 2295 a4a9 9ba6 4b2c fcb1 e98b 9cb0
000000f0: 14dc 0ca3 c36a 0000 5c5d 0b15 3257 0080
00000100: 1e87 2700 3f46 fa95 83a9 6222 fc4c e624
00000110: 29d5 499b e756 be82 c186 0000 a074 0000
00000120: 325c 0100 1cf4 0100 e67b 0080 d248 6b80
00000130: b892 0080 c92c 0000 8a2f 0080 5880 0000
00000140: 5404 0080 0f26 0080 91a9 0080 58fc 0080
00000150: 834e 0080 496f 0000 4e81 0000 9dde 0080
00000160: 9133 0000 f10b 0080 2a5c 0000 06a4 0080
00000170: 42e3 0080 e7a4 3400 118e 0080 d830 0000
00000180: a799 0080 9748 0000 31f2 0980 1a48 0000
00000190: 331a 0080 c1dd 0480 c873 0080 7748 0000
000001a0: f24d 0000 a62d 0080 9f59 0000 b839 0000
000001b0: 1850 0000 b09d 0000 9717 0000 0009 0080
000001c0: 3372 0080 d04e 0000 21f4 0380 4b1a 0280
000001d0: 613e 0000 2c16 0000 af3c 0000 0b11 0000
000001e0: 9947 0000 81a0 0080 6e16 0080 a91c 0000
000001f0: dbeb 0100 9a97 0080 1e29 0000 dc28 0000
00000200: cf8d 0080 c70b 0180 8eab 0080 fea6 0080
00000210: 781e 0000 4031 0180 d11a 0080 4d43 0000
00000220: 0f09 0000 fbff 0880 0cef 0080 aaed dd00
00000230: bd8b 0080 3302 0000 c6e8 0980 4992 0000
00000240: 674b 0080 70a9 0080 fa07 0080 4a4b 0000
00000250: 8a56 0180 8c6f 0080 7859 0000 fe96 0080
00000260: d489 0000 531c a801 7df2 0080 1744 0000
00000270: db58 0000 bc8d 0580 da04 0180 1e3f 0000
00000280: 9b26 0000 b89b 0080 26a4 0100 4173 0080
00000290: c1a3 0080 2115 0000 e78b 0000 2c28 0000
000002a0: b7a8 0000 2436 0000 566e 0000 158d 0080
000002b0: c724 0b80 a366 0000 f41e 0000 1a95 0000
000002c0: 2f4f 0000 7292 0000 b786 0080 243f 0c80
000002d0: 3f26 3400 6878 0080 415f 0000 a03b 0000
000002e0: 1804 0080 cb5b d785 f7b7 4583 674d 0180
000002f0: cb7a 0080 7783 8e01 7015 0000 fb62 0000
00000300: b27b 0000 051c 0000 ce17 0080 f5aa 0080
00000310: 718a 0080 35b0 0080 604d 0680 8a0b 0080
00000320: 9295 0000 967b 0000 d962 0080 583e 0000
00000330: ef48 0000 2b3e 0000 2e0d 0000 8d05 0080
00000340: fc93 0000 79cd 0a80 bae1 de00 525d 0080
00000350: ff01 0080 d848 0000 8872 0080 6b37 0080
00000360: 5e38 0000 5c5a 0000 d10c 0000 9d84 0080
00000370: 0f29 0080 084d 0080 0646 0000 829b 0000
00000380: e171 0000 5375 0100 b63d 0080 b648 0000
00000390: f897 0000 db00 0000 0316 0080 3b3c 0180
000003a0: b160 0000 ae15 0000 bc15 e100 5067 0080
000003b0: 3a1c 0000 4d45 0000 452a 0000 f11e 0000
000003c0: 0426 0000 535c 0080 956b 0080 5311 0080
000003d0: 9802 0080 097d 0080 bd72 0080 1730 0080
000003e0: e70d 0080 5f07 0000 2285 0000 3161 0000
000003f0: f808 0080 8311 0000 830b 0080 d20e 0080

fc1.bias f4 [256]
-0.013415981 -0.007928795 0.026538685 -0.018879049 -0.0058111935 -0.0068398654 -0.0027875176 0.087351605
-1.4610613e-11 -1.6911964e-07 0.0006399004 -0.03970324 -0.00056263304 0.065122046 -0.008562239 0.043934442
-8.324766e-05 0.07787202 0.00016237717 0.06906646 0.09866803 2.8461302e-05 -1.51258255e-05 5.759223e-32
-7.749561e-16 0.008494967 0.045741495 -4.5509742e-14 -0.0012751161 -4.012485e-05 -6.46132e-05 9.654819e-12
-6.064817e-06 0.0056400816 0.038370896 -0.007544507 -0.0003053674 0.054721992 -0.011111743 -0.0034543218
-0.04753089 -0.009149792 -0.00350573 0.015812501 -0.0017862769 4.0059743e-21 -0.004593232 0.010690282
-0.012260204 -0.019791625 -0.008735303 -1.2232593e-12 -0.025933381 0.024385232 0.043245524 -0.0030150954
0.05202203 -6.8540676e-06 0.043227106 -0.0055460157 -0.00294861 0.00017005739 -6.59208e-06 -7.8726336e-30
-0.023469865 0.0042563486 -0.00029741778 0.042094376 -1.8921495e-05 0.0051168706 -8.322423e-06 0.03184319
-0.0058349324 0.077147126 -8.710137e-13 -0.0008613594 0.095564045 -0.0029175759 0.016037766 -0.00021636747
-1.09860306e-32 -0.00090704917 0.005801471 0.0014795248 -0.0035070549 0.018572561 0.061375808 0.054066613
0.079017565 0.022649787 0.011209955 -0.037404776 0.0092919525 0.0052783927 -0.0016123374 -0.04087017
0.06287499 -0.0009848833 -0.01739909 -0.01121141 -0.004002476 -9.2091344e-05 0.05229343 0.019208213
0.029648274 -0.0033041746 -4.6999876e-15 1.1275e-41 0.0010772699 -0.016118374 -7.149331e-05 0.06331036
-0.001293233 -9.2076004e-07 -0.017599395 -9.513944e-05 -0.018037202 0.00012373377 -2.762354e-13 -0.0025882206
-0.004628739 0.006930399 -7.824248e-08 -0.00076740654 0.017986046 0.0036484185 -0.006388994 0.009333686
0.008046729 -0.00092922186 0.049843103 -0.019078651 0.00040040072 0.021898 -0.002002709 0.070174515
0.001530239 -0.0075345286 -1.2243698e-34 -0.005809567 -0.00085796695 -0.003012763 0.013843746 0.007650068
-0.01917023 0.0053827227 -0.0020128237 -0.0033412708 0.010330291 -0.009938081 -1.3907357e-26 0.010164601
-6.037672e-09 -0.0050274483 -0.00014107664 0.010768635 0.053388923 -0.0010571895 -0.00016357678 -0.0067230333
0.0025088612 -4.335545e-08 -0.048522 -0.006887487 -0.0058217584 -0.004534085 0.0095115015 -0.00083813263
0.17146444 -0.018479813 0.013908536 0.006064932 0.06505143 -0.049845524 0.02814214 -0.0016689765
-0.004121467 0.07374498 -0.00046996094 0.02214439 0.004965857 -0.0002630894 -0.005316533 -0.0026913735
-0.0035454396 0.0043816906 -0.027036928 0.023832116 -0.009242148 -4.2840978e-07 0.05854057 -5.743848e-06
-1.4375012e-10 -1.9284158e-05 -0.015938906 -0.017656546 -2.5168301e-06 0.007345673 0.011442081 0.013307198
0.041195057 -0.0056511424 -0.00029011563 0.04397908 -0.012762955 0.066554114 -0.017696833 0.0087811705
0.067758545 -4.9957985e-06 0.00686871 -6.124421e-07 -0.062479272 0.0450358 -2.5167817e-09 0.007140024
0.053785656 0.014371963 0.05032469 0.02637617 -0.00067306915 -5.1982e-09 0.044643957 0.044203673
-0.038945742 -0.0049179653 0.081626326 -1.1715637e-10 0.0671115 -0.026054172 0.0075113853 -0.01290336
-3.8581837e-07 -0.010352974 0.07406853 -0.00011584118 0.06529267 0.053298503 -3.2545647e-18 -0.007151002
0.07300008 -0.0012014254 -0.0045071268 -0.009136599 0.019553615 0.017282173 0.0057786447 0.0023076073
-0.0032660007 -0.0003641377 -0.00958157 -0.0002625932 -1.7888746e-06 0.043643743 -0.0016476869 -5.8855987e-09
00000000: b4ce 5bbc c7e7 01bc a867 d93c 3ca8 9abc
00000010: d36b bebb f320 e0bb c9ae 36bb 66e5 b23d
00000020: 2d84 80ad 4197 35b4 fdbe 273a dd9f 22bd
00000030: aa7d 13ba b55e 853d a248 0cbc 9af4 333d
00000040: 3f95 aeb8 5e7b 9f3d ca43 2a39 b772 8d3d
00000050: 7712 ca3d 2ec0 ee37 edc4 7db7 9a84 950b
00000060: ab5d 5fa6 792e 0b3c 6f5b 3b3d 29f5 4ca9
00000070: cc21 a7ba bb4b 28b8 f380 87b8 70d9 292d
00000080: 6280 cbb6 6fd0 b83b cd2a 1d3d e937 f7bb
00000090: b819 a0b9 2b24 603d 070e 36bc e761 62bb
000000a0: c0af 42bd 02e9 15bc 64c0 65bb 3889 813c
000000b0: 8221 eaba 6857 971d d382 96bb 4b26 2f3c
000000c0: 06df 48bc 0c22 a2bc 841e 0fbc 9028 acab
000000d0: 3e72 d4bc 8ac3 c73c 3822 313d e898 45bb
000000e0: 0d15 553d fefb e5b6 e80e 313d 5abb b5bb
000000f0: 783d 41bb 6f51 3239 8931 ddb6 0dad 1f8f
00000100: e043 c0bc d778 8b3b bdee 9bb9 276b 2c3d
00000110: 9ab9 9eb7 6cab a73b 89a0 0bb7 016e 023d
00000120: f632 bfbb 50ff 9d3d 272b 75ab dacc 61ba
00000130: 15b7 c33d cd34 3fbb a261 833c b3e0 62b9
00000140: c22b 648a 0ac7 6dba 441a be3b 9dec c13a
00000150: 9ed6 65bb 7c25 983c 3365 7b3d f474 5d3d
00000160: f6d3 a13d 0c8c b93c f6a9 373c c035 19bd
00000170: 463d 183c 5ef6 ac3b 1155 d3ba 7b67 27bd
00000180: 9ac4 803d 3317 81ba 8988 8ebc 10b0 37bc
00000190: 3427 83bb 2a21 c1b8 a331 563d 8b5a 9d3c
000001a0: f0e0 f23c da8a 58bb bc55 a9a7 6e1f 0000
000001b0: 2e33 8d3a ae0a 84bc aeee 95b8 dda8 813d
000001c0: b381 a9ba 262a 77b5 9b2c 90bc 9985 c7b8
000001d0: c1c2 93bc 88be 0139 b781 9baa 239f 29bb
000001e0: adac 97bb 6718 e33b 4206 a8b3 c82b 49ba
000001f0: 7957 933c 4e1a 6f3b c45a d1bb 51ec 183c
00000200: 6dd6 033c 0697 73ba 4828 4c3d d54a 9cbc
00000210: e0ec d139 6f63 b33c e23f 03bb a8b7 8f3d
00000220: 4d92 c83a 35e4 f6bb 25bf 2287 2e5e bebb
00000230: 30e9 60ba c771 45bb e1d0 623c 6cad fa3b
00000240: e30a 9dbc 8d61 b03b 94e9 03bb 39f9 5abb
00000250: 6240 293c 55d3 22bc 57bb 8994 6d89 263c
00000260: ed73 cfb1 4bbd a4bb f9ed 13b9 ee6e 303c
00000270: 58ae 5a3d 6591 8aba cf85 2bb9 e44c dcbb
00000280: b56b 243b d235 3ab3 01bf 46bd 6eb0 e1bb
00000290: 73c4 bebb a992 94bb 21d6 1b3c 21b6 5bba
000002a0: 6094 2f3e fa62 97bc a1e0 633c 56bc c63b
000002b0: af39 853d d22a 4cbd 588a e63c 8fc1 daba
000002c0: 5f0d 87bb 9c07 973d 1765 f6b9 2768 b53c
000002d0: a1b8 a23b 43ef 89b9 5036 aebb c161 30bb
000002e0: 9b5a 68bb 4994 8f3b 8c7c ddbc 923b c33c
000002f0: 616c 17bc 3100 e6b4 3dc8 6f3d 47bb c0b6
00000300: 100e 1eaf 6ac4 a1b7 4f92 82bc 76a4 90bc
00000310: d0e6 28b6 f9b3 f03b 9177 3b3c 6f06 5a3c
00000320: 26bc 283d 382d b9bb a91a 98b9 6823 343d
00000330: b71b 51bc 864d 883d f3f8 90bc e6de 0f3c
00000340: fec4 8a3d 95a1 a7b6 ea12 e13b b366 24b5
00000350: 44ea 7fbd 7677 383d b1f3 2cb1 ddf6 e93b
00000360: 594e 5c3d 6278 6b3c 4321 4e3d d612 d83c
00000370: e870 30ba da9b b2b1 95dc 363d e90e 353d
00000380: 9285 1fbd e226 a1bb b42b a73d 96d0 00af
00000390: c171 893d 8f6f d5bc 1122 f63b 9d68 53bc
000003a0: 7922 cfb4 859f 29bc 3eb1 973d c3ef f2b8
000003b0: 2ab8 853d 884f 5a3d fd24 70a2 f452 eabb
000003c0: 1181 953d 2679 9dba 85b0 93bb acb1 15bc
000003d0: e72e a03c 5893 8d3c c95a bd3b 3a3b 173b
000003e0: 660a 56bb bce9 beb9 04fc 1cbc aaac 89b9
000003f0: 4319 f0b5 c8c3 323d 33f7 d7ba 463a cab1

fc2.weight f4 [128, 256]
-0.010438055 3.7602e-41 -0.00084095605 -5.1212e-41 1.7967e-41 -3.4736182e-15 -5.0744e-41 0.00085585425
2.7527e-41 3.2492e-41 -0.00054656056 -8.182e-42 -3.2246362e-16 -0.013071928 1.8818e-41 -0.0020466761
2.0676e-41 0.0002583164 2.729084e-08 -0.00488496 0.0019263598 -2.4217757e-08 2.4675e-41 -6.3234e-41
1.1069e-41 -0.0028037599 4.87533e-05 -9.101e-42 -0.00014681854 4.4638e-41 8.66e-43 -2.3508e-41
1.9562e-41 -2.1743359e-05 3.2617602e-06 5.5019e-41 -2.4422e-41 6.728813e-05 0.0004898124 -1.0136265e-06
-0.008223788 -0.010922344 2.449e-41 -0.006089078 1.2016e-41 -4.8311e-41 -0.00013278604 9.847437e-05
-1.2645e-41 9.268566e-05 -0.007109355 1.161e-41 1.924693e-05 0.00035781175 5.695949e-05 -1.977e-41
-0.00081390765 5.512e-41 -0.0040178834 -0.0004820037 5.4079e-41 3.965379e-19 3.5723e-41 1.7923e-41
-0.00051072234 -0.0010931774 1.4793626e-06 0.0005558918 -5.0496e-41 1.8345956e-08 4.5507e-41 0.0009808607
9.722e-42 -0.0047708624 3.372e-42 -2.9202e-41 0.0015579135 5.2086e-41 -0.00048377464 1.4771e-41
-5.6722e-41 -2.9328e-41 -1.0268283e-05 1.9238056e-29 -0.007480154 0.00028411296 -0.0034496468 -5.7651e-41
-0.0022916987 0.00022861005 -0.004562554 1.0168887e-21 0.000144217 -0.00023541779 -1.6920837e-35 -0.011286771
0.0030478549 2.3304e-41 -0.0012038931 2.3586422e-07 -0.001620156 -2.726e-41 2.9531e-41 -0.0028853589
4.2287e-41 -1.8019e-41 5.3907e-41 -2.0504e-41 8.736565e-09 -0.010956601 -5.0958e-41 -8.287e-42
1.8553e-41 4.9459e-41 -0.012804958 3.0473e-41 3.0138086e-26 -3.2075812e-21 -3.5032e-41 6.1824e-41
-0.010919909 0.002353575 5.9617e-41 -3.342e-41 -1.9185e-41 0.00011707758 5.9558e-41 -5.3736847e-05
9.241371e-05 1.26e-42 7.064e-42 8.653e-42 4.0764e-41 -9.457656e-06 3.2533e-41 0.005983627
-1.7035542e-05 2.0739914e-17 2.7976e-41 -5.346e-41 5.2062e-41 -6.1273e-41 2.1347392e-07 -0.010640212
7.1477625e-05 -0.00012420677 5.0929e-41 4.2265e-41 -0.0027854515 -8.2215556e-05 4.9652e-41 -0.00030498323
-1.1693127e-05 -0.0005482188 -4.9439e-41 -0.00995 -0.00078638195 -2.6398e-41 1.9691e-41 -4.3624e-41
-1.4373282e-05 1.642e-42 -0.010621372 3.8962e-41 4.316723e-17 -1.3058027e-35 -8.081698e-06 -2.7527e-41
-0.011455949 -0.0112019135 8.4725164e-30 -0.0086208815 -0.0029454846 1.0501005e-31 -3.0096e-41 0.00035244683
-0.009602214 0.0012637448 -4.235e-42 2.8535e-41 0.00042108662 5.5337572e-17 -0.010804336 2.986e-41
-5.2966e-41 2.4908464e-11 3.2614e-41 -1.1376316e-05 2.567e-42 -5.8958e-41 0.0017651294 -8.445093e-16
3.0665e-41 9.597e-42 9.514628e-13 -4.5312e-41 6.1003e-41 -0.0055146413 -0.004715674 0.0010757744
-0.005964342 -0.008809211 -1.828e-41 -0.00091940985 5.2923e-41 0.005823878 1.1123061e-05 2.816136e-07
0.0035631645 -3.8415e-41 -8.144201e-05 -1.23e-43 -0.00036291537 -0.0014634769 1.8322e-41 -0.00014132861
-0.0013184047 -8.341616e-05 -0.0015967416 -7.963218e-06 4.7405e-41 -7.76e-42 -0.001627804 -0.0011490013
-0.0036489568 -0.0017762893 -4.1471354e-05 -4.406707e-10 3.4086318e-07 -0.010712529 -3.833986e-08 4.4389e-41
-3.9283e-41 -9.258e-42 -1.33616975e-08 5.577e-41 0.0001623263 -0.00017792938 -2.2824e-41 3.6085e-41
-0.0076068775 -5.721e-41 -5.7565e-41 -7.8417575e-26 5.312262e-05 -0.009420448 -0.00022550773 -3.8886537e-05
-3.8785e-41 -3.3475214e-09 -0.000427763 1.1762894e-25 -3.5522e-41 -0.00041271202 -1.289e-42 -1.1841e-41
00000000: 6004 2bbc d268 0000 9b73 5cba c28e 0080
00000010: 1632 0000 f24c 7aa7 748d 0080 685b 603a
00000020: bc4c 0000 935a 0000 0f47 0fba cf16 0080
00000030: 3be3 b9a5 a42b 56bc 7534 0000 8721 06bb
00000040: a339 0000 a46e 8739 316d ea32 0412 a0bb
00000050: e97d fc3a 6907 d0b2 c944 0000 45b0 0080
00000060: db1e 0000 49bf 37bb 757c 4c38 5f19 0080
00000070: 4df3 19b9 6f7c 0000 6a02 0000 8841 0080
00000080: 8836 0000 8265 b6b7 9de4 5a36 5f99 0000
00000090: 1444 0080 0a1d 8d38 c166 003a f10b 88b5
000000a0: 11bd 06bc a2f3 32bc 4544 0000 e386 c7bb
000000b0: 7f21 0000 ac86 0080 7b3c 0bb9 0684 ce38
000000c0: 4023 0080 3c60 c238 98f5 e8bb 5d20 0000
000000d0: 7874 a137 ae98 bb39 c9e7 6e38 1c37 0080
000000e0: 6b5c 55ba a799 0000 73a8 83bb 71b5 fcb9
000000f0: c096 0000 1d13 ea20 9563 0000 f631 0000
00000100: ffe1 05ba f248 8fba 838e c635 44b9 113a
00000110: c38c 0080 2f97 9d32 db7e 0000 3990 803a
00000120: 1a1b 0000 e554 9cbb 6609 0000 6751 0080
00000130: e732 cc3a 3291 0000 22a3 fdb9 2d29 0000
00000140: 1e9e 0080 c151 0080 f145 2cb7 d918 c30f
00000150: 141c f5bb fff4 9439 7813 62bb b5a0 0080
00000160: 5330 16bb 0bb7 6f39 7a81 95bb faaa 991c
00000170: f538 1739 7bda 76b9 e6ee b385 26ec 38bc
00000180: 85be 473b f640 0000 f3cb 9dba dd41 7d34
00000190: 6a5b d4ba fd4b 0080 5252 0000 4a18 3dbb
000001a0: e175 0000 3b32 0080 4596 0000 2839 0080
000001b0: d217 1632 5183 33bc 0d8e 0080 1a17 0080
000001c0: b833 0000 df89 0000 e3cb 51bc f254 0000
000001d0: 903c 1515 a55b 729d a861 0080 57ac 0000
000001e0: 6be9 32bc 703e 1a3b 30a6 0000 295d 0080
000001f0: 7b35 0080 8c87 f538 06a6 0000 8063 61b8
00000200: 3cce c138 8303 0000 b113 0000 1f18 0000
00000210: a271 0000 53ac 1eb7 b05a 0000 4d12 c43b
00000220: 8ce7 8eb7 bd4a bf23 fc4d 0000 0695 0080
00000230: 2191 0000 ceaa 0080 4437 6534 4954 2ebc
00000240: 42e6 9538 803d 02b9 f88d 0000 d175 0000
00000250: 1f8c 36bb 246b acb8 698a 0000 28e6 9fb9
00000260: 992d 44b7 57b6 0fba d189 0080 5305 23bc
00000270: 3325 4eba 9649 0080 e436 0000 9b79 0080
00000280: c724 71b7 9404 0000 4305 2ebc 9c6c 0000
00000290: df12 4724 55db 8a85 a196 07b7 bc4c 0080
000002a0: bcb1 3bbc 3b88 37bc d2d7 2b0f 993e 0dbc
000002b0: 0809 41bb 934f 080c e553 0080 9dc8 b839
000002c0: 9b52 1dbc 3da4 a53a ce0b 0080 8b4f 0000
000002d0: 4ac5 dc39 1333 7f24 ab04 31bc 3d53 0000
000002e0: a693 0080 e018 db2d ea5a 0000 e8dc 3eb7
000002f0: 2807 0000 5aa4 0080 ea5b e73a ca69 73a6
00000300: 7b55 0000 c11a 0000 0fe8 852b 507e 0080
00000310: 0daa 0000 2ab4 b4bb f185 9abb 0001 8d3a
00000320: 8770 c3bb 8254 10bc f532 0080 8d04 71ba
00000330: 8793 0000 3bd6 be3b 2f9d 3a37 ae30 9734
00000340: fb83 693b 166b 0080 d9cb aab8 5800 0080
00000350: ad45 beb9 23d2 bfba 1333 0000 9c31 14b9
00000360: 52ce acba b6ef aeb8 c249 d1ba c399 05b7
00000370: 2584 0000 a215 0080 0a5c d5ba 169a 96ba
00000380: 5623 6fbb 61d2 e8ba 87f1 2db8 e342 f2af
00000390: e1ff b634 9a83 2fbc 1fab 24b3 bd7b 0000
000003a0: 816d 0080 cf19 0080 5e8d 65b2 779b 0000
000003b0: 2236 2a39 8e92 3ab9 a03f 0080 9764 0000
000003c0: 1d43 f9bb 7a9f 0080 78a0 0080 0b27 c295
000003d0: fbcf 5e38 3958 1abc 4576 6cb9 1a1a 23b8
000003e0: 1e6c 0080 380a 66b1 6145 e0b9 199e 1116
000003f0: 0563 0080 4561 d8b9 9803 0080 0221 0080

fc2.bias f4 [128]
0.032448485 0.01925926 0.0073996806 -8.227081e-06 0.09614706 0.072099745 -0.0007171144 -0.036270477
-0.00015221424 -0.0023006129 -0.0052127256 -6.0548755e-10 0.013405846 0.017671987 0.060120154 -0.008865457
-5.6690665e-14 -2.2656884e-06 0.04381613 0.041977752 -0.0022657611 -0.0011517657 -0.0063815843 -0.02390676
-0.02232185 0.1034802 0.02919728 -0.03534896 0.068364814 -0.09793139 0.018676022 -3.011e-42
-7.226481e-05 -0.016356608 -1.3859186e-06 -0.0038342222 0.09014515 0.055935398 0.02570798 0.033546332
0.03718387 -0.001585486 0.0827317 -6.636119e-06 -0.039803524 0.10055228 0.06771847 0.07749943
0.03916497 -4.834428e-11 0.008985264 -0.0023796977 -7.184046e-09 0.08093705 0.10047458 -0.0059944615
-5.9591175e-06 0.039806116 -1.6539901e-09 0.0634623 -0.00061339594 0.03755916 0.0011745121 0.037192665
-0.037517175 0.016097449 -9.18635e-10 -0.01934373 0.039211024 0.0075665913 0.13471435 -1.476586e-05
-6.3477695e-05 0.0341262 -0.0022641001 0.05920371 -0.041499216 -0.020821987 0.016368479 -0.031551987
-4.0708653e-23 -0.024612049 0.06553234 0.05955931 0.033978518 0.03301947 0.010282503 -0.021364827
-0.024349889 -0.00023244708 0.058410794 -0.021972604 0.05857839 0.024350794 -0.00026024602 0.060969282
0.026539264 0.04125503 -0.03861579 0.040529195 2.6526375e-11 0.046460956 0.009744395 0.05097638
-0.009637193 -0.012792089 0.05461071 -0.0027670322 7.886478e-39 -0.041119255 -0.0002039381 -0.0026921362
0.0933732 0.038906876 -0.00400345 0.04295704 -0.005776696 0.0018475346 0.0039124712 0.035930913
0.011490015 -0.0006525701 0.042243484 0.07154539 0.042084858 0.0006534176 0.06866271 0.03327647
00000000: b4e8 043d 98c5 9d3c 0579 f23b 0b07 0ab7
00000010: c0e8 c43d 08a9 933d bcfc 3bba 5a90 14bd
00000020: b39b 1fb9 e1c5 16bb 83cf aabb 666f 26b0
00000030: 32a4 5b3c d8c4 903c 8d40 763d 6c40 11bc
00000040: e34f 7fa9 3b0c 18b6 8b78 333d ddf0 2b3d
00000050: 2a7d 14bb d8f6 96ba 9c1c d1bb 1cd8 c3bc
00000060: 50dc b6bc 6ded d33d 222f ef3c 12ca 10bd
00000070: da02 8c3d 4190 c8bd 75fe 983c 6508 0080
00000080: e08c 97b8 4bfe 85bc cd03 bab5 9347 7bbb
00000090: 059e b83d 841c 653d 8b99 d23c e167 093d
000000a0: 1d4e 183d 15d0 cfba 3d6f a93d d4ab deb6
000000b0: 0509 23bd 5bee cd3d fbaf 8a3d 05b8 9e3d
000000c0: 736b 203d d29e 54ae ee36 133c b4f4 1bbb
000000d0: 89d7 f6b1 53c2 a53d 9ec5 cd3d 306d c4bb
000000e0: 6ef4 c7b6 bd0b 233d 9a52 e3b0 86f8 813d
000000f0: 4ecc 20ba a2d7 193d 16f2 993a 5657 183d
00000100: 9cab 19bd ccde 833c 3183 7cb0 be76 9ebc
00000110: bd9b 203d 2bf1 f73b 8ff2 093e e3ba 77b7
00000120: 541f 85b8 eac7 0b3d 4c61 14bb 977f 723d
00000130: 15fb 29bd df92 aabc 3017 863c a83c 01bd
00000140: dfda 449a 359f c9bc d235 863d 77f4 733d
00000150: 0f2d 0b3d 6c3f 073d f277 283c 4a05 afbc
00000160: 6b79 c7bc 0abd 73b9 2840 6f3d e4ff b3bc
00000170: e5ef 6f3d 517b c73c a171 88b9 edba 793d
00000180: df68 d93c 09fb 283d 972b 1ebd f101 263d
00000190: 1654 e92d d84d 3e3d f4a6 1f3c 9ccc 503d
000001a0: 51e5 1dbc e995 51bc 7baf 5f3d 1957 35bb
000001b0: 4be0 5500 aa6c 28bd 38d8 55b9 8d6e 30bb
000001c0: 733a bf3d d15c 1f3d 5f2f 83bb b9f3 2f3d
000001d0: 704a bdbb f928 f23a 3034 803b 4b2c 133d
000001e0: 9e40 3c3c 3d11 2bba 8107 2d3d 6486 923d
000001f0: 2c61 2c3d 1d4a 2b3a 099f 8c3d e84c 083d
