saved_models/type0_split100_batchsize32_rng0_epoch40/modelbest.pth (torch, 706485 bytes, 16 tensors)

conv1.weight f4 [8, 4, 3, 3]
00000000: 4275 c43d 76a6 423e 8bd4 523d a8ab 4aba
00000010: 60ae c13d 5e1e 383e b19c e33d ac4a 803e
00000020: 2bee 223e d8e0 023e df56 ae3c 407e 143a
00000030: fc94 6dbc b127 d7bc b7f0 e3bc 7cc8 fa3d
00000040: 7e26 bb3d 5fc7 a33d 2a8a 88bd c3e6 6bbd
00000050: 2d81 be3b 7240 853d d584 6cbd f6ac df3c
00000060: 78c5 65bd 2adc 66bd c67e 923c 021b 18be
00000070: 48f5 efbd db6c 98bc 70e8 bebd 387f 533d
00000080: 6c72 b3bd fc02 ccbd d394 09be ab5a 07be
00000090: 2132 35bd 2965 6a3e fb32 3d3e 9c5f 013e
000000a0: f505 c83d 0de0 bb3c 891a 923d 0344 99bd
000000b0: efd5 cdbc 693b 363b 11dc 1e3e 72e4 fe3d
000000c0: 4061 8a3c 2389 3a3d 4860 083e dd88 763e
000000d0: 6490 d33d 65bb 5e3d 49b2 b33d cf2a f4bd
000000e0: 7e06 5f3c 25c6 27be 7deb 27be b54c ffbd
000000f0: f0ba f93b ecc9 d6bc 8a30 2ebe 53d5 9e3c
00000100: 099d ac3d 493a 783c 4606 bdbc 1c73 023d
00000110: c22e 043e b7bc 013e 4ac0 07be e396 06bd
00000120: caaf 143e be3f 803e d1e1 903e 85f4 5b3e
00000130: 0c49 293e 4ad3 b03c 2313 c13d d865 183d
00000140: 7511 7d3c 7d49 7c3e 8665 4a3e c266 c8bd
00000150: 0b82 0e3e fb52 603d c512 103d d333 283d
00000160: 9199 093e 5c45 95bc dfb4 4b3d ed52 963d
00000170: 5e48 ee3d 6248 0a3d 8c4c 27be d3f2 c6bd
00000180: 5458 c73c be81 babc 9779 0bbe 6a8b babd
00000190: e300 203e 6a43 1c3e 609c 8cbd a231 9cbc
000001a0: aecb bcbd 34c6 74bc a3cd c2bd 98bb 77bd
000001b0: 0dbf e6bc 4b36 f0bc e915 2bbe d6ae 9f3c
000001c0: 925a 0ebe 2c1a 2c3d 76bf e53c 82b7 39be
000001d0: 9692 bbbd 7971 0dbe deb8 01be 5ed2 12be
000001e0: 6fff e2bd 9e0e 1abe ae27 81be 1a90 e2bd
000001f0: 71c3 96be cf8e 55be e215 79bd 6b70 d6bd
00000200: bdfe 07be 871b 32be 3337 b3bd 8a10 7cbd
00000210: 5990 3cbe d643 abbd 97e4 3b3d 58e5 283d
00000220: 783f 053d 7bc4 57bd 36fd 113d dfa4 c83d
00000230: 621a da3d 9b34 913d d4df f83d 0c41 6bbb
00000240: 6cb5 1bbd bedb 4fbd e032 3ebd f765 723c
00000250: 7a16 fbbc 5446 e6bd d2a5 78bc ea34 42bd
00000260: 9857 67bd 3c27 13bc 8416 c13a b6d0 c9bd
00000270: 1ec3 763a 0050 64bd 33cb b7bc bdcb 52bd
00000280: 12b8 1bbc f260 b33b e315 26bc 5bc2 69bc
00000290: 638a 883c d3f6 a23d 201f 853d 432c c73d
000002a0: 3a1d 793d 8e0a fa3d dca1 4c3e 507d 993d
000002b0: 3e9b 273e 5076 183d 29e0 0e3d 7a76 113e
000002c0: 1c65 693c 3e65 ae3d 6bf4 2a3e a5af d9bc
000002d0: 896f 823d 87ed 983d bf5e 773e b2f8 c93d
000002e0: 50f3 3a3e 9afd 3a3e 4e6e 8dbc 66f4 923d
000002f0: fce3 35bc 7b11 303e 4358 3c3e 2c0a 073e
00000300: ee74 3bbc bf58 953d aeca b0bd 48b6 8a3b
00000310: f602 c8bc 5c77 ba3d ed4e f4bd ece8 c5bc
00000320: 5ce7 2cbc 554d 8d3d 7840 25be 42ba 16be
00000330: 91dc 0ebe beec 743d df31 e7bd 2a79 b13d
00000340: 79bf 493d 22e1 523d f6b9 15bd c71d f2bc
00000350: fe30 513d a5dc 84bd 04db 213c 4e8c 5d3d
00000360: df85 83bc 376a af3d daf0 3c3e bf92 5cbc
00000370: dd63 e83d c7a7 563e a623 6f3d 8ae2 ce3d
00000380: 24b0 813d fbc5 ef3d 3f36 ce3c 4f03 953c
00000390: 9794 7e3d 2ef8 4e3d d059 ad3c 9830 223e
000003a0: afac 403d 80d4 d53d c455 b73c ed57 0dbd
000003b0: 25b0 f43a bfa5 a0bd 33c6 2ebd 1ead 0dbd
000003c0: b0c7 65bd cd83 e0bc bc37 a0bd 59ac f3bc
000003d0: 9e2b 923c fc25 0cbd f42c b23c 7c82 4fbd
000003e0: cf35 243d 8868 3fbd 35c3 5ebc c855 ff3c
000003f0: c0b0 d63d 9652 333d 5f2a 1f3d f3c9 8dbb
0.09592678 0.19008812 0.051472228 -0.0007731267 0.094570875 0.17980334 0.11113871 0.2505697
0.15911166 0.12781084 0.021281658 0.00056645647 -0.014500853 -0.026264044 -0.027824743 0.122452706
0.09138201 0.079970114 -0.06666978 -0.05759312 0.005813739 0.065064326 -0.057743866 0.027304154
-0.056096524 -0.05636231 0.017882716 -0.14854053 -0.117167056 -0.018606594 -0.09321678 0.051634997
-0.087620586 -0.09961507 -0.13435678 -0.13218181 -0.04423726 0.22890152 0.18476479 0.12634128
0.09766761 0.022933984 0.071339674 -0.07483675 -0.025126426 0.0027806407 0.15513636 0.12445916
0.016892076 0.04554094 0.13317978 0.24075647 0.10330275 0.054377932 0.087742396 -0.119222276
0.013612388 -0.1638418 -0.16398425 -0.124658026 0.0076211616 -0.02621933 -0.17010704 0.01938883
0.084283896 0.015150615 -0.02307428 0.031848058 0.12908462 0.12669645 -0.13256946 -0.03285874
0.14520183 0.2504863 0.28297284 0.21479996 0.16531771 0.021585125 0.09427478 0.0372065
0.015446057 0.24637409 0.1976529 -0.097852245 0.13916795 0.054766636 0.03517415 0.04106505
0.13437487 -0.01822155 0.04973304 0.073400356 0.11634897 0.033760436 -0.16337794 -0.09714284
0.02433411 -0.022766944 -0.13620602 -0.09108622 0.15625338 0.15260091 -0.06865764 -0.019066636
-0.09218536 -0.014939833 -0.09511878 -0.060481638 -0.028167272 -0.029322764 -0.16707577 0.019492548
-0.13901737 0.042017147 0.028045397 -0.18136409 -0.091588184 -0.13812818 -0.12668177 -0.14338061
-0.11083876 -0.15044639 -0.25225586 -0.110626414 -0.29445985 -0.20855258 -0.060811885 -0.10470661
-0.13280769 -0.17393313 -0.08750763 -0.06153921 -0.1841444 -0.08362548 0.045872297 0.041234344
0.03253123 -0.052677613 0.03564187 0.09797072 0.10649563 0.07090112 0.12152067 -0.0035896925
-0.038014814 -0.05074667 -0.046435237 0.014794818 -0.030650366 -0.11243883 -0.015176253 -0.047413744
-0.05648002 -0.008981522 0.0014731442 -0.098542616 0.000941323 -0.055740356 -0.02243576 -0.05146383
-0.009504335 0.0054742033 -0.010137054 -0.014267529 0.01666755 0.07957234 0.06500077 0.09725239
0.06081889 0.122090444 0.1998362 0.074946046 0.16367814 0.037222207 0.034881745 0.14205351
0.014245298 0.08515404 0.166948 -0.026573012 0.0636893 0.0746718 0.24157237 0.09861888
0.18256879 0.18260804 -0.017264511 0.071755216 -0.011101719 0.17194168 0.18393044 0.13187474
-0.011441452 0.072923176 -0.08632408 0.0042331554 -0.024415474 0.09104797 -0.119291164 -0.024158917
-0.010553207 0.068995155 -0.16137874 -0.14719489 -0.13951327 0.059796087 -0.11288809 0.08665688
0.04925487 0.051484235 -0.0365543 -0.029555215 0.051072113 -0.06487397 0.009878878 0.054088883
-0.016055046 0.08565181 0.18451253 -0.013462721 0.113471724 0.2096244 0.058383606 0.10101803
0.06332424 0.11707684 0.02517235 0.018190054 0.062153425 0.05052965 0.02116099 0.1583885
0.047039684 0.10440922 0.022379763 -0.03450768 0.0018668218 -0.078441136 -0.042669486 -0.034588926
-0.05609864 -0.027406598 -0.078231305 -0.029745268 0.017843064 -0.034215912 0.021749951 -0.05066155
0.04009038 -0.04673055 -0.013596346 0.031168833 0.10482931 0.043779932 0.038858768 -0.0043270527

conv1.bias f4 [8]
00000000: 2cb2 cdba 5b66 05bd 753e a7bd 0e17 cdbc
00000010: b085 823d 0352 edbc 81fa ffbc 2433 35bd
-0.0015693358 -0.032568317 -0.081662096 -0.025035407 0.06373155 -0.02896977 -0.03124738 -0.044238225

conv2.weight f4 [16, 8, 3, 3]
00000000: e053 113e d207 373e b5fd 513e 0ba5 053e
00000010: a0e1 4b3e 79c7 553e 933a 023e 8543 4f3e
00000020: be69 4f3e a12e e7bc f920 953d f366 dc3d
00000030: 3a36 cc3d f1de 883d f087 393c 745c 803d
00000040: 3b70 f63d 78ad 8b3d 7eed fd3d 252d 3f3e
00000050: 8249 333e ff5d cb3d e1bb 293e 9662 4b3e
00000060: 72cd c73d d937 0d3e d19a 203e d134 9dbd
00000070: b723 98bd ce0e a3bd 0c48 15bd b300 a3bd
00000080: 5d8c b9bd 3ba6 81bd bc56 b9bd 99ea febd
00000090: 2c2f 56bd 4a8b 74bd 1d5d 57bd 5462 abbd
000000a0: ae32 75bd 27fd ccbc b76b 8abd 242d 81bd
000000b0: 7f87 71bd 07c9 d73c 57db 303e 47fd 2a3e
000000c0: bf7d b63c 54f3 473e 50d4 2e3e 288e fc3d
000000d0: 89ae 9f3d b98e 253e 4bb6 a63d 01be e63d
000000e0: 051d c93d a1e8 af3d d445 ca3d 8682 bb3d
000000f0: 0291 b83d 260a d13d d82f a43d fbb3 093b
00000100: f13d 323c a594 013d 56dc 29bc dbd9 723d
00000110: c91f 543d 3f7e 2e3d af16 613d 37c7 d93c
00000120: ab2a ee3d eb6a 053e 591a ec3d 9dbe 273e
00000130: c531 003e 6b6d 003e d4b6 ea3d 8fe0 0b3e
00000140: afea 0a3e 543d 233e 7576 1b3e ea83 193e
00000150: a796 323e e639 a43d 4a93 013e 8ba3 363e
00000160: fa81 033e 0d29 2f3e c8bd 343e 50cb 473e
00000170: 55df e23d 87b6 2d3e b3dc 193e 27c9 df3d
00000180: 7b5b 9b3d afcf b73d c6f5 733d 953c c8bd
00000190: 5743 cbbd bc3f 04be 178f 04be 39b8 d1bd
000001a0: 4173 fcbd a90d e4bd d324 03be 34f6 ebbd
000001b0: 3d69 c3bc 5f1e fcbc aa19 8a3c 3a1f 06bd
000001c0: 5dd2 23bd 565a 5abb 8693 30bd 58a9 47bd
000001d0: b04c 0cbc 5567 b13d b90b 853d 584b cc3d
000001e0: d0f8 993d 8125 df3d 10eb 043e bdd9 1b3e
000001f0: 00a8 fe3d b4ba aa3d 8e2d c43d 54b6 ab3d
00000200: b756 803d 5575 a43d 9eee a33d ff06 5b3d
00000210: edd4 d03d 541d aa3d d8a1 6d3d 636a 903d
00000220: e1c4 d53d db0d c13d 8d01 173d 9f1b 843d
00000230: eb49 a13d 2df2 9f3c 4015 8f3d 60ab 1d3d
00000240: e59c aebd 0a58 0abe 042d cdbd f3e3 eb3a
00000250: 3fa5 fbbd 09b4 b7bc a04f 85bd 5cf6 7ebd
00000260: e177 87bd 15bb bbbd 8ead 853d fb3e de3c
00000270: 108d f93d 8c04 803d b985 8bbd e8b7 f63d
00000280: 094c 2e3d 8208 973d 90d7 f2bd 72cc d5bd
00000290: 3208 61be 903b 93bd a188 e1bc 7ac9 19be
000002a0: ea94 363c 041a f33c 02f0 d4bc c5bb 923d
000002b0: f6f1 9e3d 1828 cf3d 0081 083e c7a9 2f3e
000002c0: d483 1a3e 5117 d53d a0d0 0f3e 4c42 a43d
000002d0: a332 4d3d 3391 873d ede8 243c 22e3 df3d
000002e0: fb33 743d 0732 173d a662 b43d 8b27 dc3d
000002f0: 5f8d 893d 1c80 c83d 1d6d c93c 3b63 3dbd
00000300: ddb4 223d 424e 0cbd 05e7 a5bd 5ff4 903d
00000310: e708 933d 9185 c4bd 7afb 033d e1bd acbc
00000320: ddd2 6ebd 99c9 253c 825e 663d 41ae 213d
00000330: 7e55 c03b 30d0 873d c39c 143d 9287 663d
00000340: dee8 213d 2fa9 4cbd 9768 9e3d 3d4a 813d
00000350: f2a7 d63b b842 db3d 7040 a33d edbb 8f3d
00000360: 7b97 253a 43bd 4c3c 646e df3c 34a5 b93c
00000370: 92de b53c d3ae 463d 0220 613d dbb4 593d
00000380: e686 a33d 7ab3 11be e73d 96bd acdb 07be
00000390: e899 12be 120a bbbd f4ac a23d d1cb 8bbd
000003a0: 9e66 ab3c 6b7c a23c 0ba9 b3bc 3798 0dbd
000003b0: 38fb 2bbe 274d 23be 98a1 17be a475 8abd
000003c0: 9d54 cabd ddbd c4bd 13d9 85bc cc10 943d
000003d0: 8899 5c3d 41b7 743d b5be 9c3d 8ce9 993d
000003e0: 1d7e a93d da10 003e 9d7f b23d 48ee ce3d
000003f0: 6617 923c 1609 553d 0b02 ddbc e209 8b3c
0.14192152 0.17874077 0.20506938 0.1305124 0.19910288 0.20876874 0.12717657 0.202406
0.20255181 -0.028220477 0.0728168 0.107618235 0.099712804 0.06683148 0.011323914 0.06267634
0.12033125 0.06820196 0.12398814 0.18669565 0.1750851 0.09930038 0.16575576 0.19861826
0.097559825 0.13790835 0.15684058 -0.076760896 -0.07428687 -0.07961808 -0.036445662 -0.07959118
-0.09059975 -0.06330534 -0.090497464 -0.1244709 -0.05229108 -0.05970315 -0.052579034 -0.08368364
-0.059862785 -0.025023056 -0.06758826 -0.06307438 -0.05896711 0.026340974 0.17271172 0.1669818
0.022276757 0.19526416 0.17073178 0.12331802 0.07796962 0.16167726 0.081402384 0.11266709
0.09819988 0.08589292 0.098766 0.09155755 0.09012033 0.10207014 0.08016938 0.0021011818
0.010879026 0.0316359 -0.010367474 0.059289794 0.051788125 0.042600866 0.054953273 0.02658425
0.11629232 0.13029067 0.11528463 0.16381307 0.12518986 0.1254174 0.11460653 0.13659881
0.13566087 0.15941364 0.15181907 0.14991727 0.17440282 0.08018856 0.12653843 0.17835824
0.12842551 0.17105503 0.17650521 0.19511151 0.110777535 0.1696416 0.15025596 0.10927039
0.07585808 0.089751594 0.05956056 -0.0977718 -0.099249534 -0.12914938 -0.1294521 -0.10240216
-0.123266704 -0.11135418 -0.12807016 -0.11521569 -0.023853892 -0.0307762 0.01685794 -0.032744624
-0.03999554 -0.0033318005 -0.04310944 -0.048745483 -0.008563206 0.08662287 0.064963765 0.09975308
0.0751816 0.10895825 0.12980294 0.1521978 0.12434387 0.08336392 0.09579001 0.08384386
0.062665395 0.08030192 0.08004497 0.05347347 0.10196862 0.08306375 0.058015674 0.07051542
0.10437942 0.09426471 0.036866713 0.06450581 0.07875427 0.019524658 0.06986475 0.038493514
-0.08526019 -0.13510147 -0.10018352 0.0017997011 -0.122873776 -0.022424715 -0.06509328 -0.062246665
-0.06614662 -0.091665424 0.065272436 0.02712964 0.12185109 0.06250867 -0.06812615 0.12046796
0.04255298 0.073746696 -0.118575215 -0.104393855 -0.21975783 -0.07189095 -0.02753097 -0.15018263
0.011143902 0.029675491 -0.02599335 0.071647204 0.07760994 0.10115069 0.1333046 0.17154609
0.15089351 0.10404838 0.14044428 0.080204576 0.05009712 0.066194914 0.010065299 0.10931994
0.059619885 0.036912944 0.08807878 0.1074973 0.067164175 0.0979006 0.024588162 -0.04623721
0.039723266 -0.03425432 -0.08100704 0.0707786 0.07179432 -0.09595788 0.03222225 -0.021086635
-0.058306564 0.010118865 0.056242473 0.039472822 0.0058695665 0.066315055 0.036282312 0.056281634
0.03952872 -0.049966034 0.07734793 0.06312988 0.0065507824 0.10706085 0.07971275 0.07018266
0.0006316823 0.012496295 0.027274318 0.022661783 0.022200856 0.04850657 0.054962166 0.053150993
0.07984714 -0.14228621 -0.07336026 -0.13267392 -0.14316523 -0.0913278 0.079431444 -0.06825984
0.020922955 0.019834718 -0.021931192 -0.03456899 -0.16795051 -0.159474 -0.14807737 -0.067607194
-0.0987942 -0.09606526 -0.01633886 0.07229766 0.053857356 0.059745077 0.07653562 0.07515249
0.08276007 0.12506428 0.087157466 0.10104042 0.017833423 0.05201062 -0.026978513 0.016972486

conv2.bias f4 [16]
00000000: e562 70bb b6bd b0bd f195 f43d ab2e fe3d
00000010: cbb2 d23d 54fa 28bd 8534 b53d c8b1 dfbc
00000020: bfcf c5bc 0302 1dbd cf66 98bb a746 b23d
00000030: 2de7 c13c f1a3 7ebc 3d8f 91bc 31e8 c3bb
-0.003668004 -0.086299345 0.119426616 0.12411245 0.10288008 -0.041254357 0.08847908 -0.027306452
-0.024146913 -0.038331997 -0.0046509276 0.08704882 0.023669804 -0.015542016 -0.017768497 -0.005978607

conv3.weight f4 [8, 16, 3, 3]
00000000: 95c0 783d 239d aa3d 52fd 063e 780b b33d
00000010: 656e 173e 68a5 df3d 206d b33d a15a 023e
00000020: f3c5 1f3e 1e86 e23d 3f79 a83d 26a5 c83d
00000030: cc8b d33c e678 b73d b9c6 433e 3b47 db3d
00000040: 915b 423e 44e8 473e bff7 68bd 357b d1bd
00000050: 5930 98bc 1935 c7bc d5a1 6ebd a85f e6bd
00000060: 17d5 efbb ea40 81bd 315f 14bd 0aa9 edbc
00000070: 1d67 3ebd 0293 9ebd 9949 50bd 3c53 81bd
00000080: fdde aabd 3515 5dbd a523 42bd a926 9dbd
00000090: 6282 a8bb affc a2bd 4eba d5bc 9208 81bd
000000a0: 183c 8dbd afe6 74bd ba18 4abd ba79 d4bb
000000b0: c0d2 4abd 11d4 073e 04d8 143e b4df 193e
000000c0: 3acb 9c3d dbe5 bf3d 08d5 153e d88e 913d
000000d0: 3b48 123e f002 2b3e aed5 2dbd 7664 87bd
000000e0: a359 a6bc f5c6 febc 4bab 8dbd d342 7dbd
000000f0: 97af 82bc 4958 9dbc 49cf 93bd cf8d d63d
00000100: 486d 1a3e 2bda 3a3e 1baf 1f3e ebb8 243e
00000110: dd3f 5f3e 0bc9 0c3e 8834 303e 1881 303e
00000120: 6384 af3d 4553 233e d773 4f3e bfa0 ec3d
00000130: 352a 593e c832 1f3e e965 1d3e 1364 5f3e
00000140: b095 383e 6b4d 0f3e 9899 183e b8a8 1b3e
00000150: 1d3a c93d 26b8 343e 8e79 2c3e a761 113e
00000160: 38fe 5f3e f35b 533e 5e55 129c c143 1d1c
00000170: 967b a118 3fc4 a31d 4f1f 4e1d 427b 7e9a
00000180: e4ac b71d 9542 319c 9a86 7d1a e309 55bd
00000190: 1b7e 9ebd b451 aebd 21a2 8cbd a5b2 eabd
000001a0: a660 f4bd a985 8ebd cda1 f5bd 8fad fcbd
000001b0: f5de 98bd 296e 20bd 7cc9 d03b 8eb4 dfbd
000001c0: 60a8 9ebd 3e88 05bd 7735 e1bd 9b90 b4bd
000001d0: af16 68bd b9e1 9e3d 22f7 af3d 11f1 193e
000001e0: 1860 cd3d 2b10 fd3d fee4 e73d 940a f03d
000001f0: 00e0 2b3e 2566 0e3e 16ea df3d a76d 143e
00000200: 2046 1e3e de80 e43d b68f 3c3e 02fc 293e
00000210: 1331 ce3d 8b45 1d3e 6770 373e 0561 d0b9
00000220: e9a0 88b9 8de6 a7b8 b982 55b9 2897 1bb9
00000230: 4897 41b8 0c84 dfb9 074c c9b9 336e 44b9
00000240: a9ff 53bc 7641 41bc cbec 0dbc 0814 debb
00000250: a983 7abc 3b62 43bc 1b35 afbc 384c 92bc
00000260: 234c 86bc c741 97bb 4cfb afbc 0814 f6bb
00000270: 7129 523b 951a cbbc 58d9 80bc 60af 2f3d
00000280: 5832 783c 8a30 3bba 2c40 a9bb 8cc4 76bb
00000290: ecfd 2cbb d6ca 70bb a8d5 29bb 1b03 24bb
000002a0: 9914 983b 5e19 8c3b a133 a03a de0d 90ba
000002b0: cae1 50ba 056b 2dba 3cc8 73ba b5d1 08ba
000002c0: 6d25 02ba 274a 00b9 110b 3e39 5f36 bb39
000002d0: efd9 3bbb 99ae 0fbb c63e d3ba f203 6fbb
000002e0: 4b0a 05bb 9719 e0ba 93d8 05bb 68d3 a739
000002f0: a365 5039 ef20 96bc 046d 0e3b 6469 843a
00000300: 3ec6 f33b 927c 76bc ca48 f3ba 1029 583c
00000310: 697b ecbc f44b 9dbc 2308 78bb 3742 28bb
00000320: e492 e4ba 11b2 89bb 16c5 1cbb 1660 fbba
00000330: bd18 16ba 2856 703a e3ae ff39 23aa 6a3a
00000340: 36cc 6cbc a561 03bc e667 9c3b 8644 15bc
00000350: 5aa7 083b 8688 b9bb d7bd e5bc 9698 65bc
00000360: 2b33 c8bc 19a9 cc3a 7b20 ccbb 4c51 9fbc
00000370: 7338 2ebc 743c 26bc bc8e 96bc 5719 42bb
00000380: 89cb 85bc be4f 093c a4c3 793b 6801 adbb
00000390: 47e4 563c 67a8 3dbc aea4 b2b8 ff79 0c3d
000003a0: 4567 d0ba b0e2 da3a 4ecd 8497 4591 8a93
000003b0: 076e 0a87 e654 5e1a 313e e893 f64c 5889
000003c0: c63b 221a e316 3a98 affb 0a91 0707 1abb
000003d0: 782c d0ba 7c15 72ba 28bc 24bb 8405 caba
000003e0: 84af b4ba efa3 a4ba 05d5 27b9 dc78 bf38
000003f0: 9ebe 80bb cbee 33bb dd48 e3ba c92b aabb
0.060730536 0.08330753 0.13182572 0.08742422 0.14788206 0.109202206 0.08761048 0.12729885
0.15602855 0.11060737 0.08226251 0.097971246 0.025823496 0.089586064 0.19118775 0.107069455
0.18980242 0.19522196 -0.056876894 -0.10228578 -0.018577741 -0.024317311 -0.058259804 -0.11248714
-0.0073191035 -0.063112095 -0.036223594 -0.029011268 -0.046485055 -0.07742883 -0.05085144 -0.06314704
-0.08343313 -0.053975303 -0.047397275 -0.076733895 -0.005142496 -0.07958352 -0.026089814 -0.06300463
-0.068962276 -0.05979031 -0.049339987 -0.0064842375 -0.049517393 0.1326449 0.14535528 0.15026742
0.0765595 0.09370013 0.14632046 0.071073234 0.14285366 0.1670034 -0.04244011 -0.06610958
-0.020306414 -0.03110073 -0.06917437 -0.061831307 -0.015952868 -0.019207137 -0.07217271 0.104762666
0.1508075 0.18247287 0.15594141 0.16086166 0.21801706 0.13748567 0.17207539 0.17236745
0.08570173 0.15949734 0.20259033 0.115540974 0.21207507 0.15546715 0.15370907 0.21815519
0.18025851 0.13994376 0.14902341 0.1520108 0.09825537 0.17648372 0.16843244 0.14197408
0.2187432 0.20640545 -4.841768e-22 5.203451e-22 4.1742314e-24 4.3348654e-21 2.728006e-21 -5.2625536e-23
4.861846e-21 -5.8650443e-22 5.2427904e-23 -0.05201138 -0.077388965 -0.085116774 -0.06866861 -0.11459855
-0.11932497 -0.069590874 -0.11993752 -0.12337791 -0.07464401 -0.039167557 0.006371675 -0.1092311
-0.07746959 -0.032600634 -0.10996526 -0.08816644 -0.056662258 0.07757897 0.08592059 0.15033366
0.10028094 0.123565994 0.11322974 0.117207676 0.16784668 0.13906153 0.1093332 0.14494954
0.15456438 0.11157392 0.18414196 0.1660004 0.10067954 0.1535856 0.17913972 -0.00039745137
-0.0002605983 -8.006124e-05 -0.00020361961 -0.00014838262 -4.6155677e-05 -0.00042632257 -0.00038394352 -0.00018733069
-0.012939372 -0.011795392 -0.008662413 -0.0067772903 -0.015290179 -0.011925275 -0.021387627 -0.01785861
-0.016393727 -0.0046159956 -0.021482132 -0.007509712 0.0032068158 -0.024792949 -0.015728638 0.04289186
0.015148722 -0.0007140717 -0.0051651206 -0.0037653772 -0.0026396466 -0.0036741993 -0.0025914703 -0.0025026265
0.0046411273 0.004275485 0.0012222418 -0.0010990461 -0.00079682155 -0.00066153734 -0.00092995516 -0.0005219237
-0.00049646833 -0.00012234655 0.00018123935 0.0003570793 -0.0028663834 -0.0021924137 -0.001611673 -0.0036470857
-0.0020300325 -0.001709747 -0.0020423278 0.00032010232 0.00019874288 -0.01832625 0.002173246 0.001010221
0.007439404 -0.015044348 -0.0018561122 0.013193384 -0.02886744 -0.019201256 -0.0037846647 -0.0025674233
-0.0017438796 -0.0042021354 -0.0023921183 -0.0019178416 -0.0005725732 0.0009168112 0.0004876769 0.0008951744
-0.014452985 -0.008018886 0.004773128 -0.009110576 0.0020851702 -0.005662027 -0.028044624 -0.01401343
-0.024438461 0.001561436 -0.006229458 -0.019447945 -0.010633576 -0.010146249 -0.018378608 -0.0029617155
-0.016332405 0.008380828 0.0038110996 -0.0052797087 0.013115949 -0.011575795 -8.5183754e-05 0.034296032
-0.0015899917 0.0016699638 -8.582126e-25 -3.4979344e-27 -1.04143e-34 4.5977104e-23 -5.862636e-27 -2.6036241e-33
3.35491e-23 -2.4051491e-24 -1.0963836e-28 -0.0023502724 -0.0015882393 -0.0009234769 -0.0025136564 -0.0015413021
-0.0013785218 -0.0012561063 -0.00016005717 9.1301015e-05 -0.0039289733 -0.0027455564 -0.001734044 -0.005193208

conv3.bias f4 [8]
00000000: 3f74 c8bc 3abf 40bd 4687 6e3d 6b63 e03d
00000010: 6b32 d8bc f6cd 393c c89a 3a3b 6b69 693d
-0.024469493 -0.047057368 0.058234476 0.109564625 -0.026391229 0.011340609 0.0028473604 0.0569853

conv4.weight f4 [4, 8, 3, 3]
00000000: 8122 00bd b908 c4bd c67d 59bd 05ed 58bd
00000010: 7c25 02bd 86e7 83bd 87f3 08bd 5d3c 51bd
00000020: 66bb d6bd b8f1 41b9 3f27 9cb9 b9fc 9a38
00000030: cd5f f4ba a1f1 4c39 37a9 1db8 95ad 09bb
00000040: 9eba d5b9 c498 1db9 20f4 c13a a516 99bc
00000050: 2a9c 0d3d 2023 c23d 1770 953c 487d 2c3d
00000060: c1cc 913d bb92 cd3c 0617 5b3d 81a1 5b3d
00000070: 651a ce3d 23c2 e5bd 0110 0e3d 250e 22bc
00000080: 03e7 cdbc d2d9 42bd 8e9e 873d 8f79 d23d
00000090: 4a93 92bd bef7 55bc a0e6 b1bc 690b 9ebc
000000a0: d46a 8bbc 62d7 ef3b 7806 d0bc 7ccc 9bbc
000000b0: 980c f6bc 9cce 24bd 1cf3 5cbd 9559 cfbd
000000c0: 2bb2 d6bc 8c5a 29bd d398 08be d709 12bd
000000d0: 1de7 8bbc cc7f a3bd 744e e3bc e86f 9e3b
000000e0: 31bd 49bd 786d bbbc d559 50bc 180d c73c
000000f0: 8eb6 65bd 6d5c e6bb c4a3 bebc 58a1 e4bb
00000100: da44 1f3d 2c6e f6bc 2795 dc3d 3f04 0abb
00000110: 1eab 76bd b756 e13c abfb 6b3d 9b7c bfba
00000120: b284 aabc 23c2 e2bc 0435 d4bc 3f5e b7bc
00000130: 919f e7bc 0e74 dcbc 8918 c2bc 22af e9bc
00000140: 5b0a e3bc 84bc c516 0f65 7016 0c82 aa26
00000150: b2f5 91a7 30a4 73a6 9f63 4198 a2c4 f328
00000160: ed34 8d28 cdb3 7a13 f426 a62d 69f8 992e
00000170: 4adf 7b2b 8658 2b2d 0c38 272c 0ac6 d5ac
00000180: 6977 782b 4939 da2d 2e95 0929 24b2 03bc
00000190: 63f1 60bc 0bd4 52bc 7ac7 09bc e370 6dbc
000001a0: 511f 58bc 98e5 25bc 00c8 71bc 9f20 62bc
000001b0: 8384 a1bc 0fa5 debc cf99 cfbc c7ad adbc
000001c0: e11d e3bc 783f d7bc 6d53 babc fe49 e5bc
000001d0: fc68 ddbc e0b3 b8bc f99b e5bc ccf5 d6bc
000001e0: 7827 c6bc 6207 ebbc fc6e dfbc a974 cabc
000001f0: df50 ecbc 3dc8 e5bc dc8f a6bc fec8 e2bc
00000200: c282 d4bc 6cf8 b3bc 8294 e7bc 1ef2 dcbc
00000210: 2cb3 c0bc d9bb e9bc 6871 e3bc 054b cfaf
00000220: f198 48af 0445 79b2 52e5 36b2 6879 6db3
00000230: 6aff 3cb2 aac3 b9b2 6320 d3b3 9a1b 9db4
00000240: b2c7 69bb 3eff adbc 8e78 f4bc 01f8 443c
00000250: 020d 78bc ba44 10bc 3528 52bc 77e3 533b
00000260: 2cf4 bdbb 518e 5b3a d730 7135 dd75 2f36
00000270: 5a8e f5b9 49c9 9738 93ed 3db5 46ef bf38
00000280: 6780 66b7 9a8f 27b5 1541 60bd 6e71 963d
00000290: c7e9 85bd c138 c1bc eb83 603d 2f96 083c
000002a0: 427f c8bd 176f ecbd ef6f 71bd 656e ca3d
000002b0: 2ece b6bd 46c7 5b3d 924c 933d cc77 66bd
000002c0: 0d71 7cbd d4f1 b9bd 56b6 253c 588f d5bc
000002d0: bdba 78bc 595e 27bb b3c8 2fbc e9d2 95bb
000002e0: 15b1 02bc 2917 32bc e5a4 d8bb e3e7 abbb
000002f0: 5326 98bc 3fa0 7e3b 11d4 81bd 789b 9cbd
00000300: 5661 d2bd 2967 cabd 53fe 8abd 9384 81bd
00000310: 7e24 b6bd dc31 3abd d157 6cbb 81cc c7ba
00000320: 459f 433c d60b a4b9 d77d 36bb 522a 153b
00000330: 57cf d53a f66e fc39 45ab d23b a1e1 eebb
00000340: b189 403d bee9 ca3d 40a0 9e3d 7a07 ed3b
00000350: d5eb 65bc 5aa0 b83c c5f9 15bc 172c afbc
00000360: 3b41 0e3e 1efb ab3d b7bb 783d b9ad 053e
00000370: 24ea 213e bd9f 023e 731e 5a3d c79e 803e
00000380: e0c4 1e3e e2e4 acbc e82e 8dbc 2eca e1bb
00000390: aec6 11bd 1d76 243b e71c 2fbc 695d 603c
000003a0: 725e b03c cb86 c3bc 73d8 fd3c 3796 873d
000003b0: f8e6 eabb 4977 183d c188 78bd d245 a63b
000003c0: 9e11 933c fbde 85bd ed36 633d 29b6 34be
000003d0: c9f0 14bd 7e06 04be 4b8f 57be 7e1d 73be
000003e0: 8371 a9be fa15 9ebd 3566 03be e76b 9cbe
000003f0: bb5d 883d 6b93 013e c79f bc3d 883c 6e3d
-0.031282905 -0.09571976 -0.053098463 -0.052960414 -0.03177403 -0.06440644 -0.03343537 -0.051082958
-0.10484962 -0.00018495962 -0.0002978388 7.3903655e-05 -0.0018644274 0.0001954497 -3.758931e-05 -0.0021008004
-0.00040765567 -0.00015029596 0.0014797486 -0.018687556 0.034572758 0.09479356 0.018241925 0.042111665
0.07119132 0.02509438 0.053488754 0.05362082 0.10063628 -0.11218669 0.03468323 -0.009891068
-0.025134569 -0.04757101 0.06622039 0.10277092 -0.071569994 -0.013059555 -0.021716416 -0.01929255
-0.017018713 0.007319377 -0.02539371 -0.019018404 -0.030035302 -0.0402361 -0.053942785 -0.10124508
-0.026208004 -0.041346118 -0.13339548 -0.035653915 -0.017077977 -0.0798336 -0.02774737 0.0048351176
-0.049252693 -0.022879347 -0.01271673 0.024298236 -0.0560823 -0.007030061 -0.023271449 -0.0069772415
0.03888402 -0.03008183 0.10770636 -0.002105966 -0.060221784 0.02750717 0.057613056 -0.0014609279
-0.020815227 -0.027680462 -0.025904186 -0.022383807 -0.02827433 -0.026910808 -0.02369334 -0.028525893
-0.027714899 3.1946037e-25 1.9418934e-25 1.1831369e-15 -4.051197e-15 -8.4530076e-16 -2.4994961e-24 2.7063695e-14
1.5677098e-14 3.1643085e-27 1.8889314e-11 7.001761e-11 8.948299e-13 9.739881e-12 2.376324e-12 -6.075811e-12
8.8273014e-13 2.480917e-11 3.0549504e-14 -0.0080380775 -0.013729426 -0.012867938 -0.008409375 -0.014492246
-0.01319106 -0.01012554 -0.014757156 -0.013801723 -0.019716507 -0.027178315 -0.025341896 -0.021201028
-0.027724208 -0.026275381 -0.022744859 -0.027989384 -0.0270276 -0.022546709 -0.028028475 -0.026240252
-0.024188742 -0.028690044 -0.027274601 -0.024713831 -0.028847156 -0.028049583 -0.02033227 -0.027683731
-0.025941256 -0.021969043 -0.028269056 -0.02697092 -0.023522936 -0.028531956 -0.027764037 -3.7706385e-10
-1.824423e-10 -1.45094e-08 -1.0645936e-08 -5.529128e-08 -1.1001115e-08 -2.1625812e-08 -9.831344e-08 -2.9263612e-07
-0.0035672006 -0.021239873 -0.029842641 0.012022019 -0.01513982 -0.008805448 -0.012826969 0.0032331625
-0.00579693 0.0008375394 8.985057e-07 2.6145638e-06 -0.00046836102 7.2377334e-05 -7.07537e-07 9.152158e-05
-1.3738964e-05 -6.2421316e-07 -0.054749567 0.07345854 -0.0653873 -0.023586633 0.054813307 0.008336588
-0.097898975 -0.11544626 -0.05894464 0.09884337 -0.089260444 0.05365684 0.07192339 -0.05626659
-0.06163125 -0.09079328 0.010114273 -0.026069328 -0.015181241 -0.0025538413 -0.010729003 -0.0045722616
-0.00797679 -0.01086978 -0.006611454 -0.005246149 -0.018572962 0.0038852838 -0.063392766 -0.07646841
-0.102724716 -0.098829575 -0.0678679 -0.06324115 -0.08893679 -0.045457706 -0.0036063085 -0.0015243442
0.011939828 -0.00031289336 -0.0027846002 0.002276082 0.0016312402 0.00048147858 0.0064291083 -0.0072900807
0.047006313 0.09907864 0.07745409 0.0072335573 -0.0140332775 0.0225374 -0.009153788 -0.021383328
0.13892071 0.08397506 0.060725894 0.13054551 0.15811974 0.12756248 0.053251695 0.25121137
0.1550479 -0.021105234 -0.01723428 -0.006890557 -0.035589866 0.0025094815 -0.010688043 0.013694146
0.02152941 -0.023867985 0.030987 0.06620448 -0.007168647 0.037223134 -0.060677294 0.005074241
0.017952736 -0.06536671 0.055472303 -0.17647614 -0.036362443 -0.12893102 -0.21050756 -0.23741719
-0.33094415 -0.077190354 -0.12831958 -0.30551073 0.06658503 0.12653892 0.092101626 0.058163196

conv4.bias f4 [4]
00000000: cef2 903d 7098 fabb 1319 3a3d 084d 1c3d
0.07077561 -0.0076475665 0.04543407 0.0381594

conv5.weight f4 [2, 4, 3, 3]
00000000: 6b7f 1cbe f223 1a3e c346 f9bd 48f8 0ebd
00000010: ad51 ae3d 2cb8 56bd eaf7 1a3e 96aa 8cbd
00000020: 3a9f 88bc 5483 ea3b b43c efbc 7daa ebbc
00000030: fd65 e6bc 66a6 e6bc 3d48 eebc fcbe d4bc
00000040: 1f6b dcbc 6705 e5bc 5c14 8bbd 90b6 04be
00000050: efc9 0a3e f892 9d3d 7bae c83d 7844 823c
00000060: d8b0 dfbd 4c9f 8d3d db7f ab3c 7c72 bf3d
00000070: 17e3 34bd dc5c 0fbe 56db 393e f9b9 873d
00000080: be43 c6bd b4d6 013d 76a9 ccbc 8adf 8bbc
00000090: 4dc0 c23d 74c9 04be 01bf 1c3e e908 e83d
000000a0: 34f8 2b3b 9dfd 84bd 72fc 073d a4db dfbd
000000b0: 7cba de3d 9789 bdbc 6c21 c9bc 1022 cdbc
000000c0: 5804 c7bc 5a12 d3bc 1ede bebc 281e 75bb
000000d0: ec2a dfbc 1c8f c8bc 0cde e53d 44c8 c23d
000000e0: c89a 10be a143 863c f69c 67bd f073 a1bd
000000f0: f0bb e83d b3ca c6bc 6d15 cd3c 9b0a 1a3e
00000100: 5aec 463e 9888 c13d 4f4f 64bb 99cd d1bd
00000110: e5b0 3abe 50e2 1e3d 76e7 1cbb eb6e 0cbe
-0.15282981 0.15052775 -0.121717 -0.03490475 0.08511672 -0.052421734 0.15133634 -0.06868474
-0.016677488 0.007156769 -0.02920375 -0.028767819 -0.028124804 -0.028155517 -0.02908718 -0.025969975
-0.026906548 -0.027956678 -0.067909926 -0.12960267 0.13553594 0.07694048 0.097989045 0.01590179
-0.10922402 0.06915149 0.02093499 0.09348008 -0.044161882 -0.14000267 0.18150076 0.06627268
-0.096808895 0.031698897 -0.024983149 -0.017074365 0.09509335 -0.12967473 0.15307237 0.113298245
0.002624047 -0.064936854 0.033199735 -0.10930565 0.10875413 -0.023136897 -0.02455207 -0.025040656
-0.024294063 -0.025765587 -0.023299273 -0.0037402008 -0.027242146 -0.024482302 0.11223993 0.09510854
-0.14121544 0.01638967 -0.056546174 -0.078834414 0.11363971 -0.024266576 0.02503463 0.15043108
0.19426098 0.09449881 -0.003483731 -0.10244293 -0.18231542 0.038790047 -0.0023941672 -0.13714187

conv5.bias f4 [2]
00000000: c7db b43d fd2e 263e
0.08830982 0.16228862

fc1.weight f4 [256, 512]
00000000: 907d 9aba 5c73 853b efec 113d c71e 5dbc
00000010: 0ec4 0d3d 8f30 8ebc 32be 9a3c 12fa 0cbd
00000020: dd16 c13c 36b8 d8bc 8dd6 cdbc 79a7 bbbc
00000030: 1ac8 a2bc 06b9 193d da3f 4c3c 0257 86bc
00000040: 08c9 68bc ece7 0dbc ec1b ddbc b5a6 bcbb
00000050: 005f 80bd ceb2 5d3d fcb9 8bbd 925e 35bd
00000060: f055 ea3c 039a b1bd 1fbf a3bd 746f 6b3d
00000070: f9de a1bd ab50 8d3d 5fa1 1d3c c617 813d
00000080: fb6e c3b7 64db 24bd a978 663b 4d38 3e3b
00000090: 0671 f43b 0679 47bb 32a5 153c 1462 533c
000000a0: 9703 fdbc c5b3 54bd 873d 1dbd fe67 2fbc
000000b0: 619f 92bd 42aa 8dbd dafa c83d be02 ba3d
000000c0: a5b6 a8bc 0d61 c8bd aea9 00bd 62f4 81bd
000000d0: 424c 943d 3a34 aabd d550 2c3c 8253 973d
000000e0: 8c0f 51bc 6572 e0bd 5955 893c 6a81 03bc
000000f0: 3b31 96bc f2ed a53d 1062 98bc adc9 3f3d
00000100: 4dbb 2e3d 24ed 983c 2913 7d3d 5e4c d0bc
00000110: a27b 9fbc 2bc8 053d b71d b0bc 4986 b03c
00000120: 8b88 7a3d c005 82bd f604 db3c d09f 913d
00000130: 4e89 953d c4a3 2e3e 3220 42bb da3e b1bd
00000140: c681 a53c aaa7 d4bc b240 833b eb0d f3bd
00000150: 6d42 eebb 24c4 0fbd fdab 063c 6fb1 363d
00000160: 1e69 50bd b2c7 d03c 350b f9bd d64e 6fbd
00000170: 2ac7 873d 926d fd3b 103e b33d 94d8 62bc
00000180: e85a 693d 3080 e03c cc86 8ebd 73e5 d9bb
00000190: f8a4 2a3d 2bea 3a3c 2f96 233d d2db 513c
000001a0: fa6d 71bd 6117 103d 195e ccbd 8815 913d
000001b0: 4a62 553d 1e0c b9bd 12e7 d3bd d7e0 f23d
000001c0: d167 0b3d 1d0d dd3c c8f0 aebb d071 fabc
000001d0: ebbd 7b3d e405 783c 29f6 a53d aee7 a6bc
000001e0: 32ff 48bd 095f 4e3d 0571 4ebb 74af debc
000001f0: 82e9 643d ac77 c9bd 9637 a5bd e070 46bc
00000200: 0c70 293d c428 fe3c 99a4 ee3d 9bce 953c
00000210: b8fb 653d b23c 35bd 694c e7bc deb3 9ebc
00000220: 566e 2e3c b4d4 5f3d 3af4 bfbb d171 573d
00000230: f6cc bc3d d224 8dbd cc38 a4bd 1809 10bd
00000240: a09b 8b3c 9d99 5fbc 6c2a fd3b 3161 113c
00000250: cab3 fc3c bc96 693d 5588 d1bc 1771 ac3c
00000260: a910 92bd fecb ecbc 754c 13bd 4b97 553d
00000270: 381f 803d 00e2 92bd 67b8 21bc aec8 0e3b
00000280: b96b 0f3d 3d9e be3c 9027 b9bc 0d4e b3bc
00000290: 6475 c6ba 1873 043c 2fbc 2d3d e780 74bc
000002a0: c17c 60bd 2db8 efbc 0aee 923d 2d2a 2fbc
000002b0: b9c5 a8bb acb6 cfbc 4cba d8bd 905d e0bc
000002c0: b966 1a3d e401 593c 27d7 203d 4603 93bc
000002d0: 2387 8cbd cedf 173c 8ab8 253d 5e2a 003d
000002e0: 3da8 d1bd 4f1c febc 0ad0 1b3c 111d 683d
000002f0: c2df ccbc 64a0 183b 0f26 81bd bc71 cbba
00000300: 999f 35bd a09c 8cbc da70 b3bd e4a9 d7bc
00000310: 1237 0b3c cd2c 95bc 19f8 58bd 4979 d63d
00000320: 6b7b fc3c 0049 02bd aa59 08bd 35aa 953d
00000330: cfaf b13d 1124 dd3c 9dcc a2bb 4c8d 82bd
00000340: 0f1a 47bb ace5 d9bc 5249 9ebd 991d 9a3d
00000350: 2af7 9fbb 1c55 433c 336f 88bc 3698 0d3d
00000360: 6802 c8bb 5f2c 39bd c296 12be 73b8 18bc
00000370: 3ff3 813d 8eff 543c 793a 963d 0ea7 7ebd
00000380: 04cb 313b fc18 d53c 7ceb 7a3c 687d 543d
00000390: 0c6c 85bd 5667 413d 9ac9 413d ec01 0bbd
000003a0: 1037 94bc 4092 a53d 9020 f1bd 11ac 833d
000003b0: 4784 f5bd 78a9 0f3d f386 b43d 69d6 563c
000003c0: 80e6 80bb 3f7c 093d db20 143c d5e4 0bbc
000003d0: c038 adbc e12f 4dbc f226 b63c b798 83bc
000003e0: 4423 073b d67b 6a3c e04c b0bc dbfe dd3c
000003f0: 0a78 ccbc 8928 78bc 8fe2 95bc 0e11 a3bc
-0.0011786688 0.00407259 0.035626348 -0.013496107 0.0346108 -0.017357139 0.01888952 -0.034418173
0.023570472 -0.026455026 -0.02512672 -0.022907006 -0.019870806 0.037529968 0.012466395 -0.01639891
-0.014208086 -0.0086612515 -0.026990853 -0.0057571777 -0.0626812 0.0541256 -0.06822583 -0.044279642
0.028605431 -0.086719535 -0.07995438 0.057479337 -0.07903857 0.06900152 0.009620993 0.063033625
-2.329749e-05 -0.04024829 0.0035167134 0.0029025257 0.0074597625 -0.0030437126 0.009133624 0.012901802
-0.0308855 -0.051929254 -0.038388755 -0.010705946 -0.07159305 -0.0691724 0.09813471 0.09082554
-0.020594904 -0.09784136 -0.03141182 -0.063454404 0.072411075 -0.08310743 0.010517319 0.07388975
-0.012760054 -0.10959319 0.01676433 -0.00802646 -0.018334022 0.08102025 -0.018601447 0.046823192
0.042659093 0.018667765 0.06178585 -0.02542704 -0.019468132 0.0326616 -0.021498544 0.021548407
0.061165374 -0.06348753 0.026735764 0.0711056 0.073015794 0.17054659 -0.002962124 -0.08654566
0.020203482 -0.025958855 0.004005515 -0.11867889 -0.007271102 -0.035099164 0.008219716 0.044602808
-0.050881498 0.025485847 -0.12160341 -0.058424793 0.066297844 0.007734009 0.08752072 -0.013845582
0.05697146 0.027404875 -0.06959304 -0.006649667 0.041661233 0.011408369 0.039938148 0.012808757
-0.058942772 0.035178546 -0.09978885 0.07084185 0.05209569 -0.09035514 -0.103468075 0.11859291
0.034034554 0.026983792 -0.005338762 -0.030571848 0.061460417 0.015138123 0.08103592 -0.020374145
-0.0490715 0.0503836 -0.003150047 -0.027183272 0.055886753 -0.09837279 -0.08067243 -0.012111872
0.04136662 0.031025298 0.11652488 0.018286994 0.05614826 -0.044247337 -0.028234677 -0.019372877
0.010646423 0.05464621 -0.0058579715 0.05259878 0.09218781 -0.068917885 -0.08018646 -0.035164922
0.017041981 -0.013647464 0.0077260043 0.00887327 0.030847449 0.057028517 -0.025577703 0.02105002
-0.07132084 -0.028905865 -0.035961587 0.052146237 0.062559545 -0.07172012 -0.009870625 0.0021787095
0.03501484 0.023268813 -0.022601873 -0.021887803 -0.0015141186 0.008084081 0.042415794 -0.014923311
-0.054806475 -0.029262627 0.071743086 -0.010691208 -0.0051505235 -0.02535566 -0.10582408 -0.027388364
0.03769562 0.01324508 0.039267685 -0.017945897 -0.06861713 0.009269668 0.040459193 0.031290404
-0.10237167 -0.031019358 0.00951005 0.056668345 -0.02500904 0.002328896 -0.06306087 -0.0015521566
-0.044341657 -0.017164528 -0.08761759 -0.026326127 0.0084970165 -0.01820984 -0.05297098 0.10472352
0.030820569 -0.0318079 -0.033288635 0.07307855 0.08676111 0.026994737 -0.0049682395 -0.063746065
-0.0030380522 -0.026598774 -0.077288285 0.075251766 -0.004881759 0.011922147 -0.016654586 0.034568988
-0.0061038025 -0.04520833 -0.14315322 -0.00932132 0.06345224 0.013000382 0.073353715 -0.062171035
0.0027129063 0.02601289 0.015314933 0.05187741 -0.06514749 0.04721769 0.047311403 -0.03393738
-0.018092662 0.080845356 -0.11773789 0.064293034 -0.119881205 0.035073727 0.08814802 0.013112643
-0.0039337277 0.033565756 0.0090410365 -0.0085384445 -0.021145225 -0.012523622 0.022235367 -0.016064031
0.0020620385 0.014311751 -0.021521032 0.027099064 -0.024959583 -0.015146383 -0.018296508 -0.019905593

fc1.bias f4 [256]
00000000: ece8 44bc aab7 513d 3729 803d 5076 05b5
00000010: 9ae2 aa3c 6d01 00bd af64 803c 9cb1 273d
00000020: baf7 e63b ab17 4ab9 32ed 9e3c 344b 5e3c
00000030: 64f6 c93b f904 12ba 8bfb 413a 5f70 c9bb
00000040: c002 453b 0932 1c3d 7d3e 55bc 65c0 09bc
00000050: 2c76 bd3b 0239 803d 7c08 e7b7 4ec9 25bb
00000060: e76c b3bb 5874 afba ca7b da3c 0248 faae
00000070: 1ed6 49bb fde1 15bc 0efa a4a5 9a9c 553d
00000080: 9bc6 a6ba a4e9 24bb ed12 82bb 04fd 41bc
00000090: 25f9 5eba b430 a13d aa35 95b8 b4fd 51bc
000000a0: e20c 263d a5e4 b0bc 540c a0b0 8fe6 f2ba
000000b0: 13a6 3abc 3f9c 873b e353 d73b da6c 1e3b
000000c0: e280 c2bc 554e 8b3d 3c60 ebb7 5ce6 32bc
000000d0: fbfe 2db9 4ba4 8cb9 c917 abb9 44b9 56bd
000000e0: d347 0cba 4f8f 243b 1632 9739 b49c 7bb8
000000f0: c686 543d 07e6 7db7 d479 2c3c 710d 7cb9
00000100: f86f 6abb d6d1 09bb d055 88b9 f5a8 983d
00000110: 6ef6 27af d694 2f3c 1cd1 733b ac38 883d
00000120: 2a06 e1bb 67e5 64bc 9208 84a4 1f4f 3b3d
00000130: 17a7 173b c3a8 ac3c f69b 45bc 2c12 65af
00000140: 437c e6af 7aee 7ebc 696f 6eb9 6864 50bb
00000150: 2a04 e3bc aacd 1dbb 78e4 c4ba ee3d 8d3d
00000160: d47b 68bb 0f71 913d 4b21 963d ab45 823d
00000170: 0af3 9b39 d450 8ebc fda6 53bb 5d40 603d
00000180: 0022 74bc 8502 c43a 21e9 90bc 9ea6 20b5
00000190: e5bb abbc ca0e 973d 5b4b f8bc 6b12 1c3c
000001a0: b2bd 99bb 9b3f 29bb 4ecd dbb3 e658 953d
000001b0: bbaf 343d 6c1d 28bc a578 6dba e52d 2d3d
000001c0: 005e 0bbb 9dcb c1bb e64c 923d 0423 68bb
000001d0: c0b4 e3b7 1516 f8bb e182 1ab9 8b04 a4ba
000001e0: 198e e2ba 1589 753d 5b34 17b5 773d 2ab2
000001f0: 359e 90aa 14e2 113c 7887 d1bb 43e1 333d
00000200: ba65 efba e6e1 9c3c ac5e 8fbc 8070 87b7
00000210: 156e 58bc 976b 46bb ae49 7cbb aac5 d6bb
00000220: 9e12 1d3d 1a9e f43c 8497 5fb3 6890 093d
00000230: 493f a00e 9a84 6e3d 1ea2 99ba a0cc a9bc
00000240: 641a 15b5 9cc5 33bc da9a 2bac 3c09 d8b0
00000250: 23b4 663d 1141 4a3c fba4 d5bb 797a dcbb
00000260: f026 adbc e6a0 0d3c 302c 12b9 2fed 39bb
00000270: 4487 433d b6fc 9fb6 c8bf 20bb 91b2 811e
00000280: 7491 98ae f833 803d 473f abb8 0926 46bb
00000290: aedf 953c 5a5c 0fa9 8e70 213c 7c84 89bc
000002a0: 5259 2e3d 5e69 edb7 12da 013d 3567 f0bb
000002b0: 09b0 7e3c 0103 a0bb 749a 71bb 16d2 3f3c
000002c0: 392b e7b3 53f4 58a8 1083 86b8 33f8 82ba
000002d0: f0fa 24bb e94d b6ba 4b6a 8db8 b92a 063d
000002e0: 5f7a 343d 55b8 dfba 817f 84a3 908c d9aa
000002f0: 6dbb c9b9 abea 8bba d979 823b c647 8dbb
00000300: 38ea fc3b 6de0 a6bd 472f 2fbc 4c38 1a3c
00000310: 8246 22b4 b3a4 c0b9 80c4 070f 5c98 8ebc
00000320: dc1e 81b8 9808 45af c3fa 23b8 600d 8dba
00000330: 6aa6 4e3c d18e 1f3d c1b3 b8bc 1b69 05b4
00000340: c027 3f3c 1324 1d3c 97cf e43b 404a c3b7
00000350: 4473 d0ba 57c9 a93a a336 9c3b a5ad 68b9
00000360: 9294 27bb 2b6c 14bb e70d 8139 9a28 0aba
00000370: b570 adba 7e80 8639 6c3e 3db9 be09 4e3d
00000380: 7768 76bb 6911 953d 6613 083c 842e afb9
00000390: 2c00 0f3d eaf2 eb3c 5755 4c3d 5e28 ecbb
000003a0: 82ec b8b7 349e 91a7 d69a e23b 8b8b abbc
000003b0: 3826 4cbb 653b b3ba 8f4a 57bc ed5e f33c
000003c0: 0463 2e3c 841d b2b9 d1a1 ccb9 81fd 3db0
000003d0: 4125 e3bc 272c 91ac 4b54 ea3c a946 893d
000003e0: 9512 213d 8163 51bc 0584 bfbb efcc f1b9
000003f0: 3bc9 963b 2359 12ba 137d 043d fdc5 5fb4
-0.0120184235 0.051200546 0.06257861 -4.971853e-07 0.020860005 -0.03125136 0.01567301 0.040940866
0.0070485743 -0.00019273038 0.019400213 0.0135677345 0.0061634053 -0.0005570199 0.00073998485 -0.006147429
0.0030061454 0.038133655 -0.013015387 -0.008407687 0.0057819095 0.062608734 -2.7541297e-05 -0.002529699
-0.0054756287 -0.0013386114 0.026670355 -1.1381475e-10 -0.003079779 -0.009148118 -2.8618909e-16 0.0521513
-0.0012723984 -0.0025163675 -0.0039695413 -0.011840109 -0.00085057534 0.078706175 -7.1148694e-05 -0.012816835
0.04053963 -0.021593401 -1.1645036e-09 -0.0018531847 -0.011392134 0.004138499 0.0065712794 0.0024173767
-0.023743097 0.0680205 -2.8058996e-05 -0.01091918 -0.00016593553 -0.0002682529 -0.00032633383 -0.052422777
-0.0005351279 0.0025109833 0.0002883828 -5.9989005e-05 0.051886342 -1.51335325e-05 0.010527093 -0.000240376
-0.0035772305 -0.0021029613 -0.00026003877 0.07454101 -1.5276111e-10 0.010716638 0.0037203496 0.06651434
-0.00686719 -0.013970709 -5.7260393e-17 0.045729753 0.0023140365 0.021076566 -0.01206111 -2.0833885e-10
-4.192505e-10 -0.015559787 -0.00022738952 -0.0031798128 -0.027711947 -0.0024078884 -0.0015021702 0.06896578
-0.0035474198 0.07101642 0.07330569 0.06360944 0.00029744982 -0.017372526 -0.0032295578 0.05474888
-0.014900684 0.0014954364 -0.01768929 -5.9847105e-07 -0.020963619 0.07375868 -0.03030937 0.009525876
-0.004691803 -0.0025825265 -1.0235327e-07 0.07292347 0.044112902 -0.010260921 -0.000905881 0.042280097
-0.0021265745 -0.005914165 0.071435735 -0.0035421262 -2.7144677e-05 -0.0075709918 -0.0001473534 -0.0012513561
-0.001728478 0.059945185 -5.632807e-07 -9.909278e-09 -2.5689317e-13 0.008903999 -0.006394323 0.043916
-0.001826457 0.019150686 -0.017501198 -1.6145641e-05 -0.013209839 -0.003027653 -0.0038496065 -0.006554325
0.038347833 0.029860545 -5.2059036e-08 0.033584982 3.9503987e-30 0.058231927 -0.0011721288 -0.020727456
-5.554523e-07 -0.010972407 -2.4386521e-12 -1.5718693e-09 0.056324136 0.012344615 -0.0065199113 -0.006728467
-0.02113673 0.008644318 -0.00013940106 -0.0028370132 0.04773642 -4.7679887e-06 -0.0024528373 1.373226e-20
-6.9379974e-11 0.06259912 -8.165702e-05 -0.0030235073 0.018295135 -3.183248e-14 0.009853495 -0.016786806
0.04256565 -2.8301667e-05 0.03170211 -0.007336522 0.0155449 -0.0048831706 -0.0036865743 0.011707803
-1.0764638e-07 -1.2043388e-14 -6.41403e-05 -0.0009992182 -0.0025173984 -0.0013908717 -6.7432025e-05 0.032755587
0.044062015 -0.0017068485 -1.4365469e-17 -3.8644478e-13 -0.0003847735 -0.0010674795 0.0039818105 -0.0043115346
0.0077183507 -0.081482746 -0.010692424 0.009412836 -1.5113076e-07 -0.00036743804 6.6938584e-30 -0.017406635
-6.156947e-05 -1.7920099e-10 -3.909577e-05 -0.0010761432 0.012612918 0.03895456 -0.02254665 -1.2424827e-07
0.011667192 0.00959112 0.0069827545 -2.3280387e-05 -0.0015903492 0.0012953681 0.0047672554 -0.00022189932
-0.0025570733 -0.002264748 0.00024615155 -0.00052703323 -0.0013232442 0.00025654206 -0.00018047699 0.05030226
-0.0037598887 0.07278711 0.008305406 -0.00033413258 0.034912273 0.028802354 0.049886074 -0.0072069606
-2.2044642e-05 -4.041711e-15 0.0069154305 -0.020940563 -0.003115071 -0.0013674317 -0.013140335 0.02970835
0.010643724 -0.00033972797 -0.00039030475 -6.911805e-10 -0.027727725 -4.1260498e-12 0.028604647 0.067029305
0.03932436 -0.012780071 -0.0058445954 -0.0004611979 0.0046016253 -0.00055827404 0.032345843 -2.0840521e-07

fc2.weight f4 [128, 256]
00000000: de4e 0080 19f3 40b0 99c9 6cb6 58c9 0000
00000010: de25 2eb9 ddad 0080 9551 0080 f0e4 5eb8
00000020: cb3f bab1 a58d 0080 6f9e 0080 d5d2 dc8d
00000030: 9d94 0080 ac02 0080 c096 0080 8b95 abb9
00000040: 0d4a 0000 f628 b3b9 de9a 0000 b148 0080
00000050: 15b9 0000 e3ff 82b8 3d05 0080 213b 0000
00000060: 8dbc 0000 d44f 0180 f562 35b6 e319 0000
00000070: dfc7 7cb9 043b 0000 50c6 0080 adc4 0080
00000080: f176 0080 58f7 0080 f742 0000 5750 0100
00000090: 8a05 0080 80b0 8dba 5739 0080 5404 0080
000000a0: b9b8 25b9 9b7e 0080 8dc8 0080 44b7 0000
000000b0: 5231 0000 9b13 52b9 bd6c 2fb7 b67e 0080
000000c0: 8f0b 0000 44c1 73b8 c756 0080 c903 76b9
000000d0: c17f 0000 4471 0000 b2a2 0080 be60 0000
000000e0: fc4e 0080 0155 0000 5ad3 0080 f60a 0100
000000f0: eb97 72b9 2f2a 0080 2f23 0000 6046 c412
00000100: 2dde 0000 1a34 0000 fb0b 0000 b818 32ba
00000110: 0485 0180 8f34 c2b9 393f 0000 44b3 66b8
00000120: 3938 0000 7b15 0000 24a6 0000 6a1c f0b9
00000130: 9b05 0000 dcbc a3b7 7e10 0000 631b 0080
00000140: bd8c 0000 0808 0080 cdb3 0080 046c 0000
00000150: d600 0000 4060 0080 56e3 0080 303d 6bba
00000160: 3c8e 0000 05cf d1b7 72d4 8db9 2e3c 7615
00000170: 6f85 0000 6f71 0080 ee4e 0080 1896 c4b7
00000180: 4e0f 0180 6775 0080 b2bb 0080 6b36 0080
00000190: 1e46 0600 5e2b 31b6 56ba 0000 09d9 acb0
000001a0: 1428 0000 1dff 0080 6427 0080 7cbf 2dba
000001b0: 40e3 c1b7 d906 0000 d18d 0000 1b6d 93b1
000001c0: ff09 0000 374a 0680 113a 1fb4 8063 0000
000001d0: 7d8f 0000 c297 0080 5152 0080 1a12 0080
000001e0: 9965 0080 e64f 37ba dd41 0000 a519 0080
000001f0: c259 0000 4672 0000 9b35 0000 73b1 57b4
00000200: 4a10 0180 173c 0080 b400 0080 92c0 0000
00000210: 83cb 0080 2445 a3ae 45af 0000 821f 74b3
00000220: b1eb 82b7 2b56 00b8 ed19 0100 f624 90ba
00000230: 4d02 0000 d761 b1b9 4bb8 0080 193f 0000
00000240: c584 0000 3a48 0080 2fab 0000 cd83 0080
00000250: fb7a a1b4 4759 0000 9be0 0080 3e27 0b00
00000260: 5957 0080 f147 0000 e43e 0000 872d 0a9e
00000270: 79bf afb1 b6ba 0000 ac9b 0080 2f68 0000
00000280: 7917 0000 0b8b 2fba 0a02 0180 7093 0000
00000290: 97f3 0100 3347 0000 a842 0080 50aa 0080
000002a0: a10b 15b8 3d7f 0000 5917 f5b9 449c 44ba
000002b0: ea67 3db8 13eb 0080 3d2b 0000 c10c 0080
000002c0: 4c44 0000 183b 0080 18cf 0000 0b09 26b5
000002d0: 3ca4 0080 649f 0080 dc04 0000 4899 bfb6
000002e0: fe6d 65ba bf42 0000 4185 0000 fd3b 0080
000002f0: 1e26 0080 0d87 0000 f089 0080 785c 0000
00000300: 5f2c 0080 c07b 0000 9cfb 0000 f915 0080
00000310: d75e 0080 0442 0180 1a35 0000 3ccd 0000
00000320: ae0b 0000 a561 0000 41f2 0180 8363 0080
00000330: f812 0080 ba1e c5b5 0664 0080 0c36 0080
00000340: 7bf4 4db6 7835 0080 8013 37b8 a553 0000
00000350: 1d9f 0000 4a77 0400 0022 0080 27a0 0180
00000360: 76eb 0000 d236 0000 7189 0000 900a 0080
00000370: 414f 0080 0eb8 0000 f71a 0080 6bd0 0eb6
00000380: 2730 0080 8b35 8eb5 60b2 73b9 7e6f 0000
00000390: cef6 41b9 0e94 bcb8 c651 cfb6 221d 8cb9
000003a0: d487 0080 9875 0080 5a8f 0080 39f5 85b8
000003b0: 1624 0000 7086 0080 e01e 0000 e1a5 0080
000003c0: 16c1 0eba ab29 0100 a0a1 0000 f79d 0000
000003d0: a8a9 45ae a67b 0180 6ab6 90b8 6f5b b1b3
000003e0: 215a 04b8 7514 0000 02bb 45b9 f2ae 0000
000003f0: e0ce 0000 9712 0080 958d 88b3 cd8b 0000
-2.8292e-41 -7.0194656e-10 -3.5284086e-06 7.2229e-41 -0.0001660804 -6.237e-41 -2.9266e-41 -5.314214e-05
-5.420565e-09 -5.0812e-41 -5.6835e-41 -1.3609303e-30 -5.3312e-41 -9.58e-43 -5.4079e-41 -0.0003272708
2.6564e-41 -0.0003417206 5.5556e-41 -2.6077e-41 6.6395e-41 -6.246546e-05 -1.879e-42 2.1211e-41
6.7639e-41 -1.20472e-40 -2.7028702e-06 9.286e-42 -0.0002410705 2.1171e-41 -7.1141e-41 -7.0554e-41
-4.2668e-41 -8.873e-41 2.4022e-41 1.20656e-40 -1.987e-42 -0.0010810047 -2.057e-41 -1.553e-42
-0.00015804441 -4.5417e-41 -7.1944e-41 6.5743e-41 1.7693e-41 -0.00020034464 -1.045613e-05 -4.5455e-41
4.146e-42 -5.8115707e-05 -3.113e-41 -0.00023461798 4.583e-41 4.0632e-41 -5.8364e-41 3.4705e-41
-2.8334e-41 3.0494e-41 -7.5819e-41 9.5768e-41 -0.00023135512 -1.5133e-41 1.2621e-41 1.2386688e-27
7.9702e-41 1.869e-41 4.298e-42 -0.00067938445 -1.39553e-40 -0.00037041723 2.268e-41 -5.5003227e-05
2.0169e-41 7.706e-42 5.96e-41 -0.00045797537 2.011e-42 -1.9519059e-05 5.916e-42 -9.825e-42
5.0487e-41 -2.881e-42 -6.45e-41 3.8749e-41 3e-43 -3.4528e-41 -8.1553e-41 -0.0008973656
5.1024e-41 -2.5011142e-05 -0.000270519 4.9726778e-26 4.7867e-41 -4.0692e-41 -2.8315e-41 -2.3434914e-05
-9.7326e-41 -4.2116e-41 -6.7332e-41 -1.9521e-41 5.76166e-40 -2.6400298e-06 6.6845e-41 -1.2576332e-09
1.4377e-41 -9.1517e-41 -1.413e-41 -0.00066279597 -2.3113214e-05 2.456e-42 5.0874e-41 -4.290667e-09
3.586e-42 -5.77636e-40 -1.4829153e-07 3.5694e-41 5.1474e-41 -5.444e-41 -2.953e-41 -6.494e-42
-3.6446e-41 -0.0006992802 2.3627e-41 -9.2e-42 3.2199e-41 4.0994e-41 1.923e-41 -2.0087991e-07
-9.7679e-41 -2.1556e-41 -2.52e-43 6.9081e-41 -7.3006e-41 -7.424664e-11 6.2875e-41 -5.6839333e-08
-1.560696e-05 -3.059783e-05 1.01136e-40 -0.0010997343 8.25e-43 -0.00033832967 -6.6112e-41 2.2635e-41
4.7629e-41 -2.591e-41 6.1409e-41 -4.7281e-41 -3.0078067e-07 3.2027e-41 -8.0573e-41 1.024268e-39
-3.1334e-41 2.5808e-41 2.2561e-41 -7.315074e-21 -5.1149383e-09 6.6979e-41 -5.5845e-41 3.7374e-41
8.42e-42 -0.0006696439 -9.2567e-41 5.289e-41 1.79219e-40 2.5541e-41 -2.3912e-41 -6.1097e-41
-3.55352e-05 4.5644e-41 -0.00046747437 -0.0007500092 -4.515789e-05 -8.4329e-41 1.5511e-41 -4.575e-42
2.45e-41 -2.1199e-41 7.4291e-41 -6.185298e-07 -5.8916e-41 -5.7179e-41 1.743e-42 -5.710088e-06
-0.0008752047 2.3944e-41 4.7802e-41 -2.152e-41 -1.3674e-41 4.8447e-41 -4.9483e-41 3.3172e-41
-1.5917e-41 4.4393e-41 9.026e-41 -7.882e-42 -3.4022e-41 -1.15517e-40 1.9049e-41 7.3624e-41
4.19e-42 3.5028e-41 -1.7874e-40 -3.5698e-41 -6.805e-42 -1.4686586e-06 -3.5882e-41 -1.9388e-41
-3.0689687e-06 -1.9181e-41 -4.364876e-05 3.0006e-41 5.7079e-41 4.10135e-40 -1.2197e-41 -1.49287e-40
8.4467e-41 1.9666e-41 4.9305e-41 -3.789e-42 -2.8431e-41 6.6026e-41 -9.673e-42 -2.1280964e-06
-1.7274e-41 -1.0595408e-06 -0.00023240736 3.9996e-41 -0.00018497856 -8.992116e-05 -6.1786004e-06 -0.00026724586
-4.8726e-41 -4.2185e-41 -5.1425e-41 -6.3876105e-05 1.2945e-41 -4.8227e-41 1.1076e-41 -5.9506e-41
-0.0005445642 1.06783e-40 5.798e-41 5.6667e-41 -4.49433e-11 -1.36192e-40 -6.900432e-05 -8.2588365e-08
-3.155519e-05 7.339e-42 -0.0001885705 6.2759e-41 7.4213e-41 -6.669e-42 -6.358747e-08 5.0151e-41
