saved_models/type0_split100_batchsize32_rng0_epoch40/model.pth (torch, 706485 bytes, 16 tensors)

conv1.weight f4 [8, 4, 3, 3]
0.09663578 0.19424152 0.05926708 0.00073109445 0.09913806 0.18675114 0.112052776 0.25413108
0.16543458 0.13223505 0.02485997 0.0028140547 -0.009566771 -0.023242567 -0.026073985 0.12635632
0.09314364 0.08054652 -0.067806065 -0.05996259 0.00199153 0.062257584 -0.061217885 0.022597514
-0.058719993 -0.060884405 0.011787302 -0.15159854 -0.120398656 -0.02171683 -0.097087055 0.046891425
-0.09112492 -0.10402178 -0.13932571 -0.13585825 -0.044281125 0.23134787 0.1896366 0.12638752
0.10015078 0.028174218 0.07080585 -0.073022194 -0.020389209 0.006665354 0.15735218 0.12584636
0.02052562 0.047626145 0.13419488 0.24350365 0.10435551 0.055192728 0.085034385 -0.123849094
0.008603431 -0.16686365 -0.16943483 -0.12988375 0.0031676434 -0.033569474 -0.17634632 0.019263653
0.08355948 0.015231263 -0.023758467 0.031146927 0.12902601 0.12573145 -0.13388482 -0.03237729
0.14555386 0.25336272 0.28782675 0.21508229 0.1683455 0.027264347 0.09468049 0.040498827
0.021731107 0.249323 0.20023423 -0.09620927 0.14187019 0.056716904 0.03611989 0.043782372
0.13566437 -0.017092742 0.046849944 0.06923249 0.11120854 0.029895218 -0.1678657 -0.10267409
0.019661253 -0.028996222 -0.14231217 -0.091500275 0.15538666 0.15169582 -0.06991868 -0.020741716
-0.09368612 -0.01687664 -0.0978283 -0.06213203 -0.02477023 -0.026546443 -0.16585808 0.020020712
-0.13780129 0.044804692 0.029438429 -0.1783153 -0.088508 -0.1428335 -0.13196737 -0.14890516
-0.11872066 -0.15833813 -0.25837803 -0.1175867 -0.30035344 -0.21206526 -0.058846682 -0.10282433
-0.13194261 -0.17530093 -0.08829198 -0.061807886 -0.18562147 -0.08448018 0.045709223 0.043144684
0.034444835 -0.052846376 0.033510666 0.0968762 0.106463045 0.06909602 0.120341696 -0.0029414808
-0.0383964 -0.0532545 -0.051800434 0.014567063 -0.03266742 -0.116533026 -0.01508727 -0.04903184
-0.060499266 -0.0098651545 -0.0014696282 -0.10163961 2.5087871e-05 -0.054981623 -0.025287567 -0.051515006
-0.008784882 0.0039070556 -0.0047268616 -0.008247981 0.024360042 0.08575127 0.07319881 0.10638037
0.068146214 0.13141392 0.21020505 0.07561744 0.16430289 0.037318196 0.03608252 0.14357272
0.014983951 0.087209865 0.16912167 -0.025299113 0.063498765 0.0779216 0.24655789 0.09863796
0.18559138 0.18742505 -0.017893784 0.07543785 -0.00562773 0.17592533 0.18673937 0.13316621
-0.007224573 0.075612746 -0.08552585 0.008217371 -0.021556381 0.091533594 -0.12242771 -0.027902838
-0.015162104 0.065153114 -0.16558594 -0.15236701 -0.14379677 0.054428443 -0.11876001 0.08635138
0.048883814 0.051522948 -0.036887407 -0.029880892 0.050928492 -0.06582191 0.009414211 0.053838197
-0.016957847 0.087764755 0.18919627 -0.014111797 0.11552779 0.21425514 0.057403445 0.102697805
0.06786551 0.12064673 0.027849251 0.01952086 0.06524701 0.052614797 0.02229399 0.1607994
0.048363835 0.10498397 0.019697595 -0.03826996 -0.003520531 -0.081922 -0.0477399 -0.040709827
-0.061103873 -0.033841513 -0.0854916 -0.029684799 0.01735237 -0.034765698 0.021020195 -0.05191788
0.039563365 -0.04874608 -0.015274012 0.0304097 0.1056575 0.047535527 0.043484915 -0.0030633144
00000000: fbe8 c53d 40e7 463e 0ac2 723d eba6 3f3a
00000010: e508 cb3d b13b 3f3e ed7b e53d 781d 823e
00000020: af67 293e a068 073e 23a7 cb3c 016c 383b
00000030: f2bd 1cbc 3267 bebc 1c99 d5bc 8d63 013e
00000040: 18c2 be3d 93f5 a43d e8dd 8abd 559b 75bd
00000050: 5484 023b cf01 7f3d 9bbf 7abd 6c1e b93c
00000060: 6084 70bd ed61 79bd 871f 413c a63c 1bbe
00000070: 9293 f6bd 7ee7 b1bc 94d5 c6bd 3911 403d
00000080: b49f babd 5f09 d5bd 66ab 0ebe 6d1e 0bbe
00000090: 2060 35bd 75e6 6c3e 1930 423e bb6b 013e
000000a0: da1b cd3d 9ecd e63c a802 913d a98c 95bd
000000b0: 4507 a7bc 0b69 da3b ee20 213e dedd 003e
000000c0: 5825 a83c a213 433d 626a 093e 0559 793e
000000d0: 57b8 d53d c511 623d 8226 ae3d 98a4 fdbd
000000e0: 68f5 0c3c 4ede 2abe 5380 2dbe 3f00 05be
000000f0: 3d98 4f3b 2580 09bd 2194 34be cfce 9d3c
00000100: 3c21 ab3d 8c8c 793c 1ea1 c2bc d727 ff3c
00000110: 651f 043e bfbf 003e 1a19 09be 0d9e 04bd
00000120: 120c 153e c2b8 813e 075e 933e 883e 5c3e
00000130: c362 2c3e 7b59 df3c d8e7 c13d 19e2 253d
00000140: 6f05 b23c 874e 7f3e 340a 4d3e 5e09 c5bd
00000150: 6b46 113e fc4f 683d 73f2 133d 2555 333d
00000160: 9aeb 0a3e 1406 8cbc bae5 3f3d c4c9 8d3d
00000170: 4ec1 e33d d1e6 f43c fce4 2bbe cb46 d2bd
00000180: a310 a13c 7c89 edbc 48ba 11be 7f64 bbbd
00000190: ae1d 1f3e 2656 1b3e 8631 8fbd 88ea a9bc
000001a0: 82de bfbd e140 8abc 345a c8bd 287e 7ebd
000001b0: f0ea cabc ed77 d9bc b3d6 29be 7a02 a43c
000001c0: c81b 0dbe 2085 373d dc28 f13c 4998 36be
000001d0: af43 b5bd f242 12be 7422 07be 987a 18be
000001e0: d123 f3bd 6423 22be 204a 84be 4cd1 f0bd
000001f0: edc7 99be a327 59be 3809 71bd 9095 d2bd
00000200: f71b 07be 1682 33be 6dd2 b4bd 442a 7dbd
00000210: 8e13 3ebe f203 adbd 9839 3b3d 7bb8 303d
00000220: 0716 0d3d 7175 58bd 7b42 093d 0767 c63d
00000230: 4c09 da3d 3782 8d3d b575 f63d dcc5 40bb
00000240: 8b45 1dbd 6421 5abd b12c 54bd b1aa 6e3c
00000250: 46ce 05bd dea8 eebd 9930 77bc 9cd5 48bd
00000260: 14ce 77bd 75a1 21bc 8aa0 c0ba 6e28 d0bd
00000270: cb73 d237 6934 61bd df27 cfbc 6601 53bd
00000280: 77ee 0fbc c206 803b cae3 9abb 8a22 07bc
00000290: b68e c73c 5d9e af3d 42e9 953d f4dd d93d
000002a0: 3e90 8b3d 5f91 063e fe3f 573e 51dd 9a3d
000002b0: 043f 283e f7da 183d 44cb 133d ba04 133e
000002c0: 3f7f 753c 169b b23d 3b2e 2d3e 1640 cfbc
000002d0: a40b 823d 5c95 9f3d ac79 7c3e b302 ca3d
000002e0: ab0b 3e3e 5aec 3f3e fc95 92bc 297f 9a3d
000002f0: d268 b8bb c525 343e 9b38 3f3e b95c 083e
00000300: 1cbc ecbb dbda 9a3d 2d28 afbd 27a2 063c
00000310: 0297 b0bc f775 bb3d 61bb fabd 7e94 e4bc
00000320: 796a 78bc ff6e 853d 5c8f 29be 1906 1cbe
00000330: 763f 13be 5cf0 5e3d 7338 f3bd fed8 b03d
00000340: 653a 483d ba09 533d 4017 17bd c6c8 f4bc
00000350: 659a 503d a3cd 86bd 103e 1a3c 7185 5c3d
00000360: 2feb 8abc 02be b33d abbc 413e 2b35 67bc
00000370: d599 ec3d b365 5b3e e01f 6b3d 3a53 d23d
00000380: 13fd 8a3d a215 f73d 1d24 e43c 36ea 9f3c
00000390: 39a0 853d 9d82 573d e3a1 b63c 99a8 243e
000003a0: 2819 463d d601 d73d da5c a13c f6c0 1cbd
000003b0: b6b8 66bb b9c6 a7bd ea8a 43bd 59bf 26bd
000003c0: 0e48 7abd 669d 0abd 3816 afbd 892d f3bc
000003d0: 8f26 8e3c 7a66 0ebd 8b32 ac3c d8a7 54bd
000003e0: 320d 223d f8a9 47bd da3f 7abc c31d f93c
000003f0: f662 d83d 9db4 423d 3d1d 323d e3c1 48bb

conv1.bias f4 [8]
0.0021369483 -0.029428165 -0.079149045 -0.027469892 0.06363036 -0.026042232 -0.027833903 -0.0379102
00000000: 0b0c 0c3b 5613 f1bc e518 a2bd 8a08 e1bc
00000010: a250 823d 8556 d5bc ed03 e4bc ba47 1bbd

conv2.weight f4 [16, 8, 3, 3]
0.14768367 0.18971832 0.21959287 0.13676427 0.21048054 0.22355744 0.13357942 0.21394207
0.21748683 -0.02280538 0.07814836 0.111786194 0.10553767 0.07254447 0.015676977 0.06869545
0.1259788 0.07240858 0.12459605 0.18874164 0.17979592 0.100337215 0.16815831 0.2034192
0.098699614 0.14041707 0.16165511 -0.074181505 -0.07566364 -0.08369007 -0.034922432 -0.080070585
-0.09462572 -0.058437593 -0.08829029 -0.12689857 -0.05297516 -0.061292652 -0.054235436 -0.08486895
-0.06190023 -0.027103072 -0.06938012 -0.06560096 -0.061473493 0.030697009 0.17835912 0.17208739
0.02747029 0.20170408 0.17619751 0.12871592 0.08509918 0.16729516 0.088915765 0.12100155
0.103799246 0.09402632 0.10754714 0.09707703 0.098408565 0.1108155 0.08545614 0.0042755064
0.012536728 0.033106964 -0.008099517 0.06078552 0.053058818 0.044602294 0.056216672 0.02763197
0.122389644 0.14134604 0.1287266 0.1700731 0.13644372 0.13870703 0.12087639 0.14778177
0.14870821 0.16443309 0.15670992 0.15369092 0.1794981 0.084979 0.12989366 0.18316454
0.13269722 0.17388627 0.17732786 0.19728269 0.11537332 0.17058054 0.15240763 0.11333793
0.07670659 0.091692165 0.063070714 -0.09867482 -0.10252539 -0.13335076 -0.12964219 -0.10605015
-0.12818125 -0.11154178 -0.1307943 -0.120661356 -0.025604948 -0.03327453 0.014303901 -0.035062276
-0.043011576 -0.006357851 -0.046028104 -0.052321907 -0.0121192755 0.09100635 0.07085151 0.105034724
0.079920135 0.11500605 0.13491474 0.15675709 0.13026576 0.088270016 0.102605335 0.09103206
0.06757905 0.08728254 0.08701563 0.057894237 0.108644165 0.089502715 0.06186189 0.07232835
0.10556007 0.095387846 0.038455255 0.06529584 0.07939131 0.020708797 0.0700959 0.03863831
-0.09317145 -0.15010639 -0.120190464 -0.0058785197 -0.13786416 -0.041707482 -0.071991324 -0.07656656
-0.083359405 -0.09721602 0.05532679 0.015326072 0.11709772 0.054588802 -0.07694179 0.11739317
0.037062608 0.06791126 -0.12067092 -0.11124893 -0.2353566 -0.07358664 -0.03326286 -0.1622374
0.010546842 0.02634112 -0.032926098 0.074748926 0.082280606 0.106101155 0.13513488 0.174173
0.15552655 0.106825456 0.14423491 0.0876055 0.05294153 0.06950924 0.0130675435 0.11323442
0.06410974 0.041091986 0.09294526 0.112937726 0.072319016 0.09132217 0.013408366 -0.060280792
0.03431053 -0.04347941 -0.092440955 0.067041196 0.06475391 -0.10421785 0.02645703 -0.031428337
-0.07252675 0.0059621604 0.048078414 0.028989432 0.0031600534 0.060900986 0.030060533 0.05450928
0.0361707 -0.055159293 0.076709 0.06155113 0.0035991224 0.10751764 0.079852514 0.06937926
-0.009172919 0.0022610808 0.016716857 0.011510597 0.010583191 0.036595207 0.042503487 0.040231735
0.06741274 -0.1473778 -0.078733295 -0.1377048 -0.14886409 -0.097158566 0.07291437 -0.07602841
0.012790784 0.01313683 -0.029154956 -0.04171488 -0.17485903 -0.16632569 -0.1552895 -0.075745404
-0.10750974 -0.10517665 -0.02581703 0.07491797 0.05843879 0.065511346 0.08009898 0.0802122
0.088726185 0.12844473 0.09383906 0.1081619 0.028995996 0.0640746 -0.014778229 0.028675642
00000000: 633a 173e 8545 423e f4dc 603e ef0b 0c3e
00000010: 3688 573e 3eec 643e 0bc9 083e a113 5b3e
00000020: deb4 5e3e 59d2 babc 3f0c a03d 29f0 e43d
00000030: 2224 d83d 3292 943d 016d 803c 33b0 8c3d
00000040: 9600 013e f34a 943d 372c ff3d 7d45 413e
00000050: 6c1c 383e 997d cd3d b131 2c3e 1f4d 503e
00000060: 0623 ca3d 7ec9 0f3e eb88 253e 79ec 97bd
00000070: 8af5 9abd b365 abbd d30a 0fbd 0cfc a3bd
00000080: 21cb c1bd 425c 6fbd 8ad1 b4bd b3f1 01be
00000090: 7bfc 58bd 010e 7bbd fa25 5ebd c6cf adbd
000000a0: 188b 7dbd 4307 debc 2a17 8ebd cc59 86bd
000000b0: a1cb 7bbd 4b78 fb3c c6a3 363e ad37 303e
000000c0: 6009 e13c 848b 4e3e 1f6d 343e 1bce 033e
000000d0: 7b48 ae3d 6c4f 2b3e 7819 b63d a9cf f73d
000000e0: b394 d43d df90 c03d ad41 dc3d 52d0 c63d
000000f0: 6e8a c93d 3df3 e23d a103 af3d 8c19 8c3b
00000100: d966 4d3c 2b9b 073d d6b3 04bc 3dfa 783d
00000110: 3454 593d e5b0 363d 7443 663d 715c e23c
00000120: 6ca7 fa3d 04bd 103e e8d0 033e a527 2e3e
00000130: e7b7 0b3e 3709 0e3e 0a8e f73d 1b54 173e
00000140: f746 183e 2661 283e 9178 203e 2761 1d3e
00000150: 5ace 373e 7809 ae3d d802 053e 7c8f 3b3e
00000160: c8e1 073e 3e0f 323e 6f95 353e 7904 4a3e
00000170: d948 ec3d aaac 2e3e bf10 1c3e b71d e83d
00000180: 5818 9d3d 1ac9 bb3d 382b 813d 0616 cabd
00000190: d5f8 d1bd 1a8d 08be ecc0 04be d230 d9bd
000001a0: f241 03be 0470 e4bd f1ee 05be 4d1d f7bd
000001b0: 78c1 d1bc e04a 08bd e95a 6a3c 769d 0fbd
000001c0: e82c 30bd 8555 d0bb f787 3cbd 7f4f 56bd
000001d0: ed8f 46bc 8a61 ba3d 991a 913d 721c d73d
000001e0: 2bad a33d 4b88 eb3d 1727 0a3e ee84 203e
000001f0: 6364 053e e9c6 b43d bf22 d23d 046f ba3d
00000200: e366 8a3d 30c1 b23d 4035 b23d 8222 6d3d
00000210: d580 de3d 334d b73d e562 7d3d e320 943d
00000220: e12f d83d b45a c33d 4283 1d3d d3b9 853d
00000230: e997 a23d 7fa5 a93c 708e 8f3d 3443 1e3d
00000240: acd0 bebd 7db5 19be 6b26 f6bd 99a0 c0bb
00000250: 432c 0dbe 77d5 2abd 3070 93bd eece 9cbd
00000260: 56b8 aabd 3119 c7bd 589e 623d 351a 7b3c
00000270: eed0 ef3d 8298 5f3d a893 9dbd d56b f03d
00000280: f6ce 173d 0f15 8b3d 5122 f7bd 7bd6 e3bd
00000290: 5201 71be 98b4 96bd a33e 08bd 9021 26be
000002a0: a9cc 2c3c 55c9 d73c 84dd 06bd f715 993d
000002b0: bc82 a83d 904b d93d cc60 0a3e 685a 323e
000002c0: 5a42 1f3e 4ec7 da3d 51b2 133e 836a b33d
000002d0: 38d9 583d dc5a 8e3d 4019 563c 73e7 e73d
000002e0: f84b 833d 1250 283d 165a be3d e54b e73d
000002f0: fe1b 943d 1e07 bb3d c3ae 5b3c fee8 76bd
00000300: 3389 0c3d 7717 32bd af51 bdbd e54c 893d
00000310: b39d 843d 2b70 d5bd 6abc d83c 00bb 00bd
00000320: e888 94bd 3a5e c33b dfed 443d 3f7b ed3c
00000330: e618 4f3b 5073 793d 8241 f63c 1f45 5f3d
00000340: ba27 143d b6ee 61bd 9c19 9d3d 0a1d 7c3d
00000350: 41df 6b3b 3532 dc3d b789 a33d b716 8e3d
00000360: 034a 16bc a42e 143b caf1 883c f196 3c3c
00000370: 1f65 2d3c dbe4 153d 2318 2e3d 08ca 243d
00000380: b10f 8a3d 35ea 16be ec3e a1bd 7d02 0dbe
00000390: d46f 18be 12fb c6bd 2154 953d c8b4 9bbd
000003a0: 7090 513c dc3b 573c 60d6 eebc 39dd 2abd
000003b0: 3f0e 33be 4851 2abe 3604 1fbe 6820 9bbd
000003c0: 112e dcbd db66 d7bd 3c7e d3bc 986e 993d
000003d0: 835d 6f3d d02a 863d ef0a a43d 4b46 a43d
000003e0: 13b6 b53d 0487 033e b12e c03d fc83 dd3d
000003f0: 0389 ed3c 8b39 833d 6320 72bc 2ee9 ea3c

conv2.bias f4 [16]
0.0015995597 -0.08368851 0.1211221 0.13269858 0.10578331 -0.03871573 0.09167375 -0.026236007
-0.021639409 -0.03590681 -0.0040373253 0.09231711 0.03220695 -0.011787664 -0.014279547 -0.006502091
00000000: 51a8 d13a e264 abbd dd0e f83d 23e2 073e
00000010: eca4 d83d 6394 1ebd 72bf bb3d e5ec d6bc
00000020: 2145 b1bc 0513 13bd 8a4b 84bb c110 bd3d
00000030: 6feb 033d 0c21 41bc c3f4 69bc 7e0f d5bb

conv3.weight f4 [8, 16, 3, 3]
0.065556616 0.08915752 0.13938025 0.093474895 0.15502575 0.11696507 0.09371002 0.13444155
0.16284615 0.11415988 0.08680921 0.10367378 0.030313842 0.09509871 0.19692445 0.111379296
0.19490051 0.20004307 -0.060275927 -0.10667002 -0.023237 -0.029623173 -0.06450164 -0.11838079
-0.013316712 -0.069813825 -0.04288242 -0.04939701 -0.06923894 -0.10024809 -0.073468566 -0.08813372
-0.10866909 -0.0769556 -0.07274392 -0.10205904 -0.014987436 -0.088793784 -0.034742553 -0.07377634
-0.07933236 -0.069276586 -0.059899263 -0.016885536 -0.058823757 0.1368286 0.15061654 0.15696876
0.08193686 0.10033893 0.15320984 0.07639505 0.14921865 0.17287105 -0.047856126 -0.0726347
-0.026806317 -0.03883684 -0.07784037 -0.070102766 -0.024788197 -0.029067898 -0.08115605 0.10985626
0.15715621 0.19006401 0.16236909 0.16882361 0.22567405 0.14402318 0.18002048 0.17922188
0.09097885 0.16553894 0.20951523 0.122132495 0.21945997 0.16232473 0.1602427 0.22541709
0.18615635 0.14414172 0.15428914 0.15854308 0.10357673 0.18294537 0.17499036 0.1472014
0.22494332 0.21198343 -3.178492e-29 1.6127143e-28 1.4320427e-35 2.4772933e-26 2.0394147e-26 -1.3505586e-30
3.0694082e-26 -6.2632517e-27 3.9510467e-31 -0.06707903 -0.09554321 -0.10336874 -0.08884222 -0.13786444
-0.14251445 -0.092639886 -0.14607668 -0.14899918 -0.08468496 -0.04867503 -0.002113478 -0.12046692
-0.08819784 -0.04226111 -0.1210744 -0.0987979 -0.06635122 0.08225764 0.09179398 0.15785548
0.1062771 0.13090914 0.12106974 0.12321637 0.17506991 0.14593464 0.11436851 0.15126462
0.1619748 0.117891826 0.19191723 0.173474 0.10704383 0.1613363 0.18573962 -0.00047523345
-0.0004728326 -4.6326724e-05 0.00029959442 -4.8390182e-05 0.00017513378 -8.188579e-05 -0.00043536254 -0.00024302099
-0.011332606 -0.009154731 -0.0058110626 -0.0062943725 -0.012270751 -0.008560786 -0.019505842 -0.01503729
-0.012749313 -0.004296919 -0.017468452 -0.0054189754 0.0024221814 -0.02071312 -0.011825545 0.03848989
0.012747705 -0.0007298815 -0.0025263394 -0.001825858 -0.0013016684 -0.0021067197 -0.0016668149 -0.0016397312
0.003359428 0.002548765 7.02706e-05 6.4690816e-05 -0.00016091493 -0.00021007184 9.9785284e-05 -2.2913944e-05
-0.00011960256 -0.00025486381 -0.00054299453 -0.00049555046 -0.00087613595 -0.00075331825 -0.0006674287 -0.001326303
-0.00081539364 -0.0008733152 -0.0009136572 -7.1391456e-05 -0.00042984248 -0.016279262 0.0016456469 0.0007043823
0.006183422 -0.012681389 -0.0014856542 0.011484063 -0.02495964 -0.015479742 -0.001300983 -0.0010348078
-0.00080066477 -0.00196758 -0.0012523152 -0.0010843154 -0.00045801126 6.534299e-05 -0.00043321546 0.0006153074
-0.011733168 -0.0058467826 0.0038928648 -0.0076920018 0.001567527 -0.0054614744 -0.024173958 -0.011424445
-0.020947736 0.0011488311 -0.0042258175 -0.017095268 -0.008671731 -0.007353745 -0.016620848 -0.0025993208
-0.012707334 0.0070117987 0.0028503356 -0.0036412629 0.011053627 -0.00950189 -0.00015177864 0.03031959
-0.0015365288 0.0012345888 -2.8208617e-28 -3.3149794e-31 6.0885e-41 2.2036198e-26 -1.4558689e-30 2.0411e-41
4.69664e-27 -2.9082758e-28 -2.767145e-39 -0.00024011392 -0.00037385 -0.00035182943 -0.00061871024 -0.0005818878
-0.00055573526 -0.00123606 -0.0010601616 -0.0008717211 -0.0016682274 -0.0012052002 -0.0007883093 -0.0027487206
00000000: 8c42 863d 3898 b63d b2b9 0e3e c46f bf3d
00000010: 12bf 1e3e 628b ef3d 0aeb bf3d 0cab 093e
00000020: 24c1 263e a8cc e93d 07c9 b13d eb52 d43d
00000030: bc54 f83c 1dc3 c23d 90a6 493e d41a e43d
00000040: 0094 473e 17d8 4c3e e4e3 76bd d075 dabd
00000050: 855b bebc 4cac f2bc 7019 84bd a171 f2bd
00000060: 572e 5abc 8dfa 8ebd 7aa5 2fbd 8554 4abd
00000070: 25cd 8dbd df4e cdbd b076 96bd 747f b4bd
00000080: e68d debd e69a 9dbd c4fa 94bd 5404 d1bd
00000090: dd8d 75bc 84d9 b5bd 354e 0ebd 0d18 97bd
000000a0: 0179 a2bd e2e0 8dbd ee58 75bd 8953 8abc
000000b0: 2ef1 70bd cc1c 0c3e 393b 1a3e 6bbc 203e
000000c0: 83ce a73d 7f7e cd3d 0ae3 1c3e 0275 9c3d
000000d0: c6cc 183e 1c05 313e c904 44bd 80c1 94bd
000000e0: ec98 dbbc 6113 1fbd c66a 9fbd 0a92 8fbd
000000f0: 9e10 cbbc cd1f eebc 2535 a6bd 52fc e03d
00000100: 8fed 203e 24a0 423e 1544 263e 19e0 2c3e
00000110: 1917 673e d07a 133e 4a57 383e f185 373e
00000120: 1f53 ba3d 0a83 293e 298b 563e 9a20 fa3d
00000130: 1dba 603e 7438 263e aa16 243e bdd3 663e
00000140: c59f 3e3e e399 133e f9fd 1d3e 1e59 223e
00000150: 0920 d43d 0856 3b3e ac30 333e f7bb 163e
00000160: 8b57 663e 2f12 593e 2f2b 2190 926f 4c11
00000170: e947 9805 d956 f514 4ef9 c914 0224 db8d
00000180: 5ffd 1715 eb1c f893 0338 000d bb60 89bd
00000190: 29ac c3bd fdb2 d3bd e9f2 b5bd 562c 0dbe
000001a0: 4fef 11be fbb9 bdbd 2095 15be 3e93 18be
000001b0: 4f6f adbd 785f 47bd 4782 0abb 5cb7 f6bd
000001c0: 12a1 b4bd fc19 2dbd dbf5 f7bd 8e56 cabd
000001d0: 26e3 87bd b276 a83d 7bfe bb3d dea4 213e
000001e0: cfa7 d93d 0c0d 063e 69f3 f73d dd58 fc3d
000001f0: 8745 333e e46f 153e 0a3a ea3d 1de5 1a3e
00000200: b9dc 253e 4571 f13d f385 443e 2ba3 313e
00000210: cc39 db3d 5835 253e 8732 3e3e c128 f9b9
00000220: 84e6 f7b9 f14e 42b8 e212 9d39 90f6 4ab8
00000230: 1ea4 3739 19ba abb8 5f41 e4b9 73d3 7eb9
00000240: 65ac 39bc bafd 15bc ba6a bebb 0641 cebb
00000250: 430b 49bc 8a42 0cbc b7ca 9fbc f75e 76bc
00000260: 7fe2 50bc 2bcd 8cbb 001a 8fbc a991 b1bb
00000270: 76bd 1e3b 90ae a9bc eebf 41bc 93a7 1d3d
00000280: c0db 503c 8555 3fba f190 25bb a151 efba
00000290: be9c aaba e410 0abb 0779 daba 40ec d6ba
000002a0: d929 5c3b 2e09 273b 3e5e 9338 9eaa 8738
000002b0: 46bb 28b9 bb46 5cb9 d143 d138 5237 c0b7
000002c0: 23d3 fab8 3e9f 85b9 bf57 0eba d4e7 01ba
000002d0: 7dac 65ba 557a 45ba 62f6 2eba 58d7 adba
000002e0: 24c0 55ba 31ef 64ba 7f82 6fba ffb7 95b8
000002f0: 7b5c e1b9 165c 85bc bfb2 d73a 4ca6 383a
00000300: 4e9e ca3b 9ac5 4fbc 48ba c2ba a727 3c3c
00000310: 2978 ccbc be9e 7dbc bf85 aaba 63a2 87ba
00000320: b4e3 51ba 84f2 00bb ba24 a4ba 961f 8eba
00000330: 3b21 f0b9 c008 8938 3221 e3b9 954c 213a
00000340: 793c 40bc 5e96 bfbb 6f1f 7f3b 300d fcbb
00000350: 7a75 cd3a 2bf6 b2bb 7708 c6bc 982d 3bbc
00000360: 969a abbc 6094 963a ba78 8abb 600b 8cbc
00000370: e013 0ebc aff7 f0bb 7228 88bc 5e59 2abb
00000380: 6c32 50bc 3bc3 e53b b2cc 3a3b 41a2 6ebb
00000390: 461a 353c d1ad 1bbc c526 1fb9 ca60 f83c
000003a0: 5a65 c9ba edd1 a13a 19cb b291 8b27 d78c
000003b0: b9a9 0000 663c da14 6e3a ec8d e638 0000
000003c0: 970d ba13 7955 b891 ad21 1e80 17c7 7bb9
000003d0: 4c01 c4b9 bf75 b8b9 f130 22ba d489 18ba
000003e0: c3ae 11ba 4b03 a2ba 1ff5 8aba 3684 64ba
000003f0: 6ca8 daba cff7 9dba 8ba6 4eba e123 34bb

conv3.bias f4 [8]
-0.021247586 -0.040099677 0.05779091 0.110478856 -0.023148442 0.013990913 0.0060901036 0.074148245
00000000: 6b0f aebc 8f3f 24bd 29b6 6c3d bd42 e23d
00000010: cda1 bdbc 243a 653c 7e8f c73b 09db 973d

conv4.weight f4 [4, 8, 3, 3]
-0.03261923 -0.09433484 -0.05021353 -0.051738523 -0.029929183 -0.059165142 -0.034397695 -0.047995616
-0.09622019 -8.023576e-05 -0.00011890685 2.1807438e-05 -0.0009377683 6.4330285e-05 -9.293834e-06 -0.0010202416
-0.00014434039 -2.9559103e-05 0.0014891896 -0.018586932 0.03436419 0.0943029 0.018133858 0.04187186
0.070779 0.024937512 0.053181227 0.053791482 0.10034605 -0.11201013 0.034395643 -0.010078549
-0.02531232 -0.047938053 0.06547031 0.10204823 -0.07094459 -0.015240939 -0.020024696 -0.019746397
-0.015954461 0.0076185465 -0.026815265 -0.017638015 -0.025087243 -0.040718682 -0.05412363 -0.099205166
-0.02643234 -0.04082616 -0.13080037 -0.03587316 -0.01680708 -0.07764577 -0.02991958 0.00018668183
-0.04562797 -0.02384403 -0.011695552 0.022028856 -0.05670348 -0.0067963684 -0.015920773 -0.0065111015
0.03881915 -0.03009662 0.107026085 -0.0023273556 -0.06018594 0.026806042 0.05670698 -0.0019450116
-0.018204667 -0.02610391 -0.02389687 -0.019585088 -0.026607616 -0.024760945 -0.020921241 -0.026795257
-0.025479719 4.0101e-41 -4.125e-41 1.2623895e-24 -1.6608869e-24 -1.0974126e-26 -2.86e-43 2.4315033e-22
2.3827319e-20 5.0818e-41 1.1617553e-16 2.1251747e-15 1.9232024e-21 5.2774676e-17 2.5972807e-20 -1.6612537e-18
1.4390755e-20 6.577996e-16 6.0793345e-23 -0.004381764 -0.00950267 -0.008446712 -0.0048527005 -0.009948517
-0.008761974 -0.0060171066 -0.010150834 -0.009227609 -0.016825771 -0.025392342 -0.023091583 -0.018110124
-0.025838537 -0.023868956 -0.019658241 -0.026031071 -0.024528988 -0.020143747 -0.026566565 -0.024351727
-0.0216012 -0.027140448 -0.02524667 -0.022196202 -0.027244596 -0.025946505 -0.017732086 -0.026127025
-0.02396616 -0.019170377 -0.02662072 -0.024850646 -0.020748671 -0.026821697 -0.025562448 -1.7247898e-12
-1.1323759e-12 -1.4362216e-10 -6.9847246e-11 -5.3024934e-10 -1.0118696e-10 -1.4815157e-10 -9.706665e-10 -4.1224104e-09
-0.010537088 -0.021876834 -0.022950735 0.017073166 -0.0014480706 0.004565739 -0.00652958 0.013312311
0.006222243 0.00036738443 -4.0142075e-07 4.8894003e-07 -0.00017311782 1.8504124e-05 -8.866691e-08 3.0933326e-05
-2.9677178e-06 -7.065424e-08 -0.05418991 0.073356256 -0.06484021 -0.023287429 0.054708127 0.0084577445
-0.09731603 -0.11481002 -0.05857718 0.10177558 -0.08606396 0.05602362 0.07408609 -0.053728387
-0.059117362 -0.089027576 0.011514722 -0.024556825 -0.019825092 -0.0044381977 -0.007715521 -0.00096039905
-0.0022241469 -0.0035333103 -0.0032976626 0.00067581737 -0.010086216 0.001566493 -0.06218017 -0.07344293
-0.09732712 -0.09311368 -0.06262079 -0.05981328 -0.08352181 -0.04085065 -0.010335458 -0.0050114384
0.014246086 0.005546121 0.011032585 0.01556749 0.006898526 0.012822531 0.018463857 -0.0035145357
0.049943246 0.10143072 0.079863295 0.00978239 -0.011444599 0.024050666 -0.007574015 -0.019733852
0.14284995 0.08852211 0.06529984 0.1370001 0.1659155 0.13191657 0.059201203 0.2579171
0.15713349 -0.019289037 -0.015794981 -0.0063458686 -0.032562178 0.002077459 -0.00958958 0.01242349
0.019011216 -0.021363163 0.0309493 0.06561791 -0.0065938598 0.036755107 -0.059837177 0.0051060473
0.017762804 -0.06444154 0.055012956 -0.18016176 -0.041404054 -0.134469 -0.22323065 -0.26061293
-0.35311377 -0.09274522 -0.15014637 -0.33452722 0.070417605 0.1311819 0.09689265 0.0645553
00000000: be9b 05bd a032 c1bd b4ac 4dbd c6eb 53bd
00000010: 0c2e f5bc 2657 72bd 99e4 0cbd 0d97 44bd
00000020: 170f c5bd 3f44 a8b8 a15d f9b8 1eef b637
00000030: 91d4 75ba 0fe9 8638 b7ec 1bb7 a1b9 85ba
00000040: 145a 17b9 b1f5 f7b7 e930 c33a 9f43 98bc
00000050: 77c1 0c3d e121 c13d 758d 943c d481 2b3d
00000060: 95f4 903d c149 cc3c 8fd4 593d 7554 5c3d
00000070: 3b82 cd3d 9165 e5bd 72e2 0c3d 8020 25bc
00000080: c85b cfbc b15a 44bd 4c15 863d aafe d03d
00000090: 664b 91bd 22b5 79bc d50a a4bc 32c3 a1bc
000000a0: eeb2 82bc 00a5 f93b b0ab dbbc 997d 90bc
000000b0: c383 cdbc a2c8 26bd bdb0 5dbd 142c cbbd
000000c0: a288 d8bc 5539 27bd 88f0 05be bcef 12bd
000000d0: 00af 89bc bf04 9fbd e819 f5bc 06c0 4339
000000e0: 65e4 3abd 8e54 c3bc b39e 3fbc dc75 b43c
000000f0: e941 68bd 12b4 debb 486c 82bc 145b d5bb
00000100: d400 1f3d 308d f6bc 7e30 db3d 8c86 18bb
00000110: 8885 76bd 5898 db3c 9445 683d c2ef feba
00000120: f421 95bc ded7 d5bc 5ec3 c3bc e870 a0bc
00000130: 37f8 d9bc 77d7 cabc 0663 abbc ba81 dbbc
00000140: d8ba d0bc c96f 0000 fd72 0080 6658 c317
00000150: 4181 0098 6e5d 5994 cc00 0080 b1f9 921b
00000160: ec0a e11e a98d 0000 f7f0 0525 8e22 1927
00000170: 2550 111d 5761 7324 654e f51e 6428 f5a1
00000180: b6ea 871e 0b99 3d26 42fd 921a e794 8fbb
00000190: 16b1 1bbc 1464 0abc 6703 9fbb 1bff 22bc
000001a0: 628e 0fbc 262b c5bb af4f 26bc 662f 17bc
000001b0: 33d6 89bc 9a03 d0bc 8f2a bdbc af5b 94bc
000001c0: 57ab d3bc d488 c3bc 520a a1bc 1d3f d5bc
000001d0: 04f1 c8bc 8004 a5bc 20a2 d9bc 467d c7bc
000001e0: 00f5 b0bc a555 debc 1bd2 cebc cfd4 b5bc
000001f0: 0f30 dfbc c48d d4bc e142 91bc 5808 d6bc
00000200: ae54 c4bc 320b 9dbc b213 dabc 9593 cbbc
00000210: 1ef9 a9bc 2db9 dbbc 5768 d1bc 1abe f2ab
00000220: 245e 9fab 0bea 1daf 8198 99ae fbc0 11b0
00000230: 3283 deae f6e4 22af 4b68 85b0 1ba5 8db1
00000240: c0a3 2cbc 0c37 b3bc 2e03 bcbc 06dd 8b3c
00000250: 30cd bdba 329c 953b 16f6 d5bb e11b 5a3c
00000260: f5e3 cb3b 819d c039 d982 d7b4 b43f 0335
00000270: f686 35b9 4e39 9b37 2669 beb3 68be 0138
00000280: 0129 47b6 94ba 97b3 3df6 5dbd ce3b 963d
00000290: f2ca 84bd 47c5 bebc a115 603d 5a92 0a3c
000002a0: a04d c7bd 8421 ebbd a0ee 6fbd b76f d03d
000002b0: 4d42 b0bd 0679 653d 73ba 973d 4c12 5cbd
000002c0: 0c25 72bd 1754 b6bd 3fa8 3c3c 652b c9bc
000002d0: 3b68 a2bc 4d6e 91bb 7bd2 fcbb 4ac3 7bba
000002e0: fec2 11bb 1c8f 67bb 991d 58bb 5629 313a
000002f0: a840 25bc c852 cd3a a2b0 7ebd 3f69 96bd
00000300: 7153 c7bd 63b2 bebd 543f 80bd c5fe 74bd
00000310: 7c0d abbd 0353 27bd 0e56 29bc fe36 a4bb
00000320: 6a68 693c 3cbc b53b 04c2 343c c90e 7f3c
00000330: 080d e23b 9815 523c 8441 973c 2054 66bb
00000340: 4a91 4c3d e9ba cf3d 5e8f a33d 5146 203c
00000350: 2182 3bbc e705 c53c 712f f8bb e3a8 a1bc
00000360: 4247 123e 144b b53d ecbb 853d c149 0c3e
00000370: c1e5 293e 2315 073e f67c 723d b60d 843e
00000380: 9ae7 203e 0b04 9ebc 7a64 81bc 01f1 cfbb
00000390: eb5f 05bd fa25 083b 9d1d 1dbc e58b 4b3c
000003a0: 69bd 9b3c cd01 afbc 6389 fd3c af62 863d
000003b0: 4e11 d8bb 868c 163d d417 75bd a150 a73b
000003c0: 4d83 913c edf9 83bd 4455 613d 537c 38be
000003d0: 4c97 29bd 3eb2 09be 9396 64be 0f6f 85be
000003e0: 54cb b4be 35f1 bdbd f8bf 19be 2747 abbe
000003f0: 1b37 903d 8c54 063e a76f c63d 9235 843d

conv4.bias f4 [4]
0.07070132 -0.0057520783 0.045825265 0.040408928
00000000: dbcb 903d ee7b bcbb 46b3 3b3d d583 253d

conv5.weight f4 [2, 4, 3, 3]
-0.15160605 0.15137051 -0.12071552 -0.03336594 0.08644313 -0.05100987 0.1541285 -0.065721475
-0.013563227 0.00660323 -0.028528655 -0.027262762 -0.02583311 -0.027705852 -0.027876643 -0.024288094
-0.026420102 -0.026334984 -0.0666807 -0.12837033 0.13551217 0.07909207 0.09977571 0.017605338
-0.10623532 0.071381435 0.023639541 0.09586589 -0.044640146 -0.14194731 0.18679614 0.06687664
-0.09755295 0.033546954 -0.024620377 -0.015082406 0.09461079 -0.13019522 0.15244956 0.112469174
0.0017715946 -0.06548199 0.03250831 -0.10973714 0.10838728 -0.022206804 -0.024035884 -0.023107812
-0.022530217 -0.024767257 -0.02021837 -0.0032013939 -0.025583724 -0.022311563 0.111839555 0.09450344
-0.14117981 0.015394104 -0.057435445 -0.0793958 0.112380154 -0.024943842 0.02461263 0.15283233
0.19541404 0.097052924 -0.0028619897 -0.10285945 -0.18228075 0.038760964 -0.0035251093 -0.13824126
00000000: 9e3e 1bbe df00 1b3e b339 f7bd b9aa 08bd
00000010: 1909 b13d baef 50bd ddd3 1d3e fb98 86bd
00000020: 4c38 5ebc e85f d83b edb4 e9bc 2856 dfbc
00000030: f59f d3bc 62f7 e2bc 8f5d e4bc d3f7 c6bc
00000040: f86e d8bc 77bc d7bc e48f 88bd 8373 03be
00000050: b4c3 0a3e 06fb a13d 3557 cc3d 1239 903c
00000060: e791 d9bd 6e30 923d b6a7 c13c 5655 c43d
00000070: 96d8 36bd a35a 11be 7d47 3f3e 9ff6 883d
00000080: d7c9 c7bd 8868 093d acb0 c9bc 321c 77bc
00000090: 4dc3 c13d e551 05be bd1b 1c3e 3d56 e63d
000000a0: da34 e83a 6c1b 86bd 6f27 053d debd e0bd
000000b0: 26fa dd3d 0beb b5bc e7e6 c4bc 984c bdbc
000000c0: 4a91 b8bc b4e4 cabc ffa0 a5bc 7ace 51bb
000000d0: f594 d1bc bdc6 b6bc 230c e53d 058b c13d
000000e0: 7191 10be 8d37 7c3c 6e41 6bbd 449a a2bd
000000f0: 9127 e63d 0757 ccbc 6da0 c93c 1480 1c3e
00000100: 9e1a 483e afc3 c63d 3890 3bbb faa7 d2bd
00000110: cea7 3abe d1c3 1e3d 8505 67bb 1e8f 0dbe

conv5.bias f4 [2]
0.09165536 0.16478562
00000000: ceb5 bb3d 90bd 283e

fc1.weight f4 [256, 512]
-0.0013732344 0.0044965846 0.04047003 -0.011376383 0.042635456 -0.017894791 0.02610012 -0.039728455
0.021516312 -0.020235484 -0.020935018 -0.024603937 -0.022523537 0.04059108 0.010136864 -0.016723022
-0.015426211 -0.0109904865 -0.027621076 -0.0026314252 -0.06368047 0.05867189 -0.072033025 -0.045232676
0.029537264 -0.086185314 -0.08036829 0.060587354 -0.08212515 0.075708404 0.018702196 0.06510896
-0.0023680034 -0.04339278 0.0009758358 0.0013183036 0.0063339407 -0.004534711 0.00791768 0.01364252
-0.033268377 -0.05429272 -0.042200357 -0.009113186 -0.07359104 -0.062786065 0.11131334 0.084602825
-0.023350222 -0.10043631 -0.03167032 -0.0646124 0.07673635 -0.08477831 0.010778905 0.07961454
-0.008018532 -0.115238935 0.018218154 -0.0022621495 -0.016676573 0.07810527 -0.0022160383 0.045478813
0.04170255 0.0183136 0.06378309 -0.026897378 -0.01712793 0.033497393 -0.01964234 0.024206262
0.06764639 -0.06582326 0.030630182 0.07609616 0.06997129 0.1728346 0.006025457 -0.08682854
0.01764458 -0.028215086 0.0027544405 -0.12394638 -0.00239636 -0.035231713 0.011426074 0.044899415
-0.04945437 0.026126828 -0.12691657 -0.06085394 0.06413171 0.007047719 0.09334073 -0.014869247
0.057574365 0.025436394 -0.07260249 -0.0013125788 0.044192147 0.009812887 0.043717682 0.011733634
-0.060559418 0.0351463 -0.10238651 0.07331845 0.051763125 -0.0905291 -0.09911162 0.12186206
0.03366965 0.026205217 -0.0070561753 -0.029271066 0.06737555 0.016636437 0.0853672 -0.0199086
-0.05380998 0.0517472 0.0039630155 -0.029724883 0.061768126 -0.1057192 -0.07248249 -0.009459006
0.041838575 0.032662235 0.12251821 0.015723906 0.06295891 -0.047350388 -0.029572016 -0.020446647
0.013070641 0.054441314 -0.0061086286 0.053648707 0.10009993 -0.07640732 -0.07503513 -0.034061786
0.015469972 -0.014120358 0.011843732 0.0069733583 0.033480532 0.060682558 -0.024789123 0.025594726
-0.07352764 -0.029151063 -0.038040396 0.05237859 0.07256057 -0.074737184 -0.0015847879 0.0041137137
0.035644986 0.023138283 -0.020264631 -0.022705618 -0.0024959554 0.008627127 0.0452808 -0.015569893
-0.057946887 -0.031186927 0.07610577 -0.011552142 -0.0043456526 -0.026704403 -0.10574164 -0.026133744
0.038799863 0.015708825 0.037190665 -0.01420418 -0.07306278 0.008020035 0.04298462 0.03646651
-0.10661013 -0.03344837 0.013237021 0.06043539 -0.02516372 0.0022568195 -0.06376539 0.0011228307
-0.043357782 -0.016841166 -0.09113399 -0.02718394 0.0091396505 -0.022383064 -0.054246556 0.11441946
0.03195422 -0.038142014 -0.032789227 0.07961821 0.091025695 0.026821973 -0.0032935645 -0.0639562
-0.0023548312 -0.030498264 -0.07917953 0.0781985 -0.0028245326 0.010014704 -0.015531413 0.03442245
-0.0067829615 -0.049193554 -0.14840709 -0.0114333285 0.06762458 0.01041787 0.08255382 -0.06263004
0.0013788794 0.024029773 0.017061379 0.052761894 -0.06346775 0.046965268 0.054147698 -0.038527023
-0.01663731 0.09085958 -0.12642635 0.06330244 -0.12602562 0.03232772 0.100716054 0.013116315
-0.0056592356 0.034445092 0.011730219 -0.010564854 -0.017129805 -0.011032697 0.023663059 -0.01515285
0.009691156 0.014739928 -0.022938605 0.03003807 -0.03245539 -0.012784465 -0.013528536 -0.024676073
00000000: 1afe b3ba 1658 933b e7c3 253d 0264 3abc
00000010: 84a2 2e3d 1998 92bc ebcf d53c 4eba 22bd
00000020: fa42 b03c e3c4 a5bc ea7f abbc 328e c9bc
00000030: 4883 b8bc d542 263d 1715 263c b8fe 88bc
00000040: 38be 7cbc 7111 34bc 9845 e2bc fd73 2cbb
00000050: e86a 82bd f051 703d 0d86 93bd e645 39bd
00000060: 22f8 f13c ed81 b0bd 2198 a4bd 722a 783d
00000070: 3b31 a8bd 020d 9b3d 5935 993c d957 853d
00000080: 8130 1bbb a1bc 31bd 3bcf 7f3a eeca ac3a
00000090: f28c cf3b ea97 94bb 28b9 013c e084 5f3c
000000a0: 6c44 08bd 0b62 5ebd 48da 2cbd 794f 15bc
000000b0: e6b6 96bd fb95 80bd 40f8 e33d 3f44 ad3d
000000c0: f748 bfbc 8db1 cdbd bdb8 01bd 8253 84bd
000000d0: f327 9d3d 40a0 adbd 019a 303c f30c a33d
000000e0: 2960 03bc 6402 ecbd 3d3e 953c 9240 14bb
000000f0: 4f9d 88bc a8f5 9f3d f43a 11bb fe47 3a3d
00000100: 4bd0 2a3d 6706 963c b5a0 823d e457 dcbc
00000110: df4f 8cbc 9034 093d f9e8 a0bc 364c c63c
00000120: 318a 8a3d 58ce 86bd 26ec fa3c 4ed8 9b3d
00000130: 1c4d 8f3d 8efb 303e 3271 c53b 29d3 b1bd
00000140: 5e8b 903c 5323 e7bc d883 343b 9ad7 fdbd
00000150: 400c 1dbb 214f 10bd 6e34 3b3c 73e8 373d
00000160: aa90 4abd ee07 d63c 6bf6 01be fb41 79bd
00000170: 7c57 833d 8df0 e63b 6d29 bf3d 249e 73bc
00000180: 19d3 6b3d fc5f d03c 9db0 94bd d60a acba
00000190: d302 353d 3bc6 203c 5011 333d 6e3e 403c
000001a0: 270d 78bd 91f5 0f3d 05b0 d1bd fc27 963d
000001b0: 9205 543d 5267 b9bd 08fb cabd d192 f93d
000001c0: 30e9 093d 53ac d63c 7d37 e7bb e0c9 efbc
000001d0: 31fc 893d 2349 883c 00d5 ae3d 5c17 a3bc
000001e0: db67 5cbd dff4 533d 2fdc 813b 9981 f3bc
000001f0: 9300 7d3d 4f83 d8bd b371 94bd f2f9 1abc
00000200: ed5e 2b3d d6c8 053d d4ea fa3d 6ccf 803c
00000210: 9af0 803d 7bf2 41bd 0341 f2bc ba7f a7bc
00000220: 3e26 563c dbfd 5e3d e42a c8bb bfbe 5b3d
00000230: 3101 cd3d 717b 9cbd 05ac 99bd 5f84 0bbd
00000240: c475 7d3c 1359 67bc 360c 423c c580 e43b
00000250: e222 093d 468e 783d 8f12 cbbc 08ac d13c
00000260: a995 96bd 36ce eebc 3fd0 1bbd ef8a 563d
00000270: a39a 943d cf0f 99bd a8b8 cfba 55cc 863b
00000280: 7a00 123d 7f8c bd3c 0302 a6bc 2201 babc
00000290: 2f93 23bb cb58 0d3c 5c78 393d dd18 7fbc
000002a0: b759 6dbd ba7b ffbc 58dd 9b3d 3245 3dbc
000002b0: fa65 8ebb 31c3 dabc 138f d8bd 6f16 d6bc
000002c0: 9bec 1e3d cbaf 803c 3d55 183d a6b8 68bc
000002d0: f0a1 95bd 7766 033c a410 303d e85d 153d
000002e0: 6956 dabd 2801 09bd 17e0 583c 198b 773d
000002f0: 2524 cebc 26e7 133b 6e97 82bd f22b 933a
00000300: ee97 31bd 7cf6 89bc 75a4 babd dbb0 debc
00000310: 79be 153c b05c b7bc a331 5ebd c054 ea3d
00000320: 6ee2 023d cd3a 1cbd ff4d 06bd df0e a33d
00000330: ae6b ba3d c1b9 db3c d8d8 57bb 78fb 82bd
00000340: 8353 1abb 7fd7 f9bc e128 a2bd 8926 a03d
00000350: cb1b 39bb b714 243c 7877 7ebc 8efe 0c3d
00000360: 9b43 debb 2e7f 49bd 07f8 17be db52 3bbc
00000370: c17e 8a3d b7af 2a3c fa11 a93d 2e44 80bd
00000380: 84bb b43a 16da c43c 4ec4 8b3c db1c 583d
00000390: 61fb 81bd a75e 403d fac9 5d3d 83ce 1dbd
000003a0: f84a 88bc 9614 ba3d e975 01be b6a4 813d
000003b0: dc0c 01be 126a 043d 3844 ce3d d0e5 563c
000003c0: 1c71 b9bb 4c16 0d3d 1b30 403c 3618 2dbc
000003d0: ce53 8cbc 7cc2 34bc 08d9 c13c a943 78bc
000003e0: a8c7 1e3c bd7f 713c bee9 bbbc 6612 f63c
000003f0: f1ef 04bd ef75 51bc cba6 5dbc 7a25 cabc

fc1.bias f4 [256]
-0.011999302 0.051782947 0.06157374 -7.600334e-08 0.020306189 -0.030136794 0.014220107 0.04003602
0.0068794745 -8.428711e-05 0.020064197 0.012155743 0.0054792264 -0.00033348406 0.00040798198 -0.0070395446
0.0031930811 0.037567757 -0.013578628 -0.006791663 0.0047506443 0.062646225 -7.557062e-06 -0.0019070869
-0.0053924 -0.00081566913 0.026294377 -4.2521217e-12 -0.002883168 -0.007929035 -2.0575144e-18 0.052055642
-0.0008925763 -0.0015872254 -0.0031065815 -0.010404925 -0.0006433854 0.077827156 -2.635475e-05 -0.010053138
0.039369024 -0.020101743 -6.915185e-11 -0.0013796899 -0.009929634 0.0044314284 0.0067412807 0.0020978262
-0.022158269 0.06676403 -9.032447e-06 -0.010803857 -7.8749166e-05 -0.00016102011 -0.0001535219 -0.052417547
-0.00026977668 0.0021680119 0.00018547337 -1.8132194e-05 0.051129285 -4.368007e-06 0.010911062 -0.0028242688
-0.0010702154 -0.0017007682 -0.00013904685 0.073292755 -6.135397e-12 0.011770365 0.0032726366 0.065503165
-0.0059419307 -0.015091651 -3.743302e-19 0.046110287 0.0016597182 0.01999945 -0.011129976 -8.374815e-12
-2.1625864e-11 -0.0104220575 -0.00011142088 -0.0020160913 -0.026415361 -0.0019390536 -0.0010333366 0.068362035
-0.002817867 0.07120375 0.07265007 0.0623302 0.00019644252 -0.018343214 -0.003671273 0.052960344
-0.013327344 0.00080754334 -0.013998268 -9.118575e-08 -0.019760901 0.0726948 -0.03155464 0.009246383
-0.0037795953 -0.0018998997 -1.2032114e-08 0.07208144 0.041711155 -0.008795136 -0.00056935154 0.04144045
-0.0017568317 -0.004388504 0.071159154 -0.002756778 -9.334843e-06 -0.006051763 -4.723657e-05 -0.00094326714
-0.0012324458 0.059461586 -5.6580244e-08 -7.7385126e-10 -4.1013628e-15 0.007918702 -0.0047293934 0.04326225
-0.0013764988 0.018694755 -0.014153716 -4.155375e-06 -0.013306464 -0.0024225311 -0.0036744121 -0.0076858765
0.038903117 0.029814512 -4.9456355e-09 0.03299549 4.027695e-36 0.05762667 -0.0008058456 -0.020569108
-9.497494e-08 -0.010161042 -5.4360562e-14 -8.948445e-11 0.05533093 0.010990993 -0.0053796424 -0.0056473785
-0.017704971 0.007253812 -5.535514e-05 -0.0023748272 0.04743566 -1.0947003e-06 -0.0020207737 4.2730484e-23
-2.8088079e-12 0.06109984 -3.588237e-05 -0.0023125147 0.017164446 -2.561061e-16 0.008602076 -0.015652934
0.04317224 -9.748404e-06 0.031044878 -0.008351659 0.017036317 -0.0035170282 -0.0030631423 0.0110822385
-1.2718253e-08 -1.0336159e-16 -2.389182e-05 -0.00089793274 -0.0019111518 -0.001244745 -2.5998796e-05 0.03263432
0.04348744 -0.0012974256 -8.337123e-20 -7.685122e-15 -0.0002071453 -0.0006445047 0.0027190135 -0.0030335397
0.0060337693 -0.08154914 -0.008001328 0.008872887 -1.7049617e-08 -0.00024393074 5.994426e-38 -0.01791622
-2.8311259e-05 -8.192438e-12 -1.5250272e-05 -0.0008066912 0.010391377 0.037922695 -0.02162674 -1.7036049e-08
0.011846587 0.007862085 0.0063396962 -6.2950203e-06 -0.0011296354 0.0017215809 0.0039655184 -0.0001472384
-0.001955875 -0.0020202477 0.00020648068 -0.00033234747 -0.00092495367 0.000105022766 -7.31461e-05 0.04942346
-0.0030315712 0.072099715 0.00711813 -0.00016978121 0.03486636 0.028386422 0.049488813 -0.0076867817
-8.059416e-06 -4.6495766e-17 0.005075625 -0.01968814 -0.002304355 -0.0009875555 -0.012917192 0.029742485
0.00967095 -0.00021774408 -0.00033350484 -3.9932765e-11 -0.026729863 -9.428004e-14 0.028380403 0.06627112
0.038600802 -0.011075051 -0.0054788426 -0.00026439255 0.003642438 -0.00049235014 0.030230304 -2.9199347e-08
00000000: b898 44bc 5b1a 543d bf34 7c3d 4737 a3b3
00000010: 2a59 a63c 70e1 f6bc 74fb 683c cffc 233d
00000020: 376d e13b 4cc3 b0b8 ac5d a43c e228 473c
00000030: 158b b33b 79d7 aeb9 6ae6 d539 fbab e6bb
00000040: 0343 513b a6e0 193d e578 5ebc 998c debb
00000050: 4bab 9b3b aa4c 803d ab92 fdb6 38f7 f9ba
00000060: bbb2 b0bb a1d2 55ba 4e67 d73c b59b 95ac
00000070: 88f3 3cbb c9e8 01bc 59d1 17a2 4c38 553d
00000080: c8fb 69ba 720a d0ba ca97 4bbb 6b79 2abc
00000090: dda8 28ba d863 9f3d 6514 ddb7 ebb5 24bc
000000a0: 6a41 213d 69ac a4bc 0811 98ae b6d6 b4ba
000000b0: e7af 22bc 8435 913b f6e5 dc3b af7b 093b
000000c0: 4285 b5bc 94bb 883d 118a 17b7 a902 31bc
000000d0: 2326 a5b8 82d7 28b9 b9fa 20b9 c8b3 56bd
000000e0: d070 8db9 3415 0e3b a17b 4239 971a 98b7
000000f0: f16c 513d e590 92b6 50c4 323c 5e17 39bb
00000100: 7846 8cba 50ec deba 1bcd 11b9 831a 963d
00000110: bede d7ac 7dd8 403c bb79 563b 8626 863d
00000120: 87b4 c2bb f942 77bc 2ef7 dca0 24de 3c3d
00000130: e78a d93a e3d5 a33c 815a 36bc d054 13ad
00000140: 1e39 bead 47c1 2abc a1aa e9b8 6620 04bb
00000150: 0765 d8bc d827 feba 0671 87ba 6501 8c3d
00000160: f7ab 38bb 46d3 913d 8fc9 943d f44d 7f3d
00000170: 23fc 4d39 8244 96bc bd99 70bb f2ec 583d
00000180: ef5a 5abc 51b1 533a fe58 65bc e5d1 c3b3
00000190: 9de1 a1bc 03e1 943d 703f 01bd 247e 173c
000001a0: 16b3 77bb 0e06 f9ba ccb5 4eb2 6f9f 933d
000001b0: 51d9 2a3d 7919 10bc 8940 15ba 76bd 293d
000001c0: 7d45 e6ba 71cd 8fbb e4bb 913d 0fab 34bb
000001d0: d89c 1cb7 de4d c6bb e11f 46b8 9645 77ba
000001e0: 058a a1ba fe8d 733d a302 73b3 f1b6 54b0
000001f0: 65c4 93a7 72bd 013c 07f9 9abb c233 313d
00000200: a36b b4ba be25 993c fde4 67bc 666e 8bb6
00000210: 5b03 5abc 54c3 1ebb 68ce 70bb ced9 fbbb
00000220: e058 1f3d 903d f43c 45ee a9b1 4726 073d
00000230: b751 ab04 f109 6c3d 623f 53ba 8c80 a8bc
00000240: 07f5 cbb3 807a 26bc 76d1 74a9 44c7 c4ae
00000250: afa2 623d 9113 343c b647 b0bb a50d b9bb
00000260: 040a 91bc 63b1 ed3b 212d 68b8 fda2 1bbb
00000270: e54b 423d 9eed 92b5 f56e 04bb c7a1 4e1a
00000280: fca6 45ac d343 7a3d 6780 16b8 8f8d 17bb
00000290: 749c 8c3c 97a2 93a5 b9ef 0c3c 953a 80bc
000002a0: 60d5 303d 148d 23b7 d451 fe3c 66d5 08bc
000002b0: bf8f 8b3c f17d 66bb 00bf 48bb 4792 353c
000002c0: 787f 5ab2 ea55 eea4 4b6b c8b7 3f63 6bba
000002d0: 9d7f faba b626 a3ba fd17 dab7 91ab 053d
000002e0: e31f 323d 610e aaba d1da c49f 5f71 0aa8
000002f0: 2535 59b9 faf3 28ba 7a31 323b 5ace 46bb
00000300: edb6 c53b 3c03 a7bd 0118 03bc 965f 113c
00000310: 8174 92b2 a9c7 7fb9 0d2f a301 09c5 92bc
00000320: f77d edb7 761f 10ad 6bdb 7fb7 2178 53ba
00000330: 9840 2a3c d454 1b3d 902a b1bc ab56 92b2
00000340: 3018 423c f9cf 003c 3abd cf3b d039 d3b6
00000350: 4610 94ba aba6 e13a 2ef1 813b 0264 1ab9
00000360: 232e 00bb 2266 04bb bc82 5839 ec3e aeb9
00000370: 9778 72ba ab3f dc38 0366 99b8 4170 4a3d
00000380: 53ad 46bb 04a9 933d 343f e93b 4c07 32b9
00000390: 07d0 0e3d a48a e83c c8b4 4a3d 66e1 fbbb
000003a0: ee36 07b7 836c 56a4 6e51 a63b 0649 a1bc
000003b0: a904 17bb dd70 81ba a1a2 53bc 83a6 f33c
000003c0: e772 1e3c 3b52 64b9 43da aeb9 4ca0 2fae
000003d0: 96f8 dabc be4c d4a9 057e e83c 27b9 873d
000003e0: e01b 1e3d 2174 35bc dd87 b3bb 2b9e 8ab9
000003f0: f8b5 6e3b 0f11 01ba 8ba5 f73c 0bd2 fab2

fc2.weight f4 [128, 256]
2.262e-41 -3.3092272e-11 -7.277487e-07 -4.324e-42 -7.077001e-05 -7.76e-42 2.3801e-41 -1.8460129e-05
-3.579147e-10 -2.9881e-41 3.484e-42 -2.821631e-36 -1.525e-41 1.0755e-41 -6.2452e-41 -0.00016093462
-3.9283e-41 -0.00017009409 3.0084e-41 5.577e-41 1.77e-42 -2.2249815e-05 -2.2824e-41 3.6085e-41
5.9219e-41 -5.721e-41 -5.308368e-07 -3.2402e-41 -0.00011185202 1.808e-41 -1.7078e-41 7.33e-42
4.6761e-41 -2.4259e-41 1.834e-41 1.0386e-41 -3.5522e-41 -0.0006767316 -1.289e-42 -1.1841e-41
-6.74953e-05 4.215e-42 -2.1046e-41 5.121e-41 5.871e-42 -8.965783e-05 -2.6430616e-06 8.071e-42
7.428e-42 -2.0433412e-05 -4.7113e-41 -0.000108425054 -5.0315e-41 6.71e-43 -3.2687e-41 -6.3475e-41
-4.9585e-41 3.5771e-41 4.1868e-41 -1.3325e-41 -0.00010659375 4.8747e-41 -1.7306e-41 7.221786e-32
2.624e-41 2.9237e-41 -2.173e-42 -0.00038759032 -5.0598e-41 -0.00018714373 -3.4237e-41 -1.9094905e-05
-8.621e-42 2.693e-42 -8.869e-42 -0.00024148838 -4.6921e-41 -5.556382e-06 1.93e-42 2.8062e-41
2.6909e-41 8.362e-42 4.962e-42 -6.2442e-41 -4.3296e-41 -5.5257e-41 4.3757e-41 -0.0005399569
-4.0454e-41 -7.473839e-06 -0.00012834523 9.659549e-30 -5.0497e-41 4.6251e-41 -6.043e-41 -6.9163466e-06
5.6995e-41 3.548e-42 -5.7997e-41 2.8912e-41 2.5428e-41 -5.1636016e-07 5.743e-42 -6.511201e-11
4.0667e-41 4.6862e-41 -2.9291e-41 -0.00037685115 -6.800471e-06 5.7533e-41 3.267e-41 -2.7165106e-10
3.5093e-41 -7.655e-42 -1.7317898e-08 3.2289e-41 -1.7966e-41 3.5723e-41 5.5284e-41 -4.5622e-41
-1.6011e-41 -0.0004002409 7.095e-42 -3.9266e-41 2.2098e-41 -1.4156e-41 -4.8764e-41 -2.4552833e-08
7.573e-42 3.1403e-41 5.3647e-41 -5.9785e-41 -1.247e-41 -2.4701046e-12 4.813e-41 -5.575074e-09
-4.239943e-06 -9.49333e-06 1.4873e-41 -0.0006913441 4.1513e-41 -0.00016804607 -5.9785e-41 -4.6596e-41
-4.3376e-41 8.703e-42 -6.06e-41 -2.5505e-41 -3.960063e-08 6.0647e-41 3.0516e-41 -5.0402e-41
4.6417e-41 -5.5162e-41 -6.1563e-41 -1.5604221e-23 -3.3322053e-10 -4.8381e-41 3.6498e-41 -5.1519e-41
2.8631e-41 -0.00038062813 -7.165e-42 -4.5053e-41 -2.867e-41 5.0692e-41 5.776e-42 5.0772e-41
-1.1359461e-05 -9.428e-42 -0.00024769138 -0.00043688316 -1.5140115e-05 3.5922e-41 -1.0988e-41 -1.451e-41
1.2686e-41 -1.7512e-41 -9.533e-42 -9.270493e-08 -2.0686e-41 2.619e-41 -4.1235e-41 -1.2895238e-06
-0.00052385154 5.4894e-41 -2.3574e-41 6.1811e-41 -5.3527e-41 -1.5131e-41 -2.9088e-41 2.5044e-41
-6.4115e-41 -4.5335e-41 4.099e-41 -4.9963e-41 -2.9811e-41 -4.133e-41 3.5052e-41 -3.0885e-41
7.339e-42 5.187e-41 1.134e-41 5.5822e-41 -2.9227e-41 -2.573203e-07 -4.3429e-41 5.3912e-41
-6.2045103e-07 -6.0494e-41 -1.4545057e-05 4.8824e-41 -3.5639e-41 5.132e-42 8.538e-42 8.525e-42
3.5379e-41 -7.315e-42 1.6736e-41 6.3725e-41 -2.1811e-41 -6.3249e-41 -1.9356e-41 -3.9987026e-07
-2.088e-41 -1.7521037e-07 -0.00010705847 3.2321e-41 -8.1167214e-05 -3.4466364e-05 -1.4081999e-06 -0.00012698593
3.4312e-41 -6.05e-41 -5.8434e-41 -2.2824785e-05 -1.6394e-41 -2.7097e-41 2.1593e-41 -1.728e-42
-0.00029717738 1.746e-41 -4.9351e-41 -5.1663e-41 -1.382992e-12 -1.9938e-41 -2.5217214e-05 -8.648514e-09
-9.863068e-06 6.1467e-41 -8.353092e-05 2.1488e-41 2.2656e-41 4.4455e-41 -6.3570145e-09 3.2028e-41
00000000: 0e3f 0000 968a 11ae 835a 43b5 0e0c 0080
00000010: 5c6a 94b8 a215 0080 5942 0000 d3da 9ab7
00000020: 04c4 c4af 4c53 0080 b609 0000 ae09 7084
00000030: 832a 0080 fb1d 0000 17ae 0080 8fc0 28b9
00000040: 816d 0080 495b 32b9 dd53 0000 779b 0000
00000050: ef04 0000 1da5 bab7 a03f 0080 9764 0000
00000060: 14a5 0000 7a9f 0080 d47e 0eb5 535a 0080
00000070: 1992 eab8 6632 0000 9b2f 0080 6f14 0000
00000080: 5a82 0000 a043 0080 2033 0000 f41c 0000
00000090: 0563 0080 b066 31ba 9803 0080 0221 0080
000000a0: 438c 8db8 c00b 0000 ab3a 0080 c18e 0000
000000b0: 5e10 0000 ae06 bcb8 745f 31b6 8016 0000
000000c0: b514 0000 6b68 abb7 5583 0080 4262 e3b8
000000d0: 428c 0080 df01 0000 1e5b 0080 f1b0 0080
000000e0: 398a 0080 b763 0000 b674 0000 2525 0080
000000f0: 158b dfb8 e387 0000 3e30 0080 007d bb0b
00000100: 2549 0000 8051 0000 0f06 0080 7e35 cbb9
00000110: 0c8d 0080 033c 44b9 705f 0080 ff2d a0b7
00000120: 0818 0080 8207 0000 b918 0080 0b38 7db9
00000130: cc82 0080 f570 bab6 6105 0000 3a4e 0000
00000140: 034b 0000 4f17 0000 d50d 0000 10ae 0080
00000150: b178 0080 099a 0080 fa79 0000 e58b 0dba
00000160: c570 0080 cac7 fab6 6994 06b9 3feb 430f
00000170: c48c 0080 ee80 0000 74a8 0080 f712 e8b6
00000180: e19e 0000 e409 0000 aca1 0080 9850 0000
00000190: e246 0000 009c 0ab5 0210 0000 ce2e 8fae
000001a0: 5d71 0000 a282 0000 a751 0080 1b94 c5b9
000001b0: 9a2f e4b6 61a0 0000 125b 0000 7d57 95af
000001c0: d361 0000 5715 0080 76c2 94b2 025a 0000
000001d0: 1532 0080 9563 0000 1c9a 0000 2d7f 0080
000001e0: a22c 0080 6dd7 d1b9 c713 0000 756d 0080
000001f0: 9a3d 0000 7627 0080 ef87 0080 40e8 d2b2
00000200: 1c15 0000 8a57 0000 8c95 0000 a8a6 0080
00000210: c322 0080 73d1 2dac 2b86 0000 df8e bfb1
00000220: d544 8eb6 8b45 1fb7 7629 0000 513b 35ba
00000230: b973 0000 8635 30b9 a8a6 0080 e481 0080
00000240: ea78 0080 4318 0000 eea8 0080 1947 0080
00000250: 5a15 2ab3 0fa9 0000 1155 0000 808c 0080
00000260: 6481 0000 c599 0080 9dab 0080 2eea 9699
00000270: 9f30 b7af de86 0080 be65 0000 9d8f 0080
00000280: d04f 0000 0b8f c7b9 f913 0080 977d 0080
00000290: ec4f 0080 4f8d 0000 1a10 0000 888d 0000
000002a0: 8394 3eb7 481a 0080 93dc 81b9 770d e5b9
000002b0: 4c02 7eb7 2364 0000 a11e 0080 7328 0080
000002c0: 5d23 0000 d130 0080 931a 0080 1315 c7b3
000002d0: aa39 0080 0249 0000 f272 0080 b313 adb5
000002e0: 1553 09ba 0699 0000 b741 0080 4eac 0000
000002f0: 3695 0080 2e2a 0080 1651 0080 d045 0000
00000300: bab2 0080 607e 0080 4372 0000 478b 0080
00000310: 1a53 0080 3673 0080 b661 0000 1856 0080
00000320: 7514 0000 9890 0000 9c1f 0000 9c9b 0000
00000330: 7951 0080 d525 8ab4 1079 0080 4996 0000
00000340: 128d 26b5 a2a8 0080 8b06 74b7 1a88 0000
00000350: 5963 0080 4e0e 0000 cd17 0000 c417 0000
00000360: 9f62 0000 6414 0080 a72e 0000 a4b1 0000
00000370: cd3c 0080 50b0 0080 f535 0080 c0ad d6b4
00000380: 343a 0080 7621 3cb4 9484 e0b8 195a 0000
00000390: 5138 aab8 fa8f 10b8 6101 bdb5 8727 05b9
000003a0: a65f 0000 a6a8 0080 e4a2 0080 da77 bfb7
000003b0: b32d 0080 894b 0080 313c 0000 d104 0080
000003c0: 79ce 9bb9 ac30 0000 9289 0080 0490 0080
000003d0: 8aa3 c2ab 9437 0080 8e89 d3b7 9194 14b2
000003e0: 8e79 25b7 58ab 0000 522d afb8 e63b 0000
000003f0: 283f 0000 ec7b 0000 e46c dab1 4859 0000
